IIFDS-DDPG-random_start/TrainedModel/ac_tar_weights_h.pkl (torch, 557697 bytes, 11 tensors)

pi.pi.0.weight f4 [256, 9]
00000000: 7e5e 163f 11c0 bfbe e6b2 e33f de8e 96bd
00000010: b693 163e 7951 b5be b16a 653e 8a25 473d
00000020: 0240 76be 4551 733e f71f 1fbd 2ea3 1ebf
00000030: f515 c4bd de71 203e 89ca 8c3f 0b85 16bf
00000040: 0f1a 863f 40f7 0bbe 47e8 11bf b3c4 e43a
00000050: 9b6e a03f c913 e73d ab50 4abf bdff 20be
00000060: b10f 723e 2645 0abf a039 b23e 5f82 133f
00000070: 8c97 883e b157 56bf 57b1 01be f196 51be
00000080: 1f8d 04bf 7666 97be b4e8 2f3e 63ea 803e
00000090: 1b8b ec3e 49db 96be 05dd b93d d915 ec3d
000000a0: 67b4 65bd 9453 0c3e 189c 18be b2fe ca3e
000000b0: f549 463f ef3f 803f ce2a 443d 827e 013f
000000c0: 6b35 bb3d 556e 52bd cb25 913e ad60 d9be
000000d0: 38c1 cfbd b8b8 86be 88bc 353e f31a 0a3e
000000e0: b21d 593e a622 5abe a07c 35be 8881 a13e
000000f0: 3e74 3dbe 23ab 42be 9ba7 b6bd 7c62 03be
00000100: a8f5 45bf 28d1 213f 605c b6bd c69e b43c
00000110: 847e c93e 6962 e9be f812 6b3e e22f 923c
00000120: bba8 a9be 5b85 643e 3c13 6b3f d31e 7d3e
00000130: a9ab 8a3d 422a 573f 21ea 8dbe eee0 3f3e
00000140: 11ad 083d 8e22 f93d 3612 e1be 4a78 663e
00000150: 4744 bf3e a18b 24bf 9db3 193e a78b e1be
00000160: e247 23bd 8881 b3be 981b 21be 7a0b ba3e
00000170: fc08 0c3e 9cb2 32bf 2ba5 79bf c2a8 2fbf
00000180: 3e85 e73e 6988 f9bb 12b7 043f c376 b93e
00000190: c249 58be d36f b2bd 6bbc cb3c bd98 abbe
000001a0: ac6a 693e a72f 40bf 4453 fc3d 96b0 193f
000001b0: 267b a7be 9954 003e ffe4 debd e235 423d
000001c0: ae0e 08bf 5235 d13d 7033 293f c62a b83e
000001d0: 5665 97bf c65e 89be 359a a7bd 76b8 bf3e
000001e0: 57bb 59be c97b 9dbe 1f97 993e e3a4 56be
000001f0: 3b65 0dbf 7489 9f3e 9929 81be 3c68 e8be
00000200: e7a0 72be 2322 28be f438 33be a57b 1ebe
00000210: 1a8f e9be d450 2dbf b0bf 12bf 8e95 393f
00000220: 79fd c1be eb7b 9abe 752b 8d3e 4835 cebe
00000230: 29d1 9dbe ee3a c43d f14a 1a3f 04ec f33e
00000240: a9d6 f33e f362 8cbe b28c fdbd 34fc 963d
00000250: 528f 6e3c 8c51 cdbe cb19 f7be 5275 7b3f
00000260: 5cfc 14bc 8361 f83d 90d3 49be 105e 87bf
00000270: 0196 ac3d 8ef5 93be 1af0 3c3f e50d 8c3d
00000280: 9407 983e 288c 383c 25de 6d3e 180e 443d
00000290: 0b36 083f 60b3 13bc eb12 e7bd ac93 66bd
000002a0: 953b 833f b7c4 623f e4a0 6abf c6a6 a53e
000002b0: 00ee cd3d 408a 3ebd 8232 9cbe 978e aabe
000002c0: b010 86be 8ec2 8ebe 469f 63be 26cd c6bd
000002d0: d544 a0be 94e2 a2bc a500 d6be cf8b 29be
000002e0: 53f7 9bbe eff9 023e a292 7cbf 0dbd 173f
000002f0: 1b92 393f 23f9 d8be 7b7a a23e 92db 6a3e
00000300: ac75 63be 3875 93be e7ff 63be 04f1 2cbf
00000310: dd91 6abe 37c3 dcbe bbde 963e 8bad f9be
00000320: f0b5 28bf 84d2 8e3e fde8 e6be 3795 ba3d
00000330: 2fb2 a93e e7d9 d93d 936a 403e ad66 823c
00000340: f1bc 303e 58ac 9f3e eb19 993d e3a6 1cbe
00000350: 8208 e3bd af6e 503d c8e2 a1be 1600 cd3d
00000360: fc83 1b3f b62b 15bf ae1c 23bf 1673 ae3d
00000370: b228 83bd 2764 3fbe d7a2 c9be a0a0 0b3f
00000380: 9adc b4be d058 8ebe e7db 86be 0697 993f
00000390: ca47 3fbc 658a a6bd 6da1 9bbe 12ff 23bf
000003a0: 170f f13e 8a2b e3be dea4 b2be 33c9 a43d
000003b0: 8047 97bf 09e4 1b3e d37e acbe 5861 d53e
000003c0: 8d72 093f b85c b6bd 38e0 edbe dd95 823d
000003d0: a7cf 16be db2e d6bd dbfd d8be 868f 26bf
000003e0: 242e 183f c10c adbe 8997 34bf bcb0 0ebf
000003f0: 32da 62be 86a4 aeb9 3097 3e3f ff45 80be
0.58737934 -0.37451223 1.778897 -0.073514685 0.14704785 -0.3541372 0.22403981 0.048619784
-0.24047855 0.2376147 -0.038848843 -0.6196774 -0.095745005 0.15668437 1.0999309 -0.5879676
1.0476702 -0.13668537 -0.5699505 0.001745364 1.2533754 0.112830706 -0.7902934 -0.15722556
0.23638798 -0.5401176 0.3480959 0.57620806 0.2667812 -0.83727556 -0.12665306 -0.20467736
-0.51777834 -0.2957036 0.17178613 0.25178823 0.4619988 -0.29464176 0.09075359 0.115276046
-0.05608025 0.13703758 -0.14903295 0.39647442 0.774566 1.0019511 0.047892384 0.5058366
0.09141048 -0.051374752 0.28349146 -0.4245657 -0.101442754 -0.26312804 0.177477 0.13486843
0.21202734 -0.2130228 -0.17723322 0.31544137 -0.18501374 -0.19010596 -0.08918687 -0.12830538
-0.77327967 0.6320977 -0.08904338 0.022048365 0.39354336 -0.45582893 0.22956455 0.017845098
-0.33136544 0.22316496 0.91826224 0.2471879 0.06771023 0.84048855 -0.2771769 0.18738148
0.033368174 0.12164794 -0.43959206 0.22506824 0.3735678 -0.64275557 0.15009923 -0.4405186
-0.039863475 -0.35059762 -0.15733182 0.3633688 0.13675302 -0.69803786 -0.9751765 -0.6861688
0.45218843 -0.0076151383 0.51841843 0.3622342 -0.21121886 -0.08712735 0.024870118 -0.33514968
0.22794598 -0.7507271 0.12320569 0.60035074 -0.32711142 0.12532271 -0.10883521 0.047414668
-0.531474 0.10215248 0.6609411 0.35970134 -1.18278 -0.2683012 -0.081837095 0.3744542
-0.2126287 -0.30758503 0.2999811 -0.20961337 -0.5523259 0.31159556 -0.2522705 -0.45392025
-0.23694192 -0.16419272 -0.17502195 -0.15476854 -0.4561699 -0.6770146 -0.5732374 0.7249383
-0.37888697 -0.30172667 0.27572218 -0.40275025 -0.3082364 0.095815524 0.602706 0.47641003
0.4762471 -0.27419242 -0.12380351 0.07372323 0.014560537 -0.40101278 -0.48261866 0.9822589
-0.00909337 0.12127974 -0.19709611 -1.0575581 0.084270485 -0.2889828 0.73803866 0.06838588
0.29693282 0.011263885 0.23229273 0.047865003 0.53207463 -0.009014934 -0.11282905 -0.056293175
1.0252558 0.88581413 -0.9165175 0.323538 0.100551605 -0.046518564 -0.30507284 -0.33311912
-0.26184607 -0.27882808 -0.22228727 -0.09707098 -0.31302515 -0.019883431 -0.41797367 -0.16557239
-0.3046213 0.12790655 -0.98661244 0.59272844 0.72488564 -0.42377576 0.3173407 0.22935322
-0.22212857 -0.28800368 -0.22265588 -0.6755526 -0.22907205 -0.43117687 0.29466805 -0.48765215
-0.65902615 0.27894986 -0.4509963 0.09110492 0.33143756 0.10637265 0.18790655 0.0159181
0.17259575 0.31186175 0.074756466 -0.15298037 -0.11085607 0.050886806 -0.31618333 0.10009782
0.6074827 -0.5826982 -0.63715637 0.08518045 -0.064042464 -0.18690549 -0.3938205 0.5454197
-0.35324556 -0.27802134 -0.26339647 1.1999214 -0.011674831 -0.081318654 -0.30396596 -0.6406108
0.47081825 -0.44369155 -0.3489141 0.08046188 -1.1818695 0.15223707 -0.3369051 0.4167583
0.53690416 -0.089044034 -0.46460128 0.063762404 -0.1472765 -0.10458156 -0.42381176 -0.6506275
0.59445405 -0.33798793 -0.70543724 -0.55738425 -0.22153547 -0.00033310446 0.74449444 -0.25053403

pi.pi.0.bias f4 [256]
00000000: 290a ed3d 1c13 d43e 37b7 c5bd 9ebf b7bd
00000010: 7ee0 4dbf 7d01 bbbe ee4b a6be c985 093e
00000020: 5c39 f5be 8b23 ce3e e1ca b53e e75c f53e
00000030: ca54 0c3d a0c9 183f 81a4 093f e0ca c9be
00000040: 867e 35bf b17d 4f3f 6241 8cbe 300f 38be
00000050: d020 263f e2f9 043f 617f c03e f34e 38bf
00000060: 2a2b bdbd c2f3 043e 821a 303e 8aa8 553e
00000070: 70cc cd3e afa0 e6be e9b2 1fbf dd93 50bd
00000080: 73b1 1abf 634f f1be 7d3b 183d d529 3e3f
00000090: 3d96 0ebe 0f8e 943e 1e76 03bf 27c3 923d
000000a0: 5c83 14be 9e9e 243e 8a81 483c ef06 34be
000000b0: e36e cdbe 4086 d53c cd1e afbd 56ce 51be
000000c0: 2072 2d3f 1949 49bf 6ec9 d03e 4810 06bf
000000d0: 5fa4 c6be b1e5 8ebc 4e39 47bf 8036 adbe
000000e0: 8a4d 793e 1ef0 29be 5838 ffbd 2cc3 cdbd
000000f0: eefc 923e e5fa 4a3e ffd0 6d3f a9cf bf3e
00000100: cf6a edbe c267 7e3e 90bb 663e ae47 eebe
00000110: 5947 50be 3c94 f9be eb43 903e ec47 003f
00000120: 417b 8e3e d1d4 8dbe cc0e 953d 02b4 0dbf
00000130: e534 a53c d836 e1bd 450b 36be 4784 65be
00000140: 5fc6 163e 420d d83e 3c06 333e e310 0f3f
00000150: 64c2 56be 2956 2bbe 2864 fa3e 32c3 993d
00000160: db9b 1fbd de19 7abe 249b 5abe 73ab 563e
00000170: 887f 043e d7cc 32bf 5830 1b3f 0f6c 21be
00000180: b886 083f 9c19 3f3e 339a 043f fa3b 23bd
00000190: d9d3 803d 1b2f 15bf 9ccb 053f b4d0 0abf
000001a0: a778 6f3d abb3 243f 101b aabd a881 1abe
000001b0: 0a38 6abf 03d3 48bd 84e9 cfbe 09d5 383f
000001c0: 5e75 153f 05df f53e a5ae cfbc 22eb 103e
000001d0: 5abc 5c3e 6814 1ebf fb53 903d a6cc 9e3d
000001e0: bbe5 053e 3a18 08bf 4bc5 dfbe 538e f43e
000001f0: 394c f83d 4d39 1c3c 98f1 b1be 8d3f 8cbe
00000200: 5c2d 8f3e 0cf6 55bf 3989 3cbe d52d bb3e
00000210: 2ac9 8ebe fccc a13d a6ea b9be 49f9 2abe
00000220: b825 d0be 0653 a43e 6272 5c3e a78d fa3b
00000230: 620a 81be 26f7 5f3f b39d f9be ab70 34bf
00000240: 68b8 d33e 8e2f 20bf f60a dbbe 8e7f 9d3e
00000250: f6a4 a8be c124 50be 8b45 1bbd 0152 d2bd
00000260: d6c8 7c3e 7a48 d3bd e16f 8dbe 87cc 8abe
00000270: 17e8 ca3d 36ea de3e b6a0 84bb 1010 c3be
00000280: 84cb d33d d968 99bd 2f2c 0f3f 81ca b6be
00000290: 411e 66be 5358 9d3e daf0 70be 0e58 3fbd
000002a0: 16d6 4fbd 20ed 8fbc 9819 35bf be55 47be
000002b0: 82e8 31bf bcb9 8ebd be8f 273e a8e7 fbbe
000002c0: ac2f b0be 4c01 6e3e 96dc a3bd ac0b 21bf
000002d0: 51db 4f3c c098 90be ea56 6f3d 94e5 26bf
000002e0: c616 e7bc 695e bebe 4c3e 2dbf 71a4 9e3d
000002f0: 3899 453e 014b dc3d 2eae 68be ef7e 96be
00000300: c896 cb3e 48b4 4c3e 2f99 583e 45d4 2bbe
00000310: 0a88 923d 779a 35be 09a6 f9bc f9f4 9bbe
00000320: 9182 b9bd b2bb b5be 3407 83be 5c94 f2bc
00000330: 0a6b 9dbe 5bd3 833d 9a85 2c3c 9eee c9be
00000340: 25ec 683e 9626 70be cd47 7abc 321a 653e
00000350: 8f92 9b3d 49ec a0bd 3f2d e73e 2cf5 723d
00000360: bf10 06bd cf98 c63e f1d6 b23e 54f0 6f3f
00000370: 69f8 4c3e f0d3 11be da77 7cbe df86 e8be
00000380: 34e6 ad3d 5ff2 00bf bff4 4ebf 7ad4 62be
00000390: 5f5a ecbe 741c 113f e519 773e 49db 963e
000003a0: f010 163c aa6b 9c3e ea5d 08bf bf4d ab3e
000003b0: de4c 893e 2502 0e3d 5d4d 953e b49e b3be
000003c0: e490 e4be 9512 9dbe 173b b93c bacc e4bd
000003d0: 1fe8 21bf 8f01 9d3e b5e7 963d 4e87 71be
000003e0: ad8f eabe 5c31 30bf 19b6 033e 5a08 8a3e
000003f0: 1fb2 8f3e d528 fbbd e2b4 90be e236 033f
0.115742035 0.4142083 -0.09654086 -0.08972095 -0.8042067 -0.36524573 -0.32479805 0.13429941
-0.47895324 0.40261492 0.35506347 0.4792244 0.03426055 0.59682655 0.5376664 -0.39412594
-0.70896184 0.81051165 -0.27393633 -0.17974544 0.6489382 0.5194379 0.37597182 -0.71995467
-0.092367485 0.12983611 0.17197612 0.20865074 0.40195036 -0.45044467 -0.6238237 -0.050922263
-0.60427016 -0.4713088 0.037166107 0.7428258 -0.13924499 0.29014632 -0.5135211 0.071661286
-0.14503235 0.16076133 0.012237916 -0.1758077 -0.40123662 0.026064992 -0.08550797 -0.20488867
0.67752266 -0.78627163 0.4077868 -0.52368593 -0.3879728 -0.01744351 -0.77821815 -0.33830643
0.24345985 -0.16595504 -0.124619186 -0.10046992 0.28708595 0.19822271 0.9289703 0.3746312
-0.4637055 0.24844268 0.22532487 -0.46539062 -0.20339717 -0.48745906 0.28176817 0.50109744
0.2782841 -0.2770143 0.07278213 -0.55352795 0.020166824 -0.10996789 -0.17777736 -0.22413741
0.1472411 0.42197615 0.17482847 0.5588514 -0.20972592 -0.16732086 0.48904538 0.07507934
-0.038966995 -0.2442393 -0.21348244 0.2096384 0.12939274 -0.6984381 0.6062064 -0.15763877
0.53330564 0.18662113 0.5179779 -0.03985212 0.06290407 -0.58275 0.5226381 -0.54224706
0.058464672 0.6433665 -0.08305943 -0.15088522 -0.9149176 -0.04902936 -0.40607846 0.72200066
0.58382213 0.48021713 -0.025351832 0.14152196 0.21556225 -0.6174989 0.07047268 0.07753877
0.13075916 -0.53161967 -0.4370521 0.47764835 0.12123913 0.009535146 -0.34754634 -0.27392235
0.27964294 -0.8357856 -0.18411721 0.36558405 -0.2788785 0.07900426 -0.36311835 -0.16696657
-0.40653777 0.32094592 0.21528009 0.007646281 -0.25203234 0.87486494 -0.48753127 -0.7048442
0.41351628 -0.6257256 -0.427818 0.3076138 -0.32938355 -0.2032652 -0.03790812 -0.10269547
0.24685988 -0.10316558 -0.2762442 -0.27109167 0.09907549 0.43538064 -0.0040474785 -0.38098192
0.10341552 -0.07490701 0.55926794 -0.35701373 -0.22472478 0.3073145 -0.23529378 -0.046714835
-0.050741278 -0.017569125 -0.7074218 -0.19466302 -0.69495404 -0.0696902 0.16363427 -0.49200177
-0.3441137 0.23242682 -0.08001058 -0.62908435 0.012686566 -0.2824154 0.058432497 -0.6519406
-0.028209101 -0.37181404 -0.6767318 0.077462085 0.1929673 0.10756493 -0.22722694 -0.29393718
0.39763474 0.19990647 0.21152185 -0.16780193 0.07154854 -0.17734705 -0.03047468 -0.30460337
-0.09058107 -0.35494763 -0.25591433 -0.029611759 -0.30745727 0.06436797 0.0105299 -0.39439863
0.22746332 -0.2345222 -0.015275908 0.22373274 0.07596313 -0.07857568 0.45151708 0.059315845
-0.032730814 0.3878846 0.34929612 0.93726087 0.20016636 -0.14241004 -0.24655095 -0.45415398
0.084911734 -0.5036983 -0.808422 -0.22151366 -0.46162698 0.5668404 0.24130972 0.29464176
0.009159312 0.3055089 -0.532683 0.33457753 0.26816458 0.034670014 0.29160586 -0.35082018
-0.44641793 -0.3067824 0.022611184 -0.11171861 -0.63244814 0.30665252 0.07368413 -0.23586771
-0.4581274 -0.68825316 0.12862433 0.26959497 0.28065583 -0.122636475 -0.28263003 0.5125562

pi.pi.3.weight f4 [256, 256]
00000000: d04a 39bc 1fc4 3dbb 3149 583d c03d 3dbe
00000010: 8e63 1f3d c8f3 bdbc 8821 08bd 5f21 a3bd
00000020: bea5 9bbd 0d24 82bd 8b14 763c 8829 b4bc
00000030: 9e4f 94bd 4421 fabc b072 4fbd 7796 2cbd
00000040: 50bc 3dbd f203 d6bd 4b11 693d 8023 b33a
00000050: a4b4 fcbc 712a da3c c303 e8bd 6fc0 a8bd
00000060: d111 cf3b 4594 043d 6b8b eabd 1c0e 883d
00000070: 8e05 1e3d e52e 0bbe eb64 ffb9 564e ab3c
00000080: c792 b03c 6d7b 8ebd 38ad bcbd b4db fcbd
00000090: 36ab 1bbd 5869 33bc abb4 60bd b007 33bd
000000a0: 0b9f 7a3a e883 4c3d 0d0e 8ebd c4b6 78bd
000000b0: 67fd 25bc 3f8a 2abd 27a6 3f39 9b36 7bbc
000000c0: b898 ce3d 8e2e 93bd 3cef fc3c 7952 48bd
000000d0: db8f 693d 7cfb 7bbd 9572 8d3d 73bc e3bb
000000e0: 4901 42bd 5b58 ecbd 8deb 003d cf76 a1bc
000000f0: 0bac e3bd ee07 1bbd 25b9 8ebd e8f4 4ebd
00000100: 6675 92bd c7fa a7bc ae3f 99bd f5a7 0ebe
00000110: 8df0 943b 081d cdbc f5a0 8bbd c147 ccbc
00000120: ee94 103d 8712 23be 52de 613c 4a9c 56bd
00000130: be3a 18bd 90e8 bfbd 47ef abba e632 9bbd
00000140: 3a38 dcbc 8d15 1339 06e5 1bbd 2de9 9c3a
00000150: c63d a13b c257 5abd 7853 33bd 89dd c8bd
00000160: a419 013c 92e0 d1bd 099d c0bb 0a76 d33c
00000170: c20c da3c f6da 12bd d4fb 8cbd 5279 5dbd
00000180: ec10 74bd 750f 04be 238a 68bd 4462 043d
00000190: e32a fb3c 20a3 b6bd 5dbb 81bd 427d 5a3d
000001a0: 6cee 7fbc 31c3 4cbc cc31 873c 8525 0bbd
000001b0: c237 d7bd a8e5 433d 46df 9dbc 633f 69bd
000001c0: 3d7d 8fbd 9ed8 12bd 851f 0cbd 99a6 47bd
000001d0: 0978 db3d 2f7a a23d 8f61 30be fc17 f13d
000001e0: e321 70bd 7650 a73c add5 00be adc7 133e
000001f0: cd24 05bd 071c 303c e312 e6bd 5527 8c3b
00000200: 33b9 6fbd 1759 a4bc 1b19 69bc 7250 dcbc
00000210: 9f21 3d3c 8661 1abd 90cf 3fbd 676f acbc
00000220: 2282 e1bb c4b7 7cbc ba28 d0bc a638 99bd
00000230: 6384 6abd e12d d53c 9912 4fbd 81ac 4fbc
00000240: 6bc4 6dbc 1819 b7bc 26ed 16bd 163b 90bd
00000250: 1f79 24bc 5290 6e3d 9056 b6bc 5ea1 96bd
00000260: aec1 94bd 61b2 41bb d748 2ebc f93f c9bd
00000270: 960e a6bd 0991 42bd 452a 85bd 6681 a93b
00000280: dc13 6dbc 78e4 38be df3b 29bd d0ad 4e3b
00000290: ddb5 84bd ce16 98bd 4f96 bbbc 3b85 e4bd
000002a0: d947 5cbc af60 a03c 361c 9e3c a155 45bd
000002b0: 9f03 a9bd e786 a63c 4594 9d3c 087a b1bd
000002c0: 1502 0dbc 94eb 7dbd ffd4 29bd 2019 4d3d
000002d0: 4a56 51bc 5c11 fc3c e83a 3b3d 117b 4bbd
000002e0: 87b9 b53b f13c 40bd 67cd 2dbd d266 5ebc
000002f0: d30f 60bc b1b2 d53c 6f87 25bd 7df1 85bd
00000300: 172e 27bd d85d 37bc 3976 5abd 5e3d 96bd
00000310: eb15 efbd 782e ce3c 0bda 6cbd eb2b e3bc
00000320: 6c41 873c f7b8 a0bd b500 943b c2c4 e53c
00000330: 477f 2d3c 986a 38bd 4e48 16bd fd85 19bb
00000340: ff81 22bd 0ee7 a03a 39b3 543d 3b2a efbd
00000350: 75c7 8fbd ff93 383d f36a e2bd f035 3dbe
00000360: ed38 173d 0530 83bd 0fab 2abe c1b3 533d
00000370: 19f4 d13c c140 c9bc 7ed0 97bd 2a48 d7bb
00000380: 7718 a8bd c170 5a3b ca56 53bd b25f e73c
00000390: cb67 e53a e7ad acbd 2b76 e0bd 25d1 8abd
000003a0: 8f89 21bd 994d c1bd 6520 03bd 2eb5 94bd
000003b0: 5eed 1abd ba7b d7bc 1bcb 753d 0826 3fbc
000003c0: 3503 85bc 7db2 833d 1915 c0bc ce91 903c
000003d0: 2f8e 27bd 79a9 5fbc 366c 19be 918b c2bb
000003e0: a54d 09bd 7b81 6ebd 038d 67bb ab38 fd3c
000003f0: e1cb 5c3d 152f 92bd 37ba 25bd 1dd7 8cbc
-0.011309341 -0.0028956009 0.052804176 -0.18480587 0.038913302 -0.023187533 -0.033235103 -0.079653494
-0.07599972 -0.063545324 0.015019546 -0.02199246 -0.07241748 -0.03053344 -0.050646484 -0.042135682
-0.046322167 -0.10449971 0.056901257 0.0013667196 -0.030847855 0.026631566 -0.113288425 -0.08239829
0.0063192626 0.032367963 -0.11452373 0.06643316 0.038579516 -0.13592108 -0.0004871258 0.020911377
0.021554364 -0.06957135 -0.09212726 -0.123465925 -0.038005076 -0.010950409 -0.0548598 -0.043708503
0.00095604424 0.049930483 -0.06936274 -0.060721174 -0.010131217 -0.041635748 0.00018277076 -0.015332843
0.100877225 -0.07186614 0.030875795 -0.048906777 0.057021957 -0.06151913 0.069066204 -0.006949955
-0.047364507 -0.1154029 0.03147464 -0.019709973 -0.11116799 -0.03784936 -0.06968907 -0.05052653
-0.07151298 -0.020505322 -0.07482849 -0.13931258 0.0045452775 -0.025038257 -0.068178095 -0.024936559
0.03529828 -0.15925036 0.013785915 -0.052395143 -0.037165396 -0.0937053 -0.0013117575 -0.075780675
-0.02688228 0.00014027041 -0.03806021 0.0011971347 0.004920694 -0.05330635 -0.043780774 -0.098078795
0.007879648 -0.102479115 -0.005878095 0.025813121 0.026617412 -0.03585335 -0.0688397 -0.05407078
-0.05958645 -0.12896521 -0.056772362 0.032320276 0.030660098 -0.089178324 -0.06334565 0.05334211
-0.015620809 -0.012497709 0.016503237 -0.03397133 -0.10508682 0.04782644 -0.019271504 -0.056945216
-0.07006309 -0.035851113 -0.034209747 -0.048742864 0.10716254 0.07933461 -0.17224716 0.11772153
-0.058626067 0.020424109 -0.12581511 0.14431639 -0.0325058 0.01074887 -0.11234071 0.0042771497
-0.05852623 -0.020062013 -0.014227177 -0.026893828 0.01154366 -0.03769066 -0.046828806 -0.021049215
-0.006881968 -0.0154246725 -0.025410045 -0.07481508 -0.05725516 0.026022853 -0.050554845 -0.0126754055
-0.014512162 -0.022350833 -0.036847256 -0.0704252 -0.010038643 0.058243103 -0.022258073 -0.07354997
-0.07263504 -0.0029555785 -0.010637484 -0.09826655 -0.08108251 -0.047501598 -0.06502203 0.005172896
-0.014470067 -0.18055904 -0.041316863 0.0031536706 -0.0648 -0.07426225 -0.022898821 -0.11158224
-0.013444864 0.019577352 0.019300561 -0.048177365 -0.08252644 0.020327998 0.01923574 -0.08665854
-0.008606453 -0.061992243 -0.041462895 0.05007279 -0.012776921 0.030769996 0.045710474 -0.049677912
0.005545798 -0.04693312 -0.042432215 -0.013574319 -0.013675648 0.026086183 -0.040412363 -0.06540201
-0.04081544 -0.011191808 -0.053335402 -0.073359236 -0.116741024 0.025168642 -0.05782513 -0.027730903
0.016510688 -0.07847779 0.004516686 0.028047923 0.010589427 -0.04502353 -0.03669005 -0.002342581
-0.039674755 0.0012275891 0.051928733 -0.11677977 -0.07020465 0.045063015 -0.11055555 -0.18477607
0.036919523 -0.064056434 -0.16666816 0.0516851 0.02562909 -0.02456701 -0.074128136 -0.006569882
-0.08207791 0.0033331367 -0.05159644 0.028243873 0.0017502246 -0.08431607 -0.10960039 -0.067781724
-0.039437827 -0.09438629 -0.032013316 -0.0726112 -0.037824027 -0.026304115 0.06000815 -0.011666782
-0.01623688 0.06430528 -0.02344756 0.01764765 -0.04090708 -0.013651245 -0.14982685 -0.005937048
-0.033521313 -0.05822895 -0.0035331852 0.03091081 0.05390537 -0.071378864 -0.04046079 -0.017192418

pi.pi.3.bias f4 [256]
00000000: 3c02 febd 2e9e 9cbc 398e c1be 06e6 32be
00000010: ca7c e9bc 10d3 243e 07c9 28be 1c17 03be
00000020: e634 70be 4663 843e 75bd 80bd 738c ebbd
00000030: be3a 4dbe c7fc afbd bf12 603e bed8 89be
00000040: eb8f f43c 5986 54bd e3b4 64be 592f 82be
00000050: 0708 8c3c 9f89 753d 70e8 32bc 10a7 b3bd
00000060: 7a09 1bbe f8f4 5bbe 74c4 83be 8019 dc3d
00000070: 9bdb 7fbe 3094 fe3d 9ad7 5cbc a23e e63b
00000080: 2eb0 c43e c24e cfbe f534 84bd fb78 903d
00000090: d152 c0bd 7088 32be 12b3 5c3e a081 9cbd
000000a0: 8283 dabd e55b 103c 46c4 2ebd a015 3fbb
000000b0: fe1e 263b f2fa 8cbe b23e babe 8e1c af3a
000000c0: 365c a73d d1be 5f3c 6f19 84be 23da e3bd
000000d0: 0316 66bd 0977 883d c224 c1bd 8429 02be
000000e0: 56fd 92bd 8030 babd 8c87 86bd 4ed3 af3e
000000f0: 7bc5 93be 0c8a cd3e af56 aabd ce45 3e3e
00000100: ce94 9cbe 19bb 2ebe 6f44 c73b 4db4 84bd
00000110: 2930 c23e ed9e 06bc be54 1cbd cabc 4ebe
00000120: ed8e 58bd 2d59 02bf e32c eabd 2808 6e3c
00000130: 09ec d03b b2cb d5bd 232c 67bd 68ea 3dbe
00000140: 1a20 a53e 04fa 9ebe 6a05 45bb 6ca0 f3bc
00000150: 15df a5bd 54d3 a43e fcb8 7dbc e5fa 82bd
00000160: 0c0b 4b3d ee3a 0f3d 69fe b0bc 3555 1abf
00000170: 5787 d73d a23a f2bd cd1e e53d 41cf c4bd
00000180: e8ed 13be ba4c a7bd fec0 4bbe 1433 103e
00000190: 5c60 73bd 5cd6 70bd 911c 293e 790b cabe
000001a0: 82c0 7fbe 73f8 4abd a7cc aabc 113e 83bd
000001b0: d575 dcbd 6a02 6ebe cef8 1cbe a596 f3bd
000001c0: b622 69be c835 ddbd 6a00 acbd b134 92be
000001d0: 6cd4 6cbe bf8e 23bd 5d1e 29bd f972 823a
000001e0: 6b87 c0be c5f2 0fbd 9090 3dbd 4cd5 d23e
000001f0: 8e82 1ebe 5641 90bb 3d74 3ebd 1166 42be
00000200: f5fe c93e ef01 c4be 75a0 89bd 4ab4 d2bd
00000210: abdb c1bd bd57 8fbd aa2f d9bc 2dcd 3abd
00000220: 1de2 adbe 0a48 b7bc 5cbe f4bd 27eb bcbe
00000230: 29bc 4cbd 92a5 5fbe c0dd 33be 7d19 903b
00000240: 5e86 e23d 7fdb aabc 0fa1 c63e a2c3 ab3c
00000250: c873 31bd 575d 94be ed01 03be 1ea9 aabe
00000260: 9878 bebd 6a17 5cbe ba04 1dbf f1c8 4abe
00000270: d8e9 00be ef38 7dbd 97d6 26bc a00d fcbd
00000280: 10c0 0a3d aa80 61bd c82a b9bd 3671 01bf
00000290: c933 f6bd 64f9 863e 2945 4bbc ef87 afbd
000002a0: 0979 c6bd 470d a7be e55e 83bd 0b81 e6bc
000002b0: 2100 cdbe 001f 523e 3fec cf3d ac81 df3d
000002c0: ce22 96bd a011 b0bd 0aaa dabd 200f bebd
000002d0: 73cf b93d 77b1 3e3d 0c33 f3bd bc78 fdbd
000002e0: 26db fcbd f98b 77bd 6ae0 183c 8a5a 7fbe
000002f0: 292d cfbd 4c26 e2bd 2962 b2be 0f62 663d
00000300: 7fbc b4be bfdc 9cbc 8614 9d3c 7808 4cbe
00000310: 8b6e 41be 18d3 a33e f111 5c3c 8827 00bf
00000320: 8e3c 99bd 5eca e4be edcf 9bbe cef7 6b3c
00000330: e47a 67be 52be 5ebd b60a a73e c593 82be
00000340: a494 efbc 9801 3dbd 74ac fcbd c989 843e
00000350: 2ee5 7ebd f79b dd3d a567 8dbd 90e1 bcbd
00000360: 8d7c 06bd 2896 75bc bc67 c6bd 32dc 2e3e
00000370: 5d4d b3be 79f7 1ebe 06bd 053e 6575 e2be
00000380: 2e0c 93bc d742 f3bb b2ba 13bc ccb6 b0bd
00000390: a32c 69bd ce3b 16bd 45a2 98be b08c 36be
000003a0: 079f debd 1a1c 5cbc 6c23 f3bd a1a9 86bd
000003b0: cddf 96bd ae95 7abd de32 9ebd d6e3 10be
000003c0: 4ff6 abbd 2504 0fbd 076c abbd 91ba 5cbe
000003d0: c2c6 ec3d 4c8a b63b 3052 c3be 1722 a9bd
000003e0: 6f57 06be 01e4 ccbd b102 ed3d a25f cb3e
000003f0: bd1b 1d3d cda9 0cbe 6931 47bd 5ede 10be
-0.1240277 -0.019118395 -0.3780382 -0.1747056 -0.028501887 0.16096139 -0.16482936 -0.12801784
-0.23457679 0.2585699 -0.06286136 -0.11501398 -0.2004194 -0.08593135 0.21882151 -0.26923174
0.029853782 -0.051885936 -0.22334628 -0.25426748 0.017093671 0.0599457 -0.010919675 -0.08772099
-0.15140334 -0.21480167 -0.2573582 0.10747051 -0.24986117 0.12430608 -0.013479138 0.0070265094
0.38415664 -0.40489775 -0.06455413 0.07054325 -0.09390796 -0.1743486 0.21552685 -0.076419115
-0.106696144 0.008810972 -0.04266765 -0.0029157177 0.0025348063 -0.27535206 -0.36375958 0.001335995
0.08171885 0.013656334 -0.25800654 -0.11125591 -0.056173336 0.06663329 -0.09430839 -0.1271115
-0.07177226 -0.09091282 -0.06568822 0.343409 -0.28861603 0.40144384 -0.08317315 0.18581316
-0.3058228 -0.1706356 0.006081156 -0.06479702 0.37927368 -0.008216602 -0.038166754 -0.20189205
-0.05287068 -0.5091732 -0.11434343 0.014528312 0.006375794 -0.104392424 -0.056438576 -0.1854645
0.32251054 -0.31050122 -0.0030063041 -0.029739581 -0.0809919 0.3219248 -0.015485998 -0.063955106
0.049571082 0.03496831 -0.021605687 -0.60286266 0.10523861 -0.118275896 0.111875154 -0.09609843
-0.14446223 -0.08168931 -0.1989784 0.14081985 -0.059418067 -0.05879818 0.16514803 -0.39461878
-0.2497578 -0.049553346 -0.020849539 -0.064083226 -0.10764662 -0.23243108 -0.15329286 -0.118939675
-0.22767147 -0.108012736 -0.083985165 -0.28555825 -0.23127908 -0.039931055 -0.041288722 0.0009952477
-0.37603316 -0.035143632 -0.046280444 0.41178358 -0.1547949 -0.00440232 -0.046497572 -0.18984248
0.3945233 -0.38282725 -0.06720058 -0.10288294 -0.094657265 -0.069991566 -0.026511986 -0.045605827
-0.33961573 -0.022373218 -0.11950371 -0.36898157 -0.04998413 -0.21840504 -0.1756506 0.0043975697
0.11060785 -0.020856617 0.38794753 0.020967308 -0.04332331 -0.28977463 -0.12793703 -0.3333215
-0.09300345 -0.21493307 -0.6133534 -0.19803216 -0.12589204 -0.061821874 -0.010182998 -0.12307286
0.03387457 -0.055054344 -0.09041363 -0.5056337 -0.12021596 0.26362145 -0.012406626 -0.08570849
-0.096910544 -0.32627317 -0.06414584 -0.028137704 -0.4003916 0.20519638 0.10152482 0.10913405
-0.07330857 -0.08597112 -0.106769636 -0.092802286 0.09072771 0.046555962 -0.11874971 -0.12376544
-0.12346487 -0.060436223 0.009330848 -0.24936882 -0.101160355 -0.11042461 -0.34840515 0.05624586
-0.3530006 -0.019148229 0.019174825 -0.19925106 -0.18889825 0.3199699 0.013432012 -0.5006032
-0.07482253 -0.44685644 -0.30432072 0.014402343 -0.22605473 -0.054380722 0.3262536 -0.25503364
-0.029245682 -0.046144098 -0.1233758 0.25886372 -0.06223028 0.108207636 -0.06904534 -0.0922271
-0.032833625 -0.014989413 -0.096877545 0.17076185 -0.3501996 -0.15524091 0.13060388 -0.4423019
-0.017950144 -0.0074237394 -0.00901668 -0.08628616 -0.056927335 -0.036678128 -0.29811302 -0.17827106
-0.10870176 -0.013434434 -0.118719906 -0.06575323 -0.07366905 -0.061177902 -0.07724546 -0.14149413
-0.08396589 -0.034916062 -0.08370214 -0.21555544 0.115613475 0.0055706855 -0.38148642 -0.08258455
-0.13119291 -0.10004426 0.11572779 0.397214 0.03835653 -0.13736649 -0.048631106 -0.14147326

pi.pi.5.weight f4 [3, 256]
00000000: fc7e fdbb 2d44 923b 1e1f dcbf 7d72 61be
00000010: 9384 86bf c2ec 15bd 6d5a 07be e71e 853e
00000020: 564b d7be 3029 8ebf 901d 4c3c 40ac 35bd
00000030: 58c9 bd3e 8c01 75bc eb64 bbbf c061 52bf
00000040: 7014 1a3d a997 02c0 47e7 bdbd d6f8 213f
00000050: 92ad 4bbf b5aa 703e 0eec 1bbd e7a7 adbc
00000060: 8702 73bf dca7 aebe ae72 1dbc 02d7 03c0
00000070: b751 c0be 2af9 183e 8d81 1abc 9e67 29bd
00000080: 921d 4bbf 823c 13c0 53c5 613d ed23 1abf
00000090: 9beb 61bd c4a5 3ebe c0d4 b9bd 5f0d a1bf
000000a0: b998 cebc 586e a33c 6416 74bd 2d0f 1f3d
000000b0: 939a fe3c 9838 df3e d27d 70be 0d56 1bbd
000000c0: f94b 203f 4bf9 c2be 33a5 6ebf e814 39bc
000000d0: 8ab4 53bd 8d01 213f 2224 02be 7d06 8fbd
000000e0: 4b8b 76bc e3f7 f6bc a434 45bf c6fa ddbf
000000f0: a2cc 653e 1973 d9bf c89c bf3c 1b58 abbf
00000100: 1468 fcbd d97f d23e aa44 2cbf cef3 a13c
00000110: 7605 aebf 6090 36bd 243e 2dbd dbd6 81bf
00000120: c8cc 17bf a7a4 b93b 8778 ab3c 2841 a8bf
00000130: 0ca9 893c d9d4 d13a 044a 073c b5b7 9b3b
00000140: 29ef 4fbf 899b 85bd 9dd6 27bd 4669 20bd
00000150: aca1 8e3e 633f e7bd d26a a33d 3a25 5bbd
00000160: b3c7 49bf 5717 cdbe 49aa fb3e 1501 82bf
00000170: a42e 5abf 99b7 fabc a8b2 81bf 8fff 37bc
00000180: 65e2 4bbe 4e4d 88bf 70f2 a43e 60bc e6bf
00000190: bd56 0bbf 8442 023d 0d80 07bd 1993 32be
000001a0: 23bc a73e 50b3 43be fadb 61bd 8d59 fcbf
000001b0: ecfe f63e bdba e03e 5418 823d c151 b73e
000001c0: 7e20 4a3f a0cd 21bf ecc4 e73d 7f69 febe
000001d0: bde0 fabd ceba 1e3d 48fa dabf b16c fbbe
000001e0: a5d8 15bf 583d 08be 09d1 c8bd 2a48 48be
000001f0: 3f92 313c 7624 26bd 67cb 14be 6d03 e4bb
00000200: 50bf 5cbf e362 b23e 3405 0dbd a1df 47bc
00000210: 80e2 62bc 96ca 283d f72a 27bd 17bb 94be
00000220: b9e3 1ebf d509 933c 4f32 3b3d 9203 01bf
00000230: a09d b9bc 666d a4bd d396 efbb ad66 1f3d
00000240: 41db cebe e563 973c c7b9 f8be 197f c7be
00000250: 9f2e 26bc f8e5 3ebf 8f4b a33d 1a24 963e
00000260: df06 b63c b25d 5fbc 6351 e3be ee7c 94bd
00000270: 16d4 aebe 9393 093f 63a3 69bd 20b1 51be
00000280: c2d5 073d 7385 733e 8390 75bd aada d6be
00000290: 8982 9f3d 1455 533f 59d1 c3bc dfea 92bf
000002a0: 6177 4fbd d28f ec3d 4b74 febb fb33 fd3c
000002b0: a5e8 1d3c c862 bb3d 705a cf3d 6bec 32bf
000002c0: af99 a3bd 79e4 d8bd 14e0 983d 8e21 aa3a
000002d0: a056 443f 606c 063d 8fda 393b 245d fcbc
000002e0: 9813 85bf 4569 cbbe 0458 3e3f 1a32 1d3d
000002f0: 17ad afbd c32d c8bc 524d fabc 666a 893f
00000300: 5b98 693e 3036 38bf c40c 713e 8c07 f4be
00000310: 422f 04be 8160 84bf 87ba 393d 56a5 c4be
00000320: 5a52 54bc b639 b6be 6f1e 1fbe 54f8 a5bf
00000330: 0d89 86be 019f 4b3d 082f 203f 4747 2ebe
00000340: e0fe c63e 338b 033d c221 e2be 6a8a 05c0
00000350: 9e3a 2a3f 4dc0 9bbf 8294 ec3c 504f 32bd
00000360: 2850 c53a ee0d a1be 1e08 0abf 502b 833f
00000370: fed8 6bbf aea6 89bf ad07 7bbf e092 1fbe
00000380: 16ec 98bd 32d0 693f 1482 dfbe c30f 76bd
00000390: 1eec 15bd f3bb fa3c 0a38 803e 9944 34c0
000003a0: 4aa9 bc3d ae3b 22bd 71ea 533d 7aaa bcbf
000003b0: 2ab7 8abf 8d3a 11bd 52b9 633d 9051 3bbd
000003c0: 4cfd 7cbb 24b8 8a3d 8a49 e9bc 0d9d c0be
000003d0: e50f 883f 3570 3bc0 4870 f6bd 7e14 ae3c
000003e0: eda2 263f 6fc7 2bbd b2fe 54bf 2c72 f9be
000003f0: b3fe b0be c761 b4bc fdb6 953b 66f2 ab3d
-0.007736085 0.0044636936 -1.7196996 -0.2201633 -1.0509208 -0.036602743 -0.13218088 0.2600014
-0.42049664 -1.110632 0.01245822 -0.044353724 0.37067676 -0.014953982 -1.4640173 -0.82180405
0.037617147 -2.0405066 -0.09272628 0.6327032 -0.7956172 0.2350262 -0.038066916 -0.021198226
-0.9492573 -0.34112442 -0.009609861 -2.059998 -0.37562343 0.14938799 -0.009430301 -0.041358583
-0.79341996 -2.300568 0.055119824 -0.6021107 -0.05515633 -0.18617922 -0.09073782 -1.2582206
-0.025219308 0.019950077 -0.059591666 0.038832832 0.031079566 0.43597865 -0.23485497 -0.03792386
0.62615925 -0.3808082 -0.93220824 -0.011296488 -0.051685847 0.6289299 -0.12709096 -0.069836594
-0.0150478585 -0.030147498 -0.7703345 -1.7342155 0.22441342 -1.698825 0.023390189 -1.3386263
-0.12324539 0.41113165 -0.67292273 0.019769575 -1.3595417 -0.04457128 -0.04229559 -1.0143694
-0.59296846 0.00566538 0.020931495 -1.3144884 0.01680424 0.0016008868 0.008257393 0.004752124
-0.81224304 -0.065238066 -0.040976156 -0.039162897 0.2785772 -0.11291387 0.07979359 -0.0535023
-0.7882034 -0.4005687 0.49153355 -1.015658 -0.8522742 -0.030605124 -1.0132647 -0.0112303635
-0.19910581 -1.0648592 0.32216215 -1.8026237 -0.5442923 0.031801715 -0.033081103 -0.17438926
0.32760724 -0.19111371 -0.055141427 -1.9714829 0.48241365 0.4389247 0.063522965 0.3580456
0.7895583 -0.63204384 0.11316857 -0.49689862 -0.12249897 0.03875237 -1.710763 -0.49106362
-0.585337 -0.13304651 -0.09805495 -0.19558778 0.01083809 -0.040562116 -0.14530717 -0.006958416
-0.8622942 0.3484107 -0.03442879 -0.012199313 -0.013847947 0.041208826 -0.04081246 -0.29048988
-0.6206623 0.017949024 0.045702275 -0.5039607 -0.02265817 -0.080286786 -0.007311681 0.03891628
-0.40401652 0.01848025 -0.48579237 -0.38964155 -0.010142951 -0.74569654 0.07973396 0.29324418
0.022220073 -0.013633179 -0.4439803 -0.07250391 -0.34146184 0.53740805 -0.057040583 -0.20477724
0.03316284 0.23781376 -0.05995227 -0.41963702 0.077885695 0.82551694 -0.023903536 -1.1477927
-0.050650958 0.11550869 -0.007765328 0.030908575 0.009637986 0.091497004 0.101246715 -0.69891995
-0.07988297 -0.10590453 0.074646145 0.0012979971 0.7669468 0.0328182 0.002835903 -0.030806132
-1.0396605 -0.39728752 0.7435305 0.03837786 -0.08577936 -0.024435883 -0.030554447 1.0735595
0.22812025 -0.71957684 0.23540026 -0.47662008 -0.12908652 -1.0341951 0.045343902 -0.3840739
-0.012959087 -0.35590905 -0.15538953 -1.2966409 -0.26276436 0.049712185 0.62571764 -0.17019378
0.3886633 0.032115173 -0.4416638 -2.0865731 0.6649569 -1.216806 0.028879408 -0.04353267
0.0015053796 -0.3145594 -0.53918636 1.0247593 -0.9212798 -1.0753992 -0.9805859 -0.15583372
-0.07466905 0.91333306 -0.4365393 -0.060073625 -0.036602132 0.0306072 0.25042754 -2.8166869
0.09211977 -0.039607696 0.051737253 -1.4739525 -1.0837147 -0.03545623 0.055596657 -0.04573208
-0.0038603125 0.06773403 -0.028477449 -0.3761982 1.0629851 -2.9287236 -0.12033135 0.021250006
0.65092355 -0.04193824 -0.83201134 -0.4871992 -0.3456932 -0.02201928 0.004568933 0.08395843

pi.pi.5.bias f4 [3]
00000000: 49ef c8be faaa 653d 43a5 aa3e
-0.3924506 0.05607126 0.3332921

q.q.0.weight f4 [256, 12]
00000000: 0720 6f3e 824d 8e3e 083a b73e f72e 31be
00000010: 810e 85bd e7bb b63d b289 2ebf fa78 09be
00000020: 28dd 4c3e fc1e 04bd 05bd 01bd c154 bf3c
00000030: 6ee5 a1bb bf01 fe3d 9ce7 b4be 2391 05be
00000040: a494 3bbd 8600 bd3e 1cba 6fbf 8150 1f3e
00000050: 2e41 f8be ba2c 0c3a 9aab 883b 26b3 30bc
00000060: cdfc 8a3c 942f 2f3e d229 d0be 35dc abbd
00000070: c3d1 95bd 9a22 adbe 81e2 ecbe fba6 293f
00000080: b929 c8bf 542d 0dbc aecd ac3d 91ef c23c
00000090: 883f d7be 347f 33be 72e1 783f 4843 d83e
000000a0: 090c c9bd 58fb 86be 8a57 55be 88e7 973d
000000b0: fee2 f0be b1c0 90bd 229e 253c 721e 0f3e
000000c0: 42c1 2bbe af85 33be 2c23 52bf b833 01be
000000d0: f67d 283d 7bff 293e 1c75 25bf 68f8 e03e
000000e0: 45de 03bf d0cd 68bb 25da ef3c 9153 893d
000000f0: 336d 123e 1731 513e 17ce debc 0c44 21bc
00000100: 74ce a3bd 6eb0 0b3e 3675 ce3e e8bb c13e
00000110: b76c 9f3d 6045 b73d a4c7 babc e860 103c
00000120: a37b a2be 252e 303b 18c8 ebbe ff43 6e3d
00000130: 7a65 c1bc 9d16 c5be a02b 87bf bf04 933e
00000140: 50ad 8dbf eee5 b5bb 637f 11ba f4d4 813c
00000150: 99d5 153c 0332 a53e 6b79 bf3d 4476 7ebd
00000160: 7fea 8b3e 8efb 93be aba8 293e cce9 923e
00000170: bd57 cd3d 356a 3a3c 7dc3 eb3d 6269 e4bd
00000180: 74c6 34be 13a8 f63c 746e c5bd 8a86 f73d
00000190: 77bb 92bd eb7b 03be f4f4 1abf c8ae 143f
000001a0: 80cb 74bf 5f56 a13c 70be 2bbd f76f cfbd
000001b0: 6f04 f23d b651 863e 8c2c 283e ef55 d6be
000001c0: 8bee 3c3e 5a15 073f 0aa9 c8be c815 f43d
000001d0: 4b57 2d3e 7bdd 97bc 4384 583d bb03 92bd
000001e0: 49cf b03d a65a 213e 5da2 113f 5b91 273e
000001f0: 6241 9ebe fe3d e13e f011 e5be e8fa b83e
00000200: e137 7f3d 1147 3d3d aab0 0bbd 2692 8f3d
00000210: e68c bd3e 87f4 26be 571d ef3e 5630 d33d
00000220: 9499 c73d 3242 673e 9ef8 5b3f 5faf ebb9
00000230: 49d9 4c3c 4cd1 d43c c2cd 39bd 2fb7 2cbd
00000240: fb59 c33e b992 8dbe d86e 573e b688 e8bc
00000250: c4c6 bbbd 5d23 fcbe 388e af3e 3216 3fbf
00000260: 7d27 303f a90d f03b d6ce 5cbc 72be 8d3c
00000270: fc2f 003e c3cb a23e ed7e 5e3d 597b 22bd
00000280: 5393 0ebd 5e2e b2bd 7c2e 103f f177 663f
00000290: 64b8 6b3e e19c 8cbc e1bb 83bc 64bd 00bc
000002a0: 9673 d33d 78e7 3dbb f1e1 c6be 820f d8bc
000002b0: 1140 06be ef44 a5be d994 f23e 6d80 39bd
000002c0: 6fde 15bf 07ae 0abc e528 733c ce34 d43b
000002d0: 1cb0 75bd 0989 71bc 0ea0 79be 5b87 c1bd
000002e0: 7189 903e 1157 08bd f576 0dbe d640 17bd
000002f0: 1164 9a3d e319 023e c161 683c d41c 9abd
00000300: 6d5c 0a3e a3ab 5dbe b788 7bbe bc20 453d
00000310: 804b 52be 77ca 18be 3100 b23d 0fa8 9cbd
00000320: 7d70 da3b 50d6 b73c d94a f8bc 3694 623d
00000330: eef8 a83c 2721 013d 9e4f a63e 292a e83d
00000340: 8be6 55be 6518 823e 2693 bf3e e0b9 3b3f
00000350: e6db cb3e 5f12 723d 5ab8 9cbc 1fd2 0fbd
00000360: 4f94 363d 0c10 7ebe 3fc0 143f 8798 d13d
00000370: 7b39 66be ae43 c6be fe9b 89bd 386a 45bd
00000380: 6688 1d3f 517e 933e bbe6 e4bb 3531 c73e
00000390: d2d3 b63e 8315 1a3e 9343 acbe dd0e 2fbe
000003a0: 2857 92be 7aca fd3e 46f4 e7be 32c7 02be
000003b0: 0352 ccbd f287 c33c 59df 243d a275 0a3d
000003c0: 6622 11bd 64af df3e 0ace a1bd 1baf 5abe
000003d0: 07b3 18bd 3022 9a3d b096 e3be 2a9b 933e
000003e0: e18b a0bf 0b64 983d 36a9 3d3d 470e 273d
000003f0: 8e76 413e 1781 bd3c e3fa 043e f241 3f3d
0.23352061 0.2779351 0.35786462 -0.17303072 -0.06496907 0.08922558 -0.68178856 -0.13425055
0.2000624 -0.03225611 -0.031674404 0.023355843 -0.00494068 0.12402677 -0.35332954 -0.13043647
-0.04579605 0.36914462 -0.93643355 0.15558054 -0.48487228 0.0005347241 0.004170847 -0.0107849
0.016966248 0.17107993 -0.40656906 -0.083916105 -0.073153995 -0.3381546 -0.4626656 0.66270417
-1.5637733 -0.008616764 0.08437668 0.023795875 -0.42040658 -0.17528993 0.97219 0.42238832
-0.09816749 -0.26363635 -0.20834175 0.07417208 -0.4704818 -0.07068003 0.010108503 0.13976458
-0.16772941 -0.17531465 -0.8208492 -0.12617385 0.04113575 0.16601364 -0.6463182 0.4393952
-0.5151103 -0.0035523064 0.029278824 0.06705392 0.14299469 0.20428883 -0.02719788 -0.009842884
-0.07998362 0.13641521 0.403238 0.37838674 0.077844076 0.08948779 -0.022800274 0.008812167
-0.31734952 0.0026882973 -0.46051097 0.058170315 -0.023607958 -0.38493815 -1.0560188 0.28714558
-1.1068516 -0.0055510914 -0.0005550293 0.015848614 0.009145164 0.32264718 0.093493305 -0.062124506
0.27327344 -0.28902858 0.16568248 0.28693998 0.100265004 0.011377861 0.11511896 -0.11152913
-0.17653829 0.03010944 -0.09640208 0.12086208 -0.07164662 -0.1284024 -0.6053002 0.58079195
-0.95623016 0.019694505 -0.041929662 -0.101287775 0.11817252 0.26234215 0.16423243 -0.41862437
0.18450372 0.52766955 -0.39191467 0.11918217 0.16927831 -0.018538227 0.05286051 -0.07129618
0.086332865 0.15757236 0.5688837 0.16364042 -0.30909258 0.4399261 -0.44740248 0.36128926
0.06230915 0.046210352 -0.034104027 0.070102975 0.3702156 -0.16304217 0.46702072 0.10311954
0.097460896 0.22583845 0.85926235 -0.00044953355 0.012502977 0.025978707 -0.04536224 -0.042166885
0.38154587 -0.27651003 0.21038377 -0.028385501 -0.09168771 -0.4924573 0.34288192 -0.7464324
0.68810254 0.007325847 -0.013477048 0.017302725 0.12518305 0.31796083 0.054320265 -0.039668415
-0.034808468 -0.0870025 0.5632093 0.90026766 0.23019558 -0.01716465 -0.016080799 -0.007857654
0.10324781 -0.0028977077 -0.38844255 -0.026374582 -0.13110377 -0.32279155 0.47379187 -0.045288492
-0.5854253 -0.008464343 0.014841293 0.0064760214 -0.059982404 -0.014742144 -0.24377462 -0.09449645
0.2822986 -0.033286158 -0.1381491 -0.036927067 0.075386174 0.12705187 0.014183463 -0.0752503
0.1351182 -0.21647505 -0.24563871 0.04812692 -0.20536613 -0.14920984 0.08691443 -0.07649242
0.0066662417 0.02244106 -0.030309128 0.055317126 0.020626511 0.031525757 0.32482618 0.113361664
-0.20888726 0.25409237 0.37416953 0.733305 0.39816207 0.05909955 -0.019130874 -0.035112496
0.04457503 -0.24810809 0.58105844 0.102341704 -0.22482865 -0.3872351 -0.06719206 -0.048197
0.6153625 0.2880731 -0.006985513 0.3890473 0.3570848 0.15047269 -0.33645305 -0.17095514
-0.2858212 0.4956854 -0.45303553 -0.127713 -0.0997658 0.023868535 0.040252063 0.03380359
-0.035433196 0.436885 -0.07900627 -0.2135586 -0.03728011 0.07526052 -0.44450903 0.28829318
-1.2542688 0.07440957 0.04630395 0.0407851 0.18892881 0.023132844 0.1298633 0.04669375

q.q.0.bias f4 [256]
00000000: 42b5 1a3d aa5c 0d3f f4be 113f 5bc3 a5be
00000010: 8c9f e83e c4e2 49bf 3307 3f3f dda8 06bf
00000020: c2f8 01bc f14f 103e 276b 963e 9e98 f9bc
00000030: ec63 593e 6f51 2cbf 3426 10bf cb97 33bf
00000040: 70f4 403f 3dd6 c0be 17f4 533e 2ab5 773e
00000050: 1726 e43e 1e4f dcbe e8cb 82be a2c4 e6bd
00000060: 2750 4d3e 2049 98be 93e2 06bf 0b10 033e
00000070: 9948 3b3f c1e9 fdbe 24cd a1be abd6 8bbe
00000080: 7baa ccbc 1977 f6bd 7692 383f e3bd f2bd
00000090: b077 05bf 14f6 313e e01c 00bf 5a25 c13d
000000a0: abde 06bf a8e7 0dbf 5f0f 1c3c 88d3 8abe
000000b0: 50cd 453f 5421 4b3f f24d 80be b8e3 a33e
000000c0: 2cdb 233f feb1 d93e ef5b 493f 70b0 9dbe
000000d0: e115 abbe dc94 6d3f ef43 20bf d5be b0be
000000e0: 9140 823f dee0 e9bd d6c6 9f3e aebe 723e
000000f0: 674b e8be f695 603e 747f 02be 4b8c 08bf
00000100: fbb8 cfbc 6c7c 983d da1f edbe d22b 703e
00000110: 942c 163f a5f8 5abe af96 9b3e fe7e 823d
00000120: 670d 363f 8f49 093f b7e1 563f 01d3 5e3e
00000130: abb0 69be 55c0 debe 1355 cfbe 83f9 3c3d
00000140: 42f6 ae3d b3b5 06bf 3e0b f4be 8ead 9bbe
00000150: da18 123f 9db6 463e afad 29bf 35da a6be
00000160: fd73 a5bb b812 81be 9ae1 993e ef9d 903e
00000170: a512 2c3d a540 b0be b6d3 9fbe ceb1 45bf
00000180: abf9 13bf 18fa 383e 41e1 e23e 149e f2be
00000190: c20e bfbe e6b5 51be 62cf 403f 4ed3 fbbe
000001a0: 254c 423f d64e 2b3a fe80 6f3e e098 83be
000001b0: 9647 94be eb82 b63e a736 b5be 56d2 1f3f
000001c0: 83ec 1cbf 99ad 13bf 0b64 e03c ba5c 1dbf
000001d0: 064e 933d c47a e43e 3c27 463f 32ea cc3e
000001e0: 4181 0fbf 25fc a3bd eb22 a5be 2903 f13d
000001f0: 9b01 2fbe 620c 283f 8b8b e7be a58e 233f
00000200: b9fd c5be 9763 1dbf ac13 8bbe 65fc 99be
00000210: efdc 1cbf fde5 9ebd 6a27 fdbe 2fb4 4cbe
00000220: 0268 01bf 85fd 66be bfab d8bd 9e19 e23e
00000230: b7a6 a83e 42bb 923e 8cc0 90be dcf6 acbe
00000240: 69a3 9d3e cd8b 86bc 5d44 e2bd 3b45 73be
00000250: 521d 423e 043c ad3d 7edf 1fbf f089 dcbe
00000260: 33e1 b1be 0730 12bd 6af2 893e 6332 92be
00000270: 643e f1bd 6ebf 5b3d 76e4 19bf e909 2d3e
00000280: fd18 a7be 4ba5 51be d6fc 53bf 228a 0abf
00000290: eda8 24bf 05c8 7c3e b209 cd3c 514c a0bd
000002a0: eb6a 6c3e bff0 12bf decc 06bf a5f2 eabe
000002b0: 5e01 05bf a4af ed3e 6903 d03c feb0 6a3e
000002c0: 7223 fd3d 41aa dfbe 2f7c 39bd fcb6 64be
000002d0: 7388 20be 6e6b 803e ba11 02bf fc67 993e
000002e0: 3d05 1ebf c1de 91be bc29 b73e 2ddf ed3e
000002f0: 5ff6 7c3d d7a6 30be a52e 29bf 6d42 303f
00000300: bc21 e3be de27 2a3d 75e1 ec3e caeb 00bf
00000310: a95e b83e e37c 6e3e dcb7 d33d e354 8cbd
00000320: 24f8 883d ea9e 913f c11a e0be 8e18 353f
00000330: 90c8 9e3b d62a 403f e90c 0a3f 50d2 3e3f
00000340: a1f7 123f 0699 08bf 3c20 fc3e 9cab 21bf
00000350: 68bb 11bf 797c 603d 975c f0be 7c3d b7be
00000360: 57ee 873c 8d58 403f eebd 23be 8975 eb3e
00000370: 9175 3f3f f936 f8be 3378 233d a041 1ebf
00000380: 1bd0 59bd c0c5 223d 42aa b43e a881 5e3f
00000390: 4fd9 9f3e b1f9 613e e1de a83d a44d 23be
000003a0: 697d 06bf dd43 b5be 9bfa 97be ea0a f73e
000003b0: 434e 41bf 4b9b eb3e dae0 adbd 8bc0 183f
000003c0: 604c 003b 1ddd f8be 2e05 2dbf ef95 b53e
000003d0: ccbb 47be b198 c8be 4aac 40be 2b09 96be
000003e0: d530 5d3e d8a3 64be a5e6 b43e ed5b b6be
000003f0: 5989 aa3e 8535 b5be d5d4 31bf 8624 c03e
0.037770517 0.5521952 0.56931996 -0.32375607 0.45434225 -0.7886164 0.7462036 -0.52601415
-0.007932844 0.14092995 0.29378626 -0.030468281 0.21229523 -0.6731176 -0.56308293 -0.7015349
0.7537298 -0.3766345 0.20698582 0.24190202 0.4456031 -0.43029112 -0.25546193 -0.112679735
0.20050107 -0.2974329 -0.52689475 0.12799089 0.7315765 -0.49592403 -0.31601822 -0.27312216
-0.024983635 -0.12034435 0.7209848 -0.11852624 -0.52135754 0.17379028 -0.5004406 0.09430952
-0.52683514 -0.55431604 0.009525149 -0.2711451 0.77266407 0.7934773 -0.25059468 0.32009673
0.64006305 0.4251861 0.78655905 -0.30798674 -0.3341513 0.92805266 -0.6260366 -0.34520593
1.0175954 -0.11419843 0.31206387 0.23705551 -0.45370027 0.21932206 -0.12743932 -0.5333907
-0.02535676 0.074456066 -0.46313363 0.23454216 0.5866177 -0.21383913 0.303884 0.06371878
0.711142 0.53627867 0.83938164 0.21760179 -0.228213 -0.43506113 -0.40494594 0.04613639
0.08543064 -0.52621 -0.47664827 -0.3040585 0.5706917 0.19405599 -0.66280645 -0.32588354
-0.0050492273 -0.25209594 0.30054933 0.28245494 0.04200997 -0.3442432 -0.3121621 -0.77224433
-0.5780284 0.18064153 0.4431248 -0.4738623 -0.37315947 -0.20479545 0.7531644 -0.4918465
0.7589744 0.000653488 0.2338905 -0.25702572 -0.28960866 0.35646757 -0.3539326 0.6243032
-0.6129839 -0.57686764 0.027391454 -0.61469615 0.07192616 0.44624913 0.77403617 0.40022427
-0.560566 -0.08007077 -0.32253203 0.11768181 -0.17090456 0.65643895 -0.4522365 0.63889533
-0.38670138 -0.6148009 -0.27163446 -0.30075374 -0.6127462 -0.077587105 -0.49444133 -0.1999061
-0.5054933 -0.22557648 -0.10579633 0.4416017 0.32939693 0.2865849 -0.28271902 -0.3378209
0.30788735 -0.016424084 -0.110481955 -0.23756878 0.18956497 0.08458713 -0.62450397 -0.43073988
-0.34742126 -0.035690334 0.2694276 -0.28554067 -0.11779478 0.05364936 -0.6011423 0.16898312
-0.32636252 -0.2047321 -0.8280767 -0.54117024 -0.6432026 0.24685676 0.025029037 -0.07827056
0.23087661 -0.573986 -0.5265635 -0.45888248 -0.5195521 0.46423066 0.025392251 0.2291908
0.12360276 -0.4368458 -0.045284446 -0.22335428 -0.15677051 0.25081962 -0.508083 0.29962146
-0.61726743 -0.2849026 0.35774028 0.46459332 0.061758395 -0.17251144 -0.660868 0.6885136
-0.44361675 0.041541927 0.4626576 -0.50359786 0.3600972 0.23289828 0.10337803 -0.06852128
0.06687954 1.1376622 -0.43770412 0.7074059 0.0048456863 0.7506536 0.5392595 0.7453966
0.574091 -0.53358495 0.49243343 -0.6315248 -0.56926584 0.054806206 -0.4694564 -0.35789096
0.016593141 0.7513512 -0.15990421 0.4598811 0.7478877 -0.4847944 0.039909553 -0.61818886
-0.05317698 0.03973937 0.35286146 0.8691659 0.3122048 0.22067906 0.08245636 -0.15947586
-0.5253511 -0.35403338 -0.29683384 0.48250514 -0.7551004 0.46016917 -0.08490153 0.596688
0.0019576773 -0.48606196 -0.6758603 0.35465953 -0.19505233 -0.39178994 -0.18815723 -0.2930387
0.21600659 -0.22328126 0.35332218 -0.3561701 0.33307913 -0.35392395 -0.6946538 0.37527865

q.q.3.weight f4 [256, 256]
00000000: b06c b7be 7a09 50bd d49d 72bd 0b5c e8be
00000010: b0a7 c23e 414b da3c a607 1dbe 1326 eebe
00000020: e156 cabe 955f 8cbe 0bac e3bd b27b 5abe
00000030: 3bf8 eebc 4a60 e03b 5de1 03bf c83b 4bbd
00000040: 5402 f5bd fd04 89bd d921 5a3d 70bc ca3b
00000050: cc59 78bd 73a5 ebba abb4 60bd de4b 1ebf
00000060: 84f2 863e bfcf 2dbf 23cd 61bd 04f4 8c3e
00000070: 5a59 57be 1292 5cbf ef6d 23bf 6734 3a3d
00000080: c0a7 bcbe 4d54 143e b922 d13e f964 c7bd
00000090: 5f99 a8bd a627 203e 14ef f2be cc7d 8b3e
000000a0: 0b76 6cbd 253e 16bd 1c1b f1bd 4698 14be
000000b0: 1b1f 68bd ba1b 673d 5d79 0cbf 462f 99be
000000c0: 64f6 f0be 08ff b8bd b716 a1bc 7774 3a3e
000000d0: 7f4a 25be 2c03 883e d538 073d 6cdf 75be
000000e0: 2b1f fb3e 256c 86bc 5e2b 99bd 6559 06be
000000f0: 9ba8 68bd 1357 eabc d637 1cbd 013f 42bf
00000100: 399d c7be ad3a 05be 4715 aebd 19df 48be
00000110: 9a74 e03e ddc6 16be 881d 4f3d 04e3 fabd
00000120: 0935 49bc 4f93 afbd 55a0 953d b1de 563d
00000130: b211 5b3d 30b3 bebe 499d 5abe 4f4c a6be
00000140: 5446 8b3e 00c5 cdbd 798a 47be 0e79 11bd
00000150: 8190 dc3c feca 1abc ad73 08bf 1b78 6ebe
00000160: 8b61 65be e988 c7be d2ba 50be 4550 87bc
00000170: ebfb 6abe 72eb 57be 1994 c8be d050 38be
00000180: bb2e 68be 4628 16be 2dd6 02bd 1791 23be
00000190: e541 8cbe 2951 c9be 91a7 4ebc dd63 01bf
000001a0: d62b 1ebd 3567 05bb 3c2b f3bc 0ed7 92be
000001b0: e26c d7be f4bc febd 2e44 ab3d e356 e3bc
000001c0: d393 63be 043a 79bc ba18 dbbd 7fad 21bf
000001d0: 0b45 703d df5a 28be 1d74 903d 8446 79bd
000001e0: 3808 b2be 11d2 c9be b705 a8bd f0a1 c4bd
000001f0: 09ad 4ebe 89ad 503d 068b 2a3a 83ca 63bd
00000200: 559e 8dbe a755 a9be 1257 51bd 68d7 bcbc
00000210: 7905 40bf 234d eebd 3ef0 99be 8e72 90bc
00000220: 3fbc 2abe 3b6e 6cbe 30ca b6bd 2daa 81be
00000230: 9603 13bd 4ccf 8c3c 07d5 a6ba 908e b5bb
00000240: cac6 d1be e0bf c53d a6aa 9fbd 0b74 e4be
00000250: a2ef d5be 41b0 45be b542 09bf e10a 46be
00000260: ff8d 39bf 3d64 0fbe 9ccc fbbd f736 a5bd
00000270: 8aee dabe 5192 44be 3284 63be 45d4 8abe
00000280: 8c60 7abe 5cd6 f0bd 20a4 babd 24d6 05be
00000290: 6f55 3e3c 5620 223e f535 08be 95db 08bf
000002a0: 7515 9c3e e57f 0abe 53c1 6abe 5616 93be
000002b0: 29f2 43be 32c0 59bd a1fe c6be 6a08 52be
000002c0: e25e 51be 95fa 07be deff 19bf 0458 f4bb
000002d0: fb2d 65be 0286 643d 8dac 97be 4d84 0cbe
000002e0: e622 a63d 9537 02be ec69 fabe 8c20 74be
000002f0: ee3d 92bd f6ed 13bf 26c1 95be 7a4b 5ebc
00000300: e3f8 e1be b89f 38be 8d74 183d 70a6 3dbe
00000310: 6a49 5cbe 918f d23d d6a6 16bd 5534 0ebe
00000320: ea78 52bd 0749 b53e f807 b1be 1ba5 733e
00000330: cf85 abbe 87db 27bd 15bd 0bbd ae76 14be
00000340: 46b6 a83d 9d75 16be ba2e 683b 9e11 16bf
00000350: b7b0 b13c 4789 23bd cf7e 28be 87c9 2abf
00000360: f65f 1abe 80e9 30be 20fc 3cbe 669c 18be
00000370: ac3b f0bd 9433 f2be 0da7 81bd af05 2bbe
00000380: 87ec b93d ba4e d2be e73b 26bd c9f0 cabd
00000390: 0f2c 22bd ad15 07bf fca7 72be f69b 10bf
000003a0: ad52 81be 3e9f 9abe 1f50 afbd 837e 783d
000003b0: 22c4 d6be 0f46 a6bc ae43 10be 79a9 c6bd
000003c0: 52c0 e63d 1518 81be 0e68 98be 8574 02bd
000003d0: b94a 42be e78d 29bf 1610 13bf e268 80be
000003e0: f633 99be c5de 82be b4c8 fbbc 1222 5ebe
000003f0: a382 63bc 3f65 acbe e386 f4bd 1571 07be
-0.3582511 -0.050790288 -0.059232548 -0.45382723 0.3801856 0.026647212 -0.15334949 -0.46513423
-0.39519408 -0.27416673 -0.11116799 -0.21336249 -0.0291711 0.006847416 -0.5151575 -0.04961756
-0.11963335 -0.066904046 0.053254936 0.0061870143 -0.060632512 -0.0017978385 -0.0548598 -0.61834514
0.263569 -0.6789512 -0.055127274 0.2752992 -0.21030179 -0.86160386 -0.6383962 0.04546013
-0.36846733 0.14485283 0.40846804 -0.09736056 -0.08232378 0.15640125 -0.47448027 0.27244413
-0.057729762 -0.03668036 -0.11772749 -0.14511213 -0.05667029 0.056422926 -0.54872686 -0.2991888
-0.4706298 -0.09033018 -0.019664152 0.1820849 -0.16141699 0.2656492 0.033013184 -0.2401101
0.49047217 -0.01640899 -0.07478975 -0.13120039 -0.05680142 -0.028605973 -0.038139187 -0.75877386
-0.3898714 -0.13010664 -0.08500152 -0.19616355 0.4383896 -0.14724298 0.050565273 -0.12250331
-0.012280711 -0.08573019 0.073059715 0.05245847 0.053483672 -0.37246084 -0.21349062 -0.32480094
0.27202094 -0.100473404 -0.19486417 -0.035515837 0.026924374 -0.009447811 -0.5330151 -0.23288004
-0.22400491 -0.38971642 -0.20383766 -0.016517768 -0.22947662 -0.21085909 -0.3917549 -0.17999578
-0.22674076 -0.146638 -0.031942535 -0.15973316 -0.27394024 -0.39319733 -0.012613193 -0.50543004
-0.038616024 -0.0020355706 -0.029683702 -0.286797 -0.42075258 -0.12438384 0.083626136 -0.027751392
-0.22224359 -0.015211586 -0.106980756 -0.6315536 0.058659595 -0.16440915 0.07053397 -0.060858265
-0.34771895 -0.3941808 -0.08204215 -0.096011996 -0.20183195 0.050946746 0.00065057015 -0.055613052
-0.2765986 -0.3307316 -0.051108427 -0.023051932 -0.7500835 -0.116358064 -0.30066103 -0.017632749
-0.16673373 -0.23088925 -0.08925283 -0.25325146 -0.03589209 0.01718869 -0.0012728282 -0.0055406764
-0.40971977 0.09655738 -0.077962205 -0.44619784 -0.41784388 -0.19305517 -0.5361741 -0.19340087
-0.72482294 -0.14003082 -0.122948855 -0.08067124 -0.42760116 -0.1919644 -0.22218397 -0.27115074
-0.24450892 -0.11759636 -0.091133356 -0.1306997 0.011617049 0.15832648 -0.13301833 -0.53460056
0.3048512 -0.1352535 -0.2292531 -0.28727978 -0.19135346 -0.053161807 -0.3886614 -0.20511022
-0.20446351 -0.13279183 -0.6015605 -0.0074567813 -0.22380821 0.055791862 -0.29623833 -0.13722344
0.08112125 -0.12716515 -0.48908937 -0.2384054 -0.071407184 -0.57784975 -0.29248923 -0.0135678
-0.44135198 -0.18029678 0.037220526 -0.18520522 -0.2151238 0.10281289 -0.0367802 -0.1388715
-0.051384844 0.35407278 -0.34576392 0.23793451 -0.33500525 -0.040980842 -0.03411587 -0.14498398
0.08237891 -0.14693303 0.0035428242 -0.5862063 0.02169071 -0.03992584 -0.16454624 -0.66713756
-0.15075669 -0.17276573 -0.18455553 -0.14903411 -0.117301315 -0.47304976 -0.063306905 -0.16701387
0.09078317 -0.4107569 -0.04058447 -0.099092074 -0.0395928 -0.5276745 -0.23696893 -0.5648798
-0.2525839 -0.30199617 -0.08560204 0.060667526 -0.41946512 -0.020297078 -0.14088318 -0.09700293
0.11267151 -0.25213686 -0.29766887 -0.031849403 -0.18973817 -0.6623215 -0.5744642 -0.2508002
-0.29922456 -0.25560585 -0.030735351 -0.21692684 -0.013886127 -0.33670995 -0.1193979 -0.13226731
