IIFDS-DDPG-random_start/TrainedModel/dynamicCritic.pkl (torch, 280727 bytes, 5 tensors)

weight f4 [256, 12]
0	0x3e9314ab	0.28726706
1	0x3ebf741a	0.37393266
2	0xbe24c616	-0.16091189
3	0xbdb3ea08	-0.08784872
4	0xbd5e3466	-0.05424919
5	0x3c18b870	0.009321317
6	0xbee2474c	-0.4419502
7	0xbe189e99	-0.1490425
8	0x3e72f8dd	0.23727746
9	0xbe8a06f6	-0.26958436
10	0x3c822cbe	0.015890475
11	0xbd078bb5	-0.03309222
12	0x3d86c244	0.06580022
13	0x3e6bf4a5	0.23042543
14	0x3d480708	0.04883483
15	0xbdf655a0	-0.120280504
16	0xbc8b9876	-0.017040472
17	0x3ebbef87	0.36706182
18	0xbedc7940	-0.43061256
19	0xbe10549a	-0.14094773
20	0xbe0e0b5c	-0.13871521
21	0x3b9d1227	0.0047934237
22	0xbe297570	-0.16548705
23	0x3e27b7fa	0.16378775
24	0xbea56a66	-0.32307738
25	0x3e5b53b5	0.2141865
26	0xbecc8e62	-0.3995238
27	0xbe9d235c	-0.3069104
28	0xbe5bb930	-0.21457362
29	0xbeaa2aac	-0.3323568
30	0x3e598b49	0.2124454
31	0x3b6ec069	0.0036430603
32	0xbead77a5	-0.33880344
33	0xbd50be7d	-0.050962914
34	0x3c0ceab1	0.008600877
35	0xbd1ed4a7	-0.03877702
36	0xbe2fc05c	-0.17163223
37	0xbd79c4b1	-0.060978595
38	0x3e755b07	0.23960505
39	0x3e94cfa3	0.29064664
40	0xbdd72e86	-0.105069205
41	0x3e501396	0.20319971
42	0x3dc4d2e6	0.09610538
43	0x3d9e3325	0.07724599
44	0xbdb06cee	-0.08614527
45	0xbd0985ce	-0.03357487
46	0xbdcf9b59	-0.10137052
47	0x3e8d50e1	0.27600768
48	0x3d0c553e	0.03426098
49	0x3d085389	0.03328279
50	0xbecb3229	-0.39686707
51	0xbdd9aa63	-0.10628202
52	0xbe9b45ed	-0.30326787
53	0x3eca2663	0.39482412
54	0xbe76ab8c	-0.24088877
55	0x3e15936a	0.14607015
56	0x3e91bf31	0.2846618
57	0x3d2ec95c	0.0426725
58	0xbe0082c5	-0.12549885
59	0xbda219a1	-0.079150446
60	0x3e4189db	0.18900244
61	0x3e886d79	0.2664602
62	0xbddfd4d7	-0.10929268
63	0x3e288332	0.16456297
64	0x3d9952ef	0.074865215
65	0xbd029ee9	-0.03188983
66	0xbddda144	-0.108217746
67	0xbd252864	-0.040321723
68	0x3ecb4e47	0.39708158
69	0xbe1efed0	-0.15526891
70	0x3e1c732f	0.15278314
71	0xbdab9483	-0.08377936
72	0xbe65d83b	-0.22445767
73	0x3e1e81c1	0.15479185
74	0xbe908028	-0.28222775
75	0xbed72fac	-0.42028558
76	0xbec2bd11	-0.3803487
77	0x3e48b438	0.19599998
78	0xbde5add5	-0.112147965
79	0x3e5fcbb4	0.2185505
80	0x3cd88156	0.02642886
81	0x3e27c774	0.16384679
82	0xbca03755	-0.019557634
83	0x3d976b33	0.073934935
84	0xbaa0c5fa	-0.0012266033
85	0x3e89c310	0.26906633
86	0x3e3b4f42	0.18291953
87	0xbd9887ce	-0.07447778
88	0x3e8ddbfc	0.27706897
89	0xbe817065	-0.25281063
90	0x3e42516a	0.1897637
91	0x3e558992	0.2085326
92	0x3da3d322	0.07999255
93	0xbe2f07fb	-0.17092888
94	0x3e79224e	0.24329492
95	0xbe30d79b	-0.17269747
96	0xbe5933d3	-0.21211176
97	0xbc4331fc	-0.011913773
98	0xbe488e1c	-0.1958546
99	0xbd4738ec	-0.04863827
100	0xbe16e5f9	-0.14736165
101	0xbda07690	-0.07835114
102	0xbe80cd5d	-0.2515668
103	0x3e96ba17	0.2943885
104	0xbe2c8eb5	-0.16851313
105	0x3dd23748	0.1026445
106	0xbd893dcd	-0.06701241
107	0x3d116328	0.035494953
108	0x3e5baa66	0.2145172
109	0x3e1547c8	0.14578164
110	0xbc83d297	-0.016091628
111	0xbe478b52	-0.1948674
112	0x3e4de2ea	0.20106092
113	0x3ee71ede	0.45140737
114	0xbea3eab8	-0.32015014
115	0xbd69b0b7	-0.057053294
116	0x3e85c7dd	0.26129046
117	0x3d6ecb03	0.058299076
118	0x3e5af1b4	0.21381265
119	0x3e786d01	0.24260332
120	0x3c864c61	0.016393842
121	0x3e9a44b6	0.30130547
122	0x3e7a6858	0.24453866
123	0x3e314ae3	0.17313723
124	0xbe86a8af	-0.2630057
125	0x3ecd49a1	0.40095237
126	0xbe4f4e1c	-0.2024464
127	0x3e0e6679	0.13906278
128	0xbe643350	-0.22285199
129	0xbe216245	-0.15760143
130	0xbd0d2747	-0.034461286
131	0xbcbd80bf	-0.02313268
132	0x3e8e8188	0.278332
133	0xbe5ba3b6	-0.2144917
134	0x3ecbd773	0.39812812
135	0x3db605ef	0.088878505
136	0x3b822992	0.0039722407
137	0x3e369876	0.17831597
138	0x3ecff61a	0.40617448
139	0xbd14c3c2	-0.0363195
140	0xbde93eb8	-0.11388916
141	0x3c490a7e	0.012270568
142	0x3c9083b8	0.017640933
143	0x3c1c5120	0.009540826
144	0x3e32c579	0.17458142
145	0xbe7dbead	-0.24779768
146	0x3d3d1714	0.046164587
147	0xbe554897	-0.20828472
148	0xbec714bd	-0.3888301
149	0xbeaea97a	-0.34113675
150	0xbeba94e9	-0.36441734
151	0xbe613b69	-0.2199532
152	0x3e22b930	0.15890956
153	0xbe26a41f	-0.16273545
154	0xbdea14c0	-0.11429739
155	0x3d09e0ca	0.03366164
156	0x3e45bb91	0.19309832
157	0x3ecb124d	0.396624
158	0xbd19406a	-0.037414946
159	0x3e248e3d	0.16069885
160	0x3e1bedd5	0.15227444
161	0xbe8a9fcb	-0.27075037
162	0x3e0c998a	0.13730446
163	0x3e8b7a6f	0.27241847
164	0xbc439ae2	-0.011938782
165	0xbd15c97f	-0.036569115
166	0xbe23eed4	-0.16009074
167	0xbd3b3b8d	-0.04571109
168	0x3cfc0f10	0.030768901
169	0xbc8371a6	-0.016045403
170	0xbed10a43	-0.40828142
171	0xbd911971	-0.07084931
172	0xbdfcb196	-0.12338559
173	0xbe6b8e86	-0.23003587
174	0x3dfb64ec	0.12275109
175	0xbdda748d	-0.106667615
176	0x3e420520	0.18947268
177	0xbd3ee509	-0.046605144
178	0x3d09f246	0.033678316
179	0x3c60fb29	0.013731756
180	0xbd9ac80e	-0.07557689
181	0xbbd8f5f1	-0.0066211154
182	0xbe7a3d42	-0.2443743
183	0xbcbbebc6	-0.022939574
184	0x3eb159d1	0.34638837
185	0xbdb5d92b	-0.08879312
186	0xbe3370b7	-0.17523466
187	0xbe29268c	-0.1651861
188	0x3cd2f8ce	0.025753405
189	0x3e8f215b	0.27955136
190	0xbe336abe	-0.17521188
191	0xbe75d632	-0.2400749
192	0xbdc3cd6f	-0.09560668
193	0xbe114621	-0.14186908
194	0xbde8408c	-0.11340436
195	0xbdd2d647	-0.102947764
196	0xbe6da541	-0.2320757
197	0xbe35f904	-0.17770773
198	0x3e4f6c22	0.20256093
199	0x3bb34978	0.0054714046
200	0x3e77bc1f	0.24192856
201	0xbd21d3be	-0.039508574
202	0xbcd2d144	-0.025734551
203	0xbd515d11	-0.051114146
204	0xbdd3a1e3	-0.10333612
205	0x3e192f17	0.1495937
206	0x3e0e9b28	0.13926375
207	0x3de30ed8	0.110868156
208	0xbe4f6a16	-0.20255312
209	0x3e429025	0.190003
210	0x3e74b447	0.23896895
211	0x3ee64dfb	0.4498137
212	0x3d172d9a	0.036908723
213	0xbd119996	-0.03554686
214	0x3e212e50	0.15740323
215	0x3eaba3ae	0.33523315
216	0x3da76885	0.081742324
217	0xbdfde65a	-0.12397452
218	0x3eab09ad	0.3340582
219	0x3d8f6963	0.07002523
220	0xbe8ff9c3	-0.2812024
221	0xbe231deb	-0.15929382
222	0x3d95f54d	0.07322178
223	0xbcfb810c	-0.030701183
224	0x3dc8498c	0.09779653
225	0x3ee22808	0.44171166
226	0xbea54a7a	-0.32283384
227	0x3e59367e	0.21212193
228	0x3e851987	0.25996038
229	0x3e35f10d	0.17767735
230	0xbeb1e527	-0.34745142
231	0xbd99011e	-0.07470916
232	0xbe548f76	-0.20757851
233	0x3eb453f1	0.35220292
234	0xbe7e9729	-0.2486235
235	0xbe43b708	-0.1911279
236	0xbe1d681c	-0.15371746
237	0xbbc61407	-0.006044868
238	0x3cadd33e	0.021218892
239	0x3e09f9dc	0.1347422
240	0xbe037f2f	-0.12841485
241	0x3df05749	0.11735398
242	0xbeb00c7d	-0.34384528
243	0xbe5673a6	-0.20942554
244	0xbe266450	-0.16249204
245	0xbd90a734	-0.070631415
246	0xbe62a5a8	-0.22133505
247	0xbe649235	-0.22321399
248	0xbe35dc93	-0.17759924
249	0x3e15c80b	0.14627092
250	0xbd3b8ff9	-0.0457916
251	0x3da18014	0.07885757
252	0x3e55655c	0.20839447
253	0x3d83fe56	0.06444995
254	0xbe2d6203	-0.1693192
255	0x3e2173df	0.15766858

bias f4 [256]
0	0xbdee8314	-0.11646095
1	0x3e4572b8	0.19282043
2	0x3e97c496	0.2964217
3	0xbe84d6a4	-0.25945008
4	0x3d81504c	0.063141435
5	0xbeb3c642	-0.35112196
6	0x3dc6f2c9	0.09714276
7	0xbe81dbe9	-0.2536309
8	0xbde62e04	-0.112392455
9	0x3e709b87	0.23496829
10	0x3df8b71f	0.121443026
11	0xbe3a6b1c	-0.18204921
12	0x3e385b53	0.18003587
13	0xbe76d960	-0.2410636
14	0xbebde19f	-0.37086198
15	0xbeb5b14f	-0.35486838
16	0x3f00305f	0.5007381
17	0xbe64a862	-0.22329858
18	0x3dab4098	0.0836193
19	0x3e89fdb5	0.26951376
20	0x3e67d07a	0.22638121
21	0xbd9e04f3	-0.07715788
22	0x3d2e482d	0.0425493
23	0x3a5de8a3	0.00084651465
24	0xbe94299d	-0.28937998
25	0xbe7c5791	-0.24642779
26	0xbe30203a	-0.17199793
27	0xbccce306	-0.025010597
28	0x3ef1f64c	0.47258222
29	0xbe810e77	-0.25206348
30	0xbe34531b	-0.17609827
31	0xbe7d7b9a	-0.24754182
32	0x3e2db62c	0.16964024
33	0xbe41d7b7	-0.18929945
34	0xbe04b8bc	-0.12961096
35	0xbadee137	-0.0017004375
36	0xbe4ef73f	-0.20211504
37	0xbe41c5a2	-0.18923047
38	0xbe0da187	-0.13831149
39	0xbbc18ae3	-0.005906449
40	0xbebd0939	-0.369211
41	0xbe298afa	-0.16556922
42	0xbd9ebe21	-0.07751108
43	0x3dd67fe3	0.10473611
44	0x3ee42d97	0.44566032
45	0x3ed2ab9c	0.41146553
46	0x3e55c673	0.20876484
47	0x3e53996a	0.20663992
48	0x3eccae52	0.39976746
49	0x3e998747	0.2998602
50	0x3eaecc85	0.3414041
51	0xbd38e929	-0.045144234
52	0x3d855d6a	0.06511958
53	0x3ef3e92a	0.47638828
54	0xbeb9fd50	-0.36326075
55	0xbe8a1fda	-0.26977426
56	0xbdfa3502	-0.12217142
57	0x3e109dba	0.14122668
58	0x3e46d3c3	0.19416718
59	0x3cd4901d	0.025947625
60	0xbe7ab732	-0.24483946
61	0x39a4ef67	0.00031458886
62	0xbe1ba2ee	-0.15198871
63	0xbe72b391	-0.23701312
64	0x3ca6d1a9	0.020363646
65	0x3cd1d383	0.025613552
66	0xbc4e97b5	-0.012609412
67	0x3ea14cbf	0.31503865
68	0xbdf597a7	-0.11991816
69	0xbd3bb723	-0.04582895
70	0x3de8b8fc	0.11363408
71	0x3e24f388	0.16108525
72	0x3ec184de	0.37796682
73	0x3ea2b9ff	0.3178253
74	0x3f0f06ca	0.55869734
75	0x3cf41989	0.029797332
76	0xbe69b0e4	-0.22821385
77	0xbe0a675c	-0.13515991
78	0xbe230ce9	-0.15922894
79	0x3db97d39	0.090570875
80	0xbd4db60f	-0.050222453
81	0xbe65505d	-0.22393937
82	0xbc43945d	-0.011937228
83	0xbe6732fa	-0.2257804
84	0x3e51fe69	0.20507206
85	0xbe177e87	-0.1479436
86	0xbeea3986	-0.45747012
87	0x3db5b76f	0.08872878
88	0x3db9f2a2	0.09079482
89	0x3dd3bbea	0.10338576
90	0x3e2f0b5f	0.17094181
91	0x3d5804f3	0.052739095
92	0x3e2fe72f	0.17178033
93	0xbc99d6fd	-0.018779272
94	0xbd7bc7c1	-0.061469797
95	0xbebe553a	-0.37174398
96	0xbe82ba93	-0.2553297
97	0x3e5042b7	0.2033795
98	0x3eaee84a	0.34161597
99	0xbe54c953	-0.20779924
100	0xbb48ee6b	-0.0030659686
101	0x3df183b2	0.11792697
102	0x3ea8bf4e	0.32958454
103	0xbe8e9e84	-0.27855313
104	0x3ea8aa1a	0.32942277
105	0x3c3678d3	0.011137205
106	0xbd483b99	-0.04888496
107	0xbd73a9fe	-0.05948829
108	0xbdae97b0	-0.08525026
109	0xbec25e94	-0.37962782
110	0xbe493cbf	-0.19652079
111	0x3ebc458c	0.3677181
112	0xbe8c3858	-0.27386737
113	0xbe8a790d	-0.2704548
114	0x3d658808	0.056037933
115	0xbe9f65d6	-0.31132382
116	0xbbf27d58	-0.007400196
117	0x3ea1fc9e	0.31638044
118	0x3ef19262	0.47181994
119	0x3e28802e	0.16455147
120	0xbe99189f	-0.29901597
121	0x3d908700	0.07056999
122	0xbd082c41	-0.03324533
123	0x3db7fd2f	0.08983838
124	0x3e333f37	0.17504583
125	0x3ef035a9	0.4691594
126	0xbe750701	-0.23928453
127	0x3edadc2d	0.42746106
128	0xbe763fbe	-0.24047753
129	0xbe749864	-0.23886257
130	0xbe2ac636	-0.16677174
131	0x3e18d5f7	0.14925371
132	0xbe9612aa	-0.29311115
133	0x3b853552	0.004065194
134	0xbcd73542	-0.026270512
135	0x3e3f7996	0.18698725
136	0xbe62e929	-0.22159256
137	0xbe281bbd	-0.16416831
138	0x3b5128fb	0.0031915295
139	0x3e8a91ce	0.27064365
140	0xbd45ab3d	-0.04825901
141	0x3e575261	0.21027519
142	0xbe874df3	-0.26426658
143	0xbdf601e7	-0.120120816
144	0x3e6fbb8f	0.23411392
145	0x3d512b19	0.05106649
146	0xbdf62a9c	-0.12019846
147	0xbe158b19	-0.14603843
148	0xbd8e7ac7	-0.06957012
149	0xbc56a5ec	-0.013101082
150	0xbe96f160	-0.2948103
151	0x3bad3fba	0.005287138
152	0xbd783982	-0.06060172
153	0x3e0a868e	0.13527891
154	0xbdd41dcb	-0.10357245
155	0x3d4e9ff3	0.05044551
156	0x3cf4d898	0.029888436
157	0x3c953b87	0.018216861
158	0xbeb7533d	-0.35805693
159	0x3e654661	0.22390129
160	0x3dffd55b	0.12491866
161	0xbe17cb6b	-0.14823692
162	0xbf0039d7	-0.50088257
163	0xbe6e8be2	-0.23295549
164	0xbeac99d4	-0.33711112
165	0x3e45a42c	0.19300908
166	0x3c8a950f	0.01691678
167	0xbdaa52d3	-0.08316579
168	0x3e1f02a5	0.15528353
169	0xbebeeb76	-0.37289017
170	0xbe2c944f	-0.1685345
171	0xbebfca5e	-0.3745908
172	0xbe5dc59b	-0.21657412
173	0x3eaa2f81	0.33239368
174	0xbd84888b	-0.06471356
175	0x3e24ffbd	0.16113181
176	0xbcb29a48	-0.021802083
177	0xbdf7bb53	-0.12096276
178	0x3d681dc1	0.056669
179	0xbe65d808	-0.2244569
180	0x3dcd42e5	0.10022525
181	0x3ec04071	0.37549165
182	0xbe6fc94e	-0.23416635
183	0x3e963dbb	0.29343972
184	0xbeb7b0db	-0.35877118
185	0xbe4ed78a	-0.20199409
186	0x3e04ab5c	0.12955993
187	0x3ecf262e	0.40458816
188	0x3c650e71	0.013980494
189	0xbd6c93d6	-0.057758175
190	0xbe9b08eb	-0.3028024
191	0x3ed9a489	0.42508343
192	0xbe1c9ca3	-0.15294127
193	0x3e150d2d	0.14555807
194	0x3ebdaeaf	0.37047336
195	0xbea3d5b7	-0.3199899
196	0x3e852807	0.260071
197	0xbd5e0b8d	-0.054210234
198	0xbc4b8f5b	-0.012424315
199	0xbd6c7aa3	-0.057734143
200	0x3e32bca7	0.17454778
201	0x3cf2369a	0.029567052
202	0xbe01a42a	-0.1266028
203	0x3eac893e	0.33698457
204	0xbd9b9e40	-0.07598543
205	0x3eeb42be	0.45949358
206	0x3e79b075	0.2438372
207	0x3f064fce	0.5246552
208	0x3e9356ec	0.28777254
209	0xbe34ae78	-0.1764468
210	0x3ebd5e32	0.36985928
211	0xbe8dba38	-0.27681136
212	0xbe89673c	-0.26836574
213	0x3db65efc	0.089048356
214	0xbe6b3f18	-0.22973287
215	0xbd490b94	-0.049083307
216	0xbdc8f9cf	-0.09813272
217	0x3ec56294	0.38551772
218	0xbd8920bb	-0.06695696
219	0x3ec7cd6f	0.3902392
220	0x3effc178	0.49952292
221	0xbe876309	-0.26442745
222	0x3d88b662	0.06675412
223	0xbe7ddc67	-0.24791108
224	0x3d1133de	0.035449855
225	0xbe3d9827	-0.18515073
226	0x3e672e9c	0.22576374
227	0x3f0e95b9	0.5569721
228	0x3e8ad6db	0.27117047
229	0x3d1535a5	0.036428113
230	0x3db4a86a	0.08821185
231	0xbe24d070	-0.16095138
232	0xbeb7b524	-0.35880387
233	0xbdfefb92	-0.12450327
234	0x3e662ded	0.22478457
235	0xbe003c10	-0.12522912
236	0xbed98d34	-0.42490542
237	0x3eaa67d6	0.33282346
238	0x3e508ca1	0.20366146
239	0x3eb7d4cf	0.35904548
240	0xbd87373c	-0.06602332
241	0xbe75b753	-0.23995714
242	0xbeb7c005	-0.35888687
243	0x3dd978d5	0.1061875
244	0x3de6a9bf	0.11262845
245	0xbe05e9e0	-0.13077497
246	0xbc0dce63	-0.008655163
247	0xbe5154db	-0.20442526
248	0xbe2df14b	-0.16986577
249	0x3d92c495	0.07166401
250	0x3df7c8bf	0.12098836
251	0xbd0f5341	-0.034991506
252	0x3c982de7	0.018576575
253	0xbe5284e9	-0.20558514
254	0xbeccdbd9	-0.4001148
255	0x3ea12e37	0.31480572

weight f4 [256, 256]
0	0x3caffd80	0.021483183
1	0x3d4fe18d	0.05075221
2	0x3d5dec3f	0.05418038
3	0xbda95d65	-0.08269767
4	0x3de596fe	0.1121044
5	0x3ce89eb8	0.028395995
6	0xbccdef75	-0.025138596
7	0x3cdec57f	0.027193783
8	0x3d2068b2	0.039162345
9	0xbd1c5526	-0.03816714
10	0xbd8c6fe7	-0.06857281
11	0xbd9af894	-0.07566944
12	0x3cfcd474	0.030863024
13	0x3b10293b	0.0021997232
14	0xbdac2e21	-0.08407236
15	0xbd321730	-0.043479145
16	0xbcd7f2c4	-0.026360877
17	0x3d99a82f	0.075027816
18	0x3b74ac0c	0.0037333993
19	0x3c441f38	0.011970334
20	0x3d53b3d3	0.051685166
21	0x3cce86f9	0.025210844
22	0x3c423a02	0.01185465
23	0xbc3fa3c9	-0.011696764
24	0xbda4c574	-0.08045474
25	0xbe0d3928	-0.13791335
26	0xbcfa36f6	-0.030543786
27	0xbba2670b	-0.0049561313
28	0xbd4af28e	-0.049547724
29	0xbccbcff1	-0.024879428
30	0xbb1766c9	-0.0023102036
31	0xbd45e19f	-0.048310872
32	0xbd6ad0f1	-0.05732817
33	0xbd216a7a	-0.039408185
34	0xbba3ed88	-0.005002681
35	0x3b485a0f	0.0030571257
36	0xbda7b52f	-0.08188855
37	0x3d470153	0.048585247
38	0xbd401728	-0.046897084
39	0x3d3d558e	0.04622417
40	0xbb09b862	-0.0021014442
41	0xb9ae26c9	-0.00033216763
42	0xbc895223	-0.016762799
43	0xbce69660	-0.028147876
44	0x3d7bb4fb	0.061451893
45	0x3d28dd07	0.041226413
46	0xbd815343	-0.06314709
47	0xbdd0264f	-0.10163557
48	0xbdcf729d	-0.101292826
49	0x3c53dcdc	0.012931075
50	0xbbed99eb	-0.0072510145
51	0xbd8cede6	-0.06881313
52	0x3ce24a89	0.027623432
53	0x3e5aa007	0.21350108
54	0xbca8f4b2	-0.020624492
55	0xbd8b194e	-0.06791936
56	0x3e106b75	0.14103492
57	0x3d3f31da	0.0466784
58	0x3d0c7330	0.03428954
59	0xbd31256b	-0.043248575
60	0xbbf85a8e	-0.0075791543
61	0x3d48e8db	0.049050193
62	0xbd404e2d	-0.046949554
63	0xbd654104	-0.055970207
64	0x3b406340	0.0029356033
65	0xbcb6263e	-0.022235032
66	0x3b0763a3	0.0020658753
67	0xbbd66f17	-0.0065440047
68	0x3d541fa8	0.051788002
69	0x39da5c87	0.00041649138
70	0x3de92ccb	0.11385497
71	0xbb17b59c	-0.002314902
72	0x3ddf1eeb	0.10894569
73	0x3d27ff80	0.04101515
74	0x3dc07484	0.093972236
75	0x3ca372e8	0.019952253
76	0x3d5b11c5	0.053483743
77	0xbcf31c67	-0.02967663
78	0xbcd3eb03	-0.025868898
79	0xbda0cb75	-0.07851306
80	0x3dc526bc	0.096265286
81	0x3ceef7a9	0.029170828
82	0xbd571f6e	-0.052520208
83	0xbcf4e04c	-0.02989211
84	0x3c9d58a4	0.019207306
85	0xbcb02d0b	-0.021505853
86	0xbd3edfcb	-0.046600144
87	0x3b8d64a4	0.004314976
88	0xbc871747	-0.016490592
89	0x3d1655b2	0.03670282
90	0x3cbb0f69	0.022834497
91	0xbbc11122	-0.005891935
92	0x3cd4b01d	0.025962884
93	0xbd8add89	-0.06780536
94	0xbd061b7e	-0.032741062
95	0xbc5322da	-0.012886727
96	0xbd8ded5e	-0.0693004
97	0x3cd81506	0.026377212
98	0x3d0c7f3b	0.034301024
99	0xbc2833a4	-0.010266218
100	0xbd1910c3	-0.0373695
101	0xbd80d2dd	-0.06290219
102	0xbb5e1d4e	-0.0033891979
103	0xbd755910	-0.05989939
104	0x3d91d8e4	0.07121447
105	0xbb9cc3b2	-0.004784071
106	0xbdbdeb62	-0.09273411
107	0x3d2b8ca2	0.041882165
108	0x3b7ac500	0.0038264394
109	0xbd57a153	-0.052644085
110	0xbc9c3543	-0.019068366
111	0x3cad9d5a	0.021193195
112	0xbc3307ff	-0.010927199
113	0xbc4c20c0	-0.01245898
114	0xbd9b747f	-0.07590579
115	0xbdd1dd8d	-0.102473356
116	0x3c614250	0.01374872
117	0xbd5b4c1d	-0.053539384
118	0x3d0ac83d	0.03388237
119	0x3d122281	0.035677437
120	0xbdaf3021	-0.08554102
121	0xbd4d2709	-0.050086055
122	0xbdffa093	-0.12481799
123	0xbde4d3e4	-0.111732274
124	0xbd216231	-0.039400283
125	0x3dcfcd92	0.10146631
126	0x3b826e71	0.003980451
127	0xbc8500a2	-0.016235653
128	0xbd911de6	-0.07085781
129	0x3cb51ddd	0.022108966
130	0xbceca2e7	-0.028886272
131	0x3c515555	0.012776692
132	0xbdb5ea1c	-0.088825434
133	0x3c25e12b	0.010124485
134	0xbcefc1fc	-0.029267304
135	0x3c3613e6	0.011113143
136	0xbdbd38b0	-0.09239328
137	0x3d3e7cc8	0.04650572
138	0xbd8b17b5	-0.06791631
139	0x3d14cf1e	0.036330335
140	0x3c961c7c	0.01832413
141	0x3d396360	0.045260787
142	0x3d15ee12	0.036603995
143	0x3c82a6e5	0.015948722
144	0x3cb5ee78	0.022208437
145	0x3e481821	0.19540454
146	0xbda0c634	-0.07850304
147	0xbcbf0e4d	-0.023322249
148	0xbca25a3a	-0.019818414
149	0xbd3bd1d9	-0.045854423
150	0xbd6971d7	-0.05699333
151	0xbcb7ee81	-0.022452595
152	0xbd899d8b	-0.06719502
153	0xbd1d067e	-0.03833627
154	0x3cefb80f	0.02926257
155	0xbc1873a0	-0.009304911
156	0xbcc9e700	-0.024646282
157	0xbd28c62e	-0.041204624
158	0xbda7084f	-0.081558816
159	0x3c398e95	0.011325498
160	0x3d1655da	0.03670297
161	0xbd38b108	-0.045090705
162	0xbdee047a	-0.116219476
163	0xbb495d31	-0.0030725712
164	0x3d03df05	0.03219511
165	0x3cd5a18e	0.026078012
166	0xbbebb89f	-0.0071936394
167	0x3da7a4fe	0.08185767
168	0x3dc7c778	0.097548425
169	0xbdb2e1c2	-0.08734466
170	0x3c577a7e	0.013151763
171	0xbd41f0f2	-0.047348924
172	0xbda07e66	-0.078366086
173	0x3d07b2d1	0.033129517
174	0xbcd9ca8f	-0.026585845
175	0xbd0b4e9d	-0.03401052
176	0xbc21a702	-0.009866478
177	0xbccb405a	-0.024810959
178	0xbd6ee5dd	-0.058324683
179	0xbb675cba	-0.0035303072
180	0xbca4b3d8	-0.020105287
181	0xbd133c11	-0.035945956
182	0xbdb5a0d3	-0.088685654
183	0xbcaef25b	-0.021355798
184	0xbd8b240a	-0.06793983
185	0x3c152f97	0.009105585
186	0xbc0f1fcc	-0.008735608
187	0xbd7a7035	-0.061142165
188	0x3d87266c	0.06599125
189	0xbe11c240	-0.14234257
190	0x3c5fad26	0.013652122
191	0x3d29c997	0.041452017
192	0xbd989ef9	-0.07452197
193	0xbd7d00e5	-0.06176843
194	0x3e01d8a5	0.126803
195	0xbca43505	-0.020044813
196	0xbd617179	-0.055039857
197	0x3c7fea25	0.015619789
198	0x3d2af92a	0.041741528
199	0xbdbb8892	-0.09156908
200	0x3c436a9b	0.011927272
201	0x3d34546c	0.044025823
202	0x3c85b153	0.016319906
203	0xbc974eda	-0.018470217
204	0xbdb33296	-0.08749883
205	0xbbceaa13	-0.0063068955
206	0x3d6a04e9	0.05713359
207	0x3d49473c	0.0491402
208	0x3dba94d3	0.09110417
209	0x3bdabdcf	0.006675459
210	0x3d900a53	0.07033219
211	0xbce1a82d	-0.027546013
212	0x3d7678dc	0.060173854
213	0x3bf0ce37	0.0073488015
214	0xbd434f81	-0.047683243
215	0xb90c69f4	-0.00013390911
216	0x3c343752	0.0109995175
217	0xbcc38f3d	-0.023872012
218	0xbdbc329a	-0.09189339
219	0xbd2ec731	-0.042670432
220	0x3c3329d3	0.010935265
221	0xbd421ce0	-0.04739082
222	0xbc2f7ceb	-0.010710935
223	0xbd3e86bd	-0.046515215
224	0x3d016b7b	0.031596642
225	0x3dadc2d4	0.08484426
226	0x3ab53a08	0.0013826499
227	0xbbcc88aa	-0.0062418776
228	0x3cfec86a	0.031101424
229	0x3c87073e	0.016482946
230	0xbd50f17d	-0.05101155
231	0x3c0124dd	0.007882324
232	0xbd36be6d	-0.044615198
233	0xbd8fb7e9	-0.070175
234	0xbd5f8c5e	-0.054577224
235	0x3d56118b	0.052262824
236	0xbd55709a	-0.05210934
237	0x3d3ea689	0.04654554
238	0x3ccb7036	0.02483378
239	0x3bc27766	0.0059346436
240	0xbda2ffd0	-0.079589486
241	0x3d0ce842	0.034401186
242	0xbd2d8e4d	-0.042372037
243	0x3d7295bb	0.059224825
244	0x3d1c9417	0.038227167
245	0xbc8398a3	-0.016063994
246	0xbdaebed0	-0.08532488
247	0xbe114bcd	-0.14189072
248	0xbcafeb62	-0.021474544
249	0x3c06bcc1	0.008223713
250	0x3daec64c	0.08533916
251	0xbd242291	-0.040072028
252	0x3e1c161a	0.15242806
253	0xbd9036dc	-0.070417136
254	0xbc8b2f94	-0.01699046
255	0x3caf93e4	0.021432824

bias f4 [256]
0	0xbb1ec174	-0.0024224194
1	0x3e697433	0.22798233
2	0x3dee673e	0.11640786
3	0x3e711615	0.2354358
4	0xbd399cbd	-0.045315493
5	0xbb0b25fe	-0.0021232362
6	0xbd42b9f0	-0.047540605
7	0x3d4f4a08	0.05060771
8	0x3dc80a5c	0.09767601
9	0xbcd73cf3	-0.02627418
10	0xbda787f9	-0.081802316
11	0x3c08c96e	0.008348806
12	0xbd28c100	-0.041199684
13	0x3e00d020	0.12579393
14	0x3cc630dc	0.02419322
15	0x3ddefa47	0.1088758
16	0x3c52884e	0.01284988
17	0x3b880706	0.004151228
18	0x3e26242d	0.16224737
19	0x3dc44b37	0.095846586
20	0x3e06e596	0.13173518
21	0x3b4c182d	0.003114234
22	0xbd580ad0	-0.052744687
23	0xbd6c810d	-0.05774026
24	0xbc9c3603	-0.019068724
25	0x3e2459d2	0.16049889
26	0x3dcbbecf	0.09948503
27	0x3da99eae	0.08282219
28	0x3e143cae	0.14476272
29	0x3c078bf1	0.008273111
30	0xbc6755a4	-0.014119539
31	0xbcd7e93e	-0.026356336
32	0x3c78edbe	0.015193401
33	0x3e053429	0.13008179
34	0xbc1136e4	-0.008863185
35	0x3b8ab255	0.0042326846
36	0xbd543377	-0.051806893
37	0xbb2f3703	-0.002673567
38	0xbd8a5770	-0.06754959
39	0x3d1b29af	0.03788155
40	0x3c93871f	0.018008767
41	0xbc1932b9	-0.009350472
42	0xbce21305	-0.02759696
43	0xbda5b184	-0.08090499
44	0x3b23f32e	0.0025016773
45	0x3c88ceb1	0.01670012
46	0xbc0a34cc	-0.008435439
47	0x3d13c7c5	0.036079187
48	0xbd74be77	-0.059751954
49	0xbcbec378	-0.023286566
50	0xbda7f951	-0.0820185
51	0xbd0e3b93	-0.034724783
52	0x3786c9b3	1.6067968e-05
53	0x3d213942	0.039361246
54	0x3b3f0509	0.0029147288
55	0x3a87dea7	0.0010366038
56	0xbd64c2ba	-0.05584977
57	0x3c7142b8	0.01472538
58	0x3d0bf167	0.034165766
59	0x3e3db281	0.18525125
60	0x3d90c3f2	0.070686236
61	0xbd06f8b6	-0.032952033
62	0xbda4360e	-0.080181226
63	0xbd519b48	-0.05117348
64	0xbccf85e2	-0.025332395
65	0x3d27c149	0.040955815
66	0xbd3ea528	-0.046544224
67	0xbd7eb8e0	-0.06218803
68	0x3c8ae380	0.016954184
69	0xbd33e9df	-0.04392421
70	0x3dcdbc03	0.10045626
71	0xbd63b021	-0.05558789
72	0x3c85cdff	0.016333578
73	0x3ccd87b8	0.02508913
74	0x3e019d5c	0.12657684
75	0xbddd03ea	-0.10791762
76	0xbcaed6a8	-0.02134259
77	0xbd606141	-0.05478025
78	0xbcb674bb	-0.022272458
79	0x3d906b08	0.070516646
80	0x3dbae2ce	0.09125291
81	0xbd05193a	-0.03249476
82	0xbd8ca054	-0.06866518
83	0x3d9b52cd	0.07584152
84	0x3ca223c8	0.019792452
85	0x3c426b85	0.011866455
86	0x3db8e9ce	0.0902897
87	0x3cc9ae18	0.024619147
88	0x3ded33a6	0.11582117
89	0x3da9379c	0.0826256
90	0x3d8df283	0.06931021
91	0xbbe5a19b	-0.0070077903
92	0x3e12769d	0.1430306
93	0xbd48e4be	-0.04904627
94	0xbdb49fc5	-0.08819536
95	0x3dde1902	0.108446136
96	0xbd3cd3db	-0.04610048
97	0xbd089451	-0.03334457
98	0x3d80c6c8	0.062879145
99	0x3e933dd0	0.28758097
100	0xbdd47dcf	-0.103755586
101	0x3df6c0d0	0.12048495
102	0x3d3c30db	0.04594503
103	0x3dc80529	0.09766609
104	0x3d39333c	0.045214877
105	0x3d8caf85	0.06869415
106	0x3d9a64a1	0.07538725
107	0xbded085d	-0.11573861
108	0x3d1c7cda	0.038205005
109	0x3c129005	0.00894547
110	0x3d29703e	0.041366808
111	0x3d3f4770	0.046698987
112	0xbd1abd8f	-0.037778433
113	0x3da6db6d	0.08147321
114	0x3d561e4d	0.05227499
115	0xbd4df4dc	-0.050282344
116	0x3da1a4c2	0.07892753
117	0xbc9605f2	-0.018313382
118	0xbcb54943	-0.02212966
119	0x3a540afc	0.0008088795
120	0xbc860317	-0.016358895
121	0x3d2528ad	0.040321995
122	0xbcb09c38	-0.021558866
123	0xbdf26a2c	-0.11836657
124	0xbd58ed0e	-0.052960448
125	0xbd5ca59e	-0.053868882
126	0x3d857b28	0.06517631
127	0x3df0d43d	0.11759231
128	0xbe0978b4	-0.13424951
129	0x3d16fbd4	0.036861256
130	0xbd2d1ed0	-0.042265713
131	0x3de902e2	0.11377503
132	0xbda6e459	-0.081490226
133	0xbbd572ef	-0.0065139453
134	0xbe076ee7	-0.132259
135	0x3def465c	0.11683342
136	0x3c89ace5	0.016806075
137	0x3d1b1bd3	0.037868332
138	0xbd8855e8	-0.0665701
139	0x3db6fee5	0.08935336
140	0x3d314d98	0.04328689
141	0xbd41d5a0	-0.04732287
142	0xbd21051b	-0.03931151
143	0xbd508f6e	-0.050918035
144	0xbd9242fd	-0.07141683
145	0xbd91a40f	-0.0711137
146	0x3c79202e	0.015205426
147	0x3cc4d54a	0.024027485
148	0xbd867676	-0.065655634
149	0x3cd1c477	0.025606377
150	0x3e0a13d6	0.1348413
151	0xbc8a7b09	-0.01690437
152	0x3e07bd84	0.13255888
153	0x3cb5e28d	0.022202754
154	0x3e34104c	0.17584342
155	0x3dbf37cb	0.093368135
156	0xbd2899fe	-0.041162483
157	0xbdfded0a	-0.12398727
158	0xbd53b119	-0.051682565
159	0xbd9d3e5a	-0.07677908
160	0x3d608f6b	0.054824274
161	0x3c49513a	0.012287432
162	0xbce38749	-0.02777447
163	0xbd1ec7d7	-0.0387648
164	0x3e0a7b17	0.13523518
165	0x3e5bf3fa	0.21479788
166	0x3cd56f5e	0.02605408
167	0xbba727b1	-0.005101167
168	0xbda8c7fb	-0.08241268
169	0x3d3b48c9	0.04572371
170	0xbd182559	-0.037144993
171	0x3d7c405f	0.061584827
172	0x3c871b63	0.016492551
173	0xbd77c19d	-0.06048738
174	0x3da30072	0.07959069
175	0xbd343dc1	-0.044004206
176	0x3aec69c0	0.0018036887
177	0xbd1b442c	-0.03790681
178	0x3e4076d9	0.18795337
179	0x3ce0bb26	0.02743299
180	0x3d5d7dd3	0.054075073
181	0xbdc35183	-0.095370315
182	0x3dca834a	0.09888323
183	0x3ce60862	0.02808017
184	0x3e4bb1b9	0.19892015
185	0x3cf76c3b	0.030202975
186	0xbc21f603	-0.009885314
187	0x3e0fcc9c	0.14042896
188	0xbddef147	-0.10885864
189	0xbd6cdffc	-0.057830796
190	0xbc6bc499	-0.014390134
191	0xbc3fb4ff	-0.011700868
192	0x3ca2165c	0.019786052
193	0x3de36923	0.111040376
194	0x3c7acc38	0.015307479
195	0xbd4c6ac7	-0.04990652
196	0x3d14d419	0.036335085
197	0xbd1d5bf1	-0.03841776
198	0x3ea13fbf	0.31493947
199	0xbcce0c84	-0.025152452
200	0xbd83c51e	-0.064340815
201	0xbd2d8c3a	-0.04237006
202	0xbdde0110	-0.108400464
203	0xbd34ea1c	-0.044168577
204	0xbd74d7a4	-0.059775963
205	0xbd2117bc	-0.039329275
206	0x3e19138a	0.1494886
207	0xbca9ee71	-0.02074358
208	0xbdae6188	-0.08514696
209	0xbd65ce92	-0.056105204
210	0xbc0e7121	-0.008693964
211	0xbbd224d6	-0.0064130826
212	0x3c958ddb	0.018256119
213	0x3e022098	0.12707746
214	0x3e8ceb73	0.27523383
215	0xbde66e72	-0.112515345
216	0xbd5995d6	-0.05312141
217	0xbd3b558e	-0.04573589
218	0xbd84d88b	-0.06486615
219	0xbb57dcac	-0.0032937927
220	0xbd832456	-0.06403415
221	0xbdc8c0f7	-0.0980243
222	0x3d7fdf03	0.06246854
223	0x3ce6e4de	0.028185304
224	0x3c68a5f2	0.014199721
225	0xbd92b6bd	-0.07163761
226	0xbd9888c8	-0.07447964
227	0x3e00d4a6	0.12581119
228	0xbc7916a6	-0.015203154
229	0xbd733dbc	-0.059385046
230	0x3cc2816b	0.023743352
231	0xbd153446	-0.036426805
232	0xbd4f93a0	-0.050677896
233	0x3c1689e4	0.009188149
234	0xbd2bb280	-0.041918278
235	0x3de1fa1b	0.11034032
236	0xbd315d2e	-0.043301754
237	0x3cd49a7d	0.025952572
238	0x3e7c1f01	0.24621202
239	0xbd8abf78	-0.06774801
240	0x3e269042	0.16265967
241	0x3e261f91	0.16222979
242	0xbd348ae6	-0.044077776
243	0x3d6819cb	0.056665223
244	0xbd45e2d4	-0.048312023
245	0xbacacf73	-0.0015473202
246	0xbe2ce113	-0.16882734
247	0xbda0b44e	-0.078468904
248	0xbd6ac829	-0.057319794
249	0xbc4eb7b5	-0.012617041
250	0x3d2160ee	0.03939908
251	0x3e53a35a	0.20667782
252	0xbd081f60	-0.033233047
253	0xbdd7a434	-0.10529366
254	0xbdc733aa	-0.09726651
255	0xbc0509fb	-0.008120055

weight f4 [1, 256]
0	0xbb916608	-0.004437212
1	0x3d9e3418	0.0772478
2	0x3d28adbf	0.041181322
3	0x3d79f3df	0.06102359
4	0x3ba0925f	0.0049002613
5	0xbd5b7ad9	-0.053583954
6	0xb9e45918	-0.0004355393
7	0xbda7c981	-0.08192731
8	0xbee63fef	-0.44970652
9	0xbd842e12	-0.064541
10	0xbce3587c	-0.027752154
11	0xbd45716e	-0.048203878
12	0xba590674	-0.00082788547
13	0x3d83feef	0.06445109
14	0x3a5dac6e	0.0008456175
15	0x3c9a33a7	0.018823458
16	0xbd40ed17	-0.047101106
17	0xbbad6869	-0.0052919877
18	0x3b9c1374	0.004763061
19	0x3c62debb	0.013847048
20	0x3c4b28d5	0.012399872
21	0xbcb66334	-0.0222641
22	0xbd9c1496	-0.07621114
23	0xbd33ff83	-0.043944847
24	0xbd1d1031	-0.03834552
25	0x3d37dc65	0.04488792
26	0x3d903f51	0.07043327
27	0x3def4b1d	0.116842486
28	0x3c2c5d51	0.010520295
29	0xbd37c7ab	-0.044868153
30	0x3c72e419	0.0148248905
31	0xbd3f527c	-0.046709523
32	0xbd95e76d	-0.073195316
33	0x3e630644	0.22170359
34	0xbd6e501e	-0.058181874
35	0xbb99efad	-0.004697761
36	0x3cf3be2d	0.029753769
37	0xbdeb2066	-0.11480789
38	0xbae43cbf	-0.0017413123
39	0xbe45ae46	-0.19304761
40	0xbd02216a	-0.031770147
41	0x3b8574b2	0.004072749
42	0x3cad4e0d	0.021155382
43	0xbce4f093	-0.027946746
44	0xbdf05eab	-0.117368065
45	0x3cfe2b92	0.031026635
46	0x3a1e5f42	0.0006041416
47	0xbd42816a	-0.0474867
48	0xbd04dc2b	-0.03243653
49	0xbd168d2d	-0.03675573
50	0xbdabb159	-0.08383436
51	0x3d398d0e	0.045300536
52	0x3b406c24	0.0029361332
53	0x3bba2f4b	0.0056819073
54	0x3d9852ff	0.07437705
55	0xbd4db7bf	-0.050224062
56	0x3ad6f8a3	0.0016401004
57	0xbd490173	-0.049073648
58	0xbe0278ec	-0.1274144
59	0x3e0c3173	0.13690738
60	0xbe99a83a	-0.3001116
61	0xbd2d5cde	-0.042324893
62	0xbda01beb	-0.07817825
63	0xbd1060c9	-0.03524855
64	0xbd56b70e	-0.05242067
65	0x3ccbde71	0.024886342
66	0xbc78da0d	-0.015188706
67	0x3c2910a5	0.01031891
68	0x3d12948f	0.035786208
69	0xbd30eaf7	-0.04319283
70	0x3a99137c	0.001167878
71	0xbdd31820	-0.10307336
72	0xbec18ac3	-0.3780118
73	0x3d577f5f	0.052611705
74	0x3d543423	0.051807534
75	0xbd0334e1	-0.03203285
76	0xbce41ff0	-0.02784726
77	0xbd198304	-0.03747846
78	0x3cb61644	0.022227414
79	0xbdc8670d	-0.097852804
80	0x3d0ccfeb	0.034377974
81	0xbd44249d	-0.04788648
82	0xbdcfd280	-0.101475716
83	0x3defa374	0.11701098
84	0xbcd8518e	-0.026406076
85	0xbd5892fa	-0.052874543
86	0x3d94bd95	0.072627224
87	0xbd115b13	-0.035487246
88	0x3d00ca55	0.03144296
89	0x3dd57f58	0.104246795
90	0xbcb1ebb8	-0.021718845
91	0xbca78d01	-0.020452978
92	0x3e4b4d32	0.19853666
93	0xbd991287	-0.07474237
94	0xbda561d0	-0.08075297
95	0xbbf39815	-0.007433901
96	0x3e2557cf	0.16146778
97	0xbd2789fa	-0.04090307
98	0xbea0cfcd	-0.3140854
99	0x3e09c7c3	0.1345511
100	0xbe9cd536	-0.30631417
101	0x3bf50a74	0.0074780528
102	0xbdd66202	-0.10467912
103	0x3b7f06d6	0.0038913987
104	0xbedd1b1d	-0.43184748
105	0x3d9d8c99	0.076928325
106	0xbdb7d891	-0.08976854
107	0xbdc16fe7	-0.09445172
108	0x3d84d0e7	0.064851575
109	0x3c83b21c	0.01607614
110	0x3dbd5eaf	0.09246575
111	0x3e177dea	0.14794126
112	0x3ccbb664	0.024867244
113	0x3df77d6c	0.12084469
114	0x3b6b53c4	0.0035908083
115	0x3b6fbb70	0.0036580227
116	0x3e95ca36	0.29255837
117	0xbd10c922	-0.035348065
118	0xbea732e4	-0.32656014
119	0xbcdea397	-0.027177615
120	0xba3cd4fd	-0.00072033686
121	0xba1cce08	-0.0005981629
122	0xbd11414a	-0.035462655
123	0xbd7266bf	-0.059180018
124	0xbb1409d6	-0.002258887
125	0xbd3893b2	-0.04506273
126	0x3c3db259	0.011578166
127	0x3e0220d6	0.12707838
128	0xbde9374e	-0.11387502
129	0xba92156d	-0.0011145301
130	0xbd8319c5	-0.064013995
131	0x3e527404	0.20552069
132	0xbd25192b	-0.040307205
133	0xb9f9b744	-0.00047629524
134	0xbe0463fa	-0.12928763
135	0x3da846b3	0.0821661
136	0x3c97fcea	0.018553216
137	0x3a330158	0.00068285083
138	0xbbac01f5	-0.0052492567
139	0x3bc65557	0.006052654
140	0xbbd4c289	-0.006492917
141	0xbd4efa95	-0.050531942
142	0xbd3a844a	-0.045536317
143	0xbe495679	-0.19661893
144	0xbd0f1f9e	-0.034942262
145	0xbd2346d2	-0.03986246
146	0xbd02d24b	-0.031938832
147	0x3ccf6a44	0.025319226
148	0x3d4db84e	0.050224595
149	0xbdb49e5d	-0.08819268
150	0xbe9c08a2	-0.30475336
151	0xbde4b9c9	-0.11168248
152	0x3d141426	0.036152028
153	0xbd0bdd2d	-0.034146477
154	0x3d57c9fe	0.05268287
155	0x3cbf5a61	0.023358526
156	0xbe694222	-0.22779134
157	0xbd566d78	-0.05235049
158	0x3c5b4425	0.013382946
159	0xbda336fa	-0.0796947
160	0x3daeb8a4	0.08531311
161	0x3a57cae8	0.00082318345
162	0x3b7d9902	0.0038695936
163	0xbe8b91e9	-0.27259758
164	0x3d4e09e3	0.050302397
165	0x3de10881	0.1098795
166	0xbc90fc9e	-0.017698582
167	0xbecea952	-0.40363556
168	0xbd28374b	-0.041068356
169	0x3d93f56c	0.07224545
170	0x3bf3a580	0.0074355006
171	0x3db02d77	0.08602422
172	0xbc23f1b7	-0.01000636
173	0xbbc14963	-0.005898641
174	0x3dad25f6	0.08454506
175	0xbd5ab0e2	-0.053391345
176	0x3cb430c4	0.02199591
177	0x3b85da95	0.004084895
178	0x3ce84d45	0.028357157
179	0x3d3a6213	0.045503687
180	0x3c268ad2	0.010164933
181	0xbd8307d2	-0.06397976
182	0x3d9e0f43	0.07717755
183	0x3c8e6cc6	0.017385852
184	0x3c9df897	0.019283576
185	0x3c101957	0.008795104
186	0xbd6f93ca	-0.058490552
187	0x3d064dba	0.03278897
188	0xbdde0134	-0.10840073
189	0x392ae6a1	0.0001629838
190	0xbcf75447	-0.030191554
191	0x3d5f3a85	0.054499168
192	0xbd912254	-0.07086626
193	0xbe7d260b	-0.24721543
194	0x3d78dbfd	0.060756672
195	0xbd86918c	-0.065707296
196	0xbc9b73ed	-0.018976176
197	0xbd90ecbf	-0.07076406
198	0x3e1c86f2	0.15285853
199	0xbd4d5339	-0.050128195
200	0x3c83ba04	0.01607991
201	0xbd980fa8	-0.07424861
202	0xbd76c0e4	-0.06024255
203	0xbd8037fd	-0.06260679
204	0xbd450f3d	-0.048110235
205	0x3d2383b6	0.03992053
206	0x3d2a24f8	0.041539162
207	0xbcc7ebf0	-0.024404496
208	0xbd1682ef	-0.03674596
209	0xbce29db7	-0.027663095
210	0xbd0d7e67	-0.034544375
211	0x3d150cc0	0.036389112
212	0xbd59bbf4	-0.05315776
213	0x3d83f6a5	0.06443528
214	0x3dbe5e76	0.09295361
215	0xbd33149a	-0.04372082
216	0x3ca29b15	0.01984934
217	0xbd8ec607	-0.069713645
218	0xbdb07847	-0.08616691
219	0xbc8840f9	-0.016632544
220	0x3d116625	0.035497803
221	0xbd81f9d5	-0.0634648
222	0x3dbdb86a	0.0926369
223	0xbd64a6f4	-0.05582328
224	0xbde1f5cb	-0.110332094
225	0xbd45b5f8	-0.048269242
226	0xbdaa7896	-0.08323781
227	0x3e1bb0f2	0.15204218
228	0xbdac2cd8	-0.08406991
229	0xbd105c7b	-0.035244446
230	0xbd6806d2	-0.05664713
231	0x3d2073a1	0.039172772
232	0xbc6e7387	-0.014553911
233	0xbd209455	-0.03920396
234	0xbd202825	-0.039100785
235	0x3d37f1bf	0.04490828
236	0x3d8f7716	0.07005136
237	0x3b693cbc	0.003558918
238	0x3d8be16c	0.06830105
239	0x3d3178f7	0.04332825
240	0x3d0b3640	0.033987284
241	0x3c1d2c37	0.009593061
242	0x3c75181d	0.014959362
243	0xbeb7b3fc	-0.35879505
244	0xbdb78b1e	-0.089620814
245	0x3a21c03f	0.00061703095
246	0xbda11e9f	-0.07867169
247	0xbd1cf5ee	-0.038320474
248	0x3d2475f1	0.04015154
249	0x3b0fb836	0.0021929867
250	0x3c730336	0.0148323085
251	0x3de741db	0.11291858
252	0x3c781691	0.015142099
253	0xbd9f4b38	-0.07778019
254	0xbd20eefc	-0.039290413
255	0xbced9cd3	-0.029005444
