IIFDS-DDPG-random_start/TrainedModel/dynamicCritic_h.pkl (torch, 280727 bytes, 5 tensors)

weight f4 [256, 12]
0	0x3e69b625	0.22823389
1	0x3e8cb498	0.27481532
2	0x3ebd7e5f	0.37010476
3	0xbe32f92e	-0.17477867
4	0xbd885895	-0.06657521
5	0x3db5fcdc	0.0888612
6	0xbf2f0138	-0.68361235
7	0xbe07ef86	-0.13274965
8	0x3e4eb810	0.20187402
9	0xbce5b4b5	-0.02804027
10	0xbce4b2ba	-0.027917255
11	0x3cd1b72d	0.02560004
12	0xbbe806bc	-0.007080881
13	0x3df59aec	0.1199244
14	0xbeb47454	-0.35245
15	0xbe049cca	-0.12950435
16	0xbd3c57f7	-0.045982327
17	0x3ebb786d	0.36615315
18	0xbf6ff14e	-0.93727577
19	0x3e22d7c1	0.15902616
20	0xbefd1def	-0.494369
21	0x3a86c3d6	0.0010281752
22	0x3b777caf	0.0037763526
23	0xbbf0482e	-0.0073328232
24	0x3ca7a25d	0.020463163
25	0x3e3007af	0.17190431
26	0xbecfd420	-0.40591526
27	0xbda6c161	-0.08142353
28	0xbd8fe2da	-0.070256904
29	0xbeae2cf6	-0.34018677
30	0xbeef2130	-0.46705008
31	0x3f28a385	0.6587451
32	0xbfc97988	-1.5740213
33	0xbc09e286	-0.008415824
34	0x3daf2072	0.0855111
35	0x3cb65f0e	0.022262122
36	0xbed4252e	-0.41434616
37	0xbe2f6a28	-0.17130339
38	0x3f7a4e77	0.9777598
39	0x3ed7f58e	0.4217953
40	0xbdcbf491	-0.09958757
41	0xbe860bf7	-0.26181003
42	0xbe54f4be	-0.20796487
43	0x3d9c7f77	0.076414995
44	0xbef2c4af	-0.47415683
45	0xbd88fe2c	-0.066891044
46	0x3c444780	0.011979938
47	0x3e09be99	0.13451613
48	0xbe2870d7	-0.16449295
49	0xbe2fcf76	-0.17168984
50	0xbf51df65	-0.819815
51	0xbe01c8aa	-0.12674204
52	0x3d2c0d14	0.04200466
53	0x3e2c190b	0.16806428
54	0xbf263a83	-0.6493303
55	0x3edfef7e	0.43737406
56	0xbf063310	-0.52421665
57	0xbb95a76b	-0.004567077
58	0x3cd08d3c	0.02545797
59	0x3d902649	0.07038552
60	0x3e10710c	0.14105624
61	0x3e4fbd14	0.20286971
62	0xbcc58b7b	-0.024114361
63	0xbc42903b	-0.011875208
64	0xbda75da7	-0.0817216
65	0x3e0ed058	0.13946664
66	0x3ecd79df	0.40132043
67	0x3ec14935	0.37751165
68	0x3d9d5832	0.076828375
69	0x3db8dffd	0.090270974
70	0xbccc04fd	-0.024904722
71	0x3c3a20e5	0.011360382
72	0xbea20248	-0.31642365
73	0x3b49d0d6	0.0030794642
74	0xbeea45c2	-0.45756346
75	0x3d74729c	0.059679613
76	0xbcb6c943	-0.022312766
77	0xbec3f36a	-0.38271648
78	0xbf8794f9	-1.0592338
79	0x3e916377	0.28396198
80	0xbf8e7f22	-1.1132548
81	0xbbad3b5d	-0.0052866177
82	0xbb26e2fd	-0.0025464885
83	0x3c53d74c	0.012929749
84	0x3c0db701	0.008649589
85	0x3ea5c3a4	0.32375824
86	0x3dbdbe2d	0.09264789
87	0xbd7ea104	-0.062165275
88	0x3e8bcb18	0.27303386
89	0xbe943180	-0.28944016
90	0x3e26e460	0.16298056
91	0x3e9250e1	0.2857733
92	0x3dc66077	0.09686368
93	0x3c43f32b	0.011959831
94	0x3deb6870	0.11494529
95	0xbde2b43e	-0.11069535
96	0xbe33452a	-0.17506853
97	0x3ce920bb	0.02845799
98	0xbdcee0af	-0.10101449
99	0x3dfa37ab	0.12217649
100	0xbd8b4951	-0.06801093
101	0xbe0617f3	-0.13095073
102	0xbf1c49af	-0.6104993
103	0x3f14b0cd	0.58082277
104	0xbf749be4	-0.9555037
105	0x3cc965bd	0.024584645
106	0xbd22c0a7	-0.03973451
107	0xbdcf8f42	-0.10134746
108	0x3de1f072	0.110321894
109	0x3e851319	0.25991133
110	0x3e31bb45	0.17356594
111	0xbed8cee4	-0.42345345
112	0x3e3c1e58	0.1837095
113	0x3f06d44e	0.526677
114	0xbec70516	-0.38871068
115	0x3df586bb	0.119885884
116	0x3e365853	0.1780713
117	0xbc6881ed	-0.014191133
118	0x3d613d51	0.054990117
119	0xbd845bce	-0.06462823
120	0x3da51e5b	0.080624305
121	0x3e1d609c	0.15368885
122	0x3f147d3d	0.580036
123	0x3e2452f8	0.16047275
124	0xbe9fe1bc	-0.3122691
125	0x3ee1677c	0.44024265
126	0xbee56f2e	-0.44811386
127	0x3eb8784f	0.36029288
128	0x3d76e55e	0.060277335
129	0x3d581096	0.052750193
130	0xbcf14da2	-0.029455964
131	0x3d90ab79	0.07063956
132	0x3ebd9370	0.37026548
133	0xbe297cba	-0.16551486
134	0x3eef0398	0.4668243
135	0x3dd288d0	0.10280001
136	0x3dc7dbf1	0.09758747
137	0x3e6ca1c0	0.23108578
138	0x3f5b86b2	0.85752404
139	0xbb6710f3	-0.0035257905
140	0x3c56688d	0.01308645
141	0x3cc92ce5	0.02455754
142	0xbd39db92	-0.045375414
143	0xbd35c22a	-0.044374622
144	0x3ec4839a	0.38381654
145	0xbe8c63e3	-0.27419958
146	0x3e5527c5	0.20815952
147	0xbce7128c	-0.028207086
148	0xbdbbc547	-0.09168487
149	0xbefad4a7	-0.48990366
150	0x3eaf190f	0.34198806
151	0xbf408bbb	-0.7521321
152	0x3f304b6d	0.6886509
153	0x3c1ceac4	0.009577457
154	0xbc583c3e	-0.013197957
155	0x3c693cee	0.014235718
156	0x3e003b15	0.12522538
157	0x3ea25039	0.3170183
158	0x3d4f71a4	0.050645486
159	0xbd1c6692	-0.038183756
160	0xbd064c3c	-0.032787547
161	0xbdb98e44	-0.09060338
162	0x3f1198b9	0.5687366
163	0x3f67501b	0.90356606
164	0x3e6d8b30	0.23197627
165	0xbca820f1	-0.02052352
166	0xbc677d10	-0.014128938
167	0xbc1d8b9a	-0.009615803
168	0x3dd9710c	0.10617265
169	0x3a9f075f	0.0012132934
170	0xbec728b8	-0.38898253
171	0xbcd353e2	-0.025796834
172	0xbe04e203	-0.12976842
173	0xbea5bb5a	-0.323695
174	0x3ef16631	0.47148278
175	0xbd2fb9ae	-0.042901687
176	0xbf16ab79	-0.58855397
177	0xbc337ed9	-0.010955536
178	0x3c93b27e	0.018029448
179	0x3c859204	0.016304977
180	0xbd74c515	-0.059758265
181	0xbc611ddb	-0.013740028
182	0xbe799566	-0.24373397
183	0xbdc28935	-0.094988264
184	0x3e908b09	0.28231075
185	0xbd00c99b	-0.031442266
186	0xbe0cfba4	-0.13767868
187	0xbd189e0b	-0.037260097
188	0x3da14532	0.07874526
189	0x3e026e25	0.1273733
190	0x3c650e40	0.013980448
191	0xbd9f17d4	-0.07768217
192	0x3e0a57b4	0.13510019
193	0xbe5dfcfa	-0.21678534
194	0xbe7c5b8b	-0.24644296
195	0x3d40aae1	0.047037963
196	0xbe53f6e2	-0.20699647
197	0xbe18bb6d	-0.14915247
198	0x3db43c87	0.08800607
199	0xbd93f75a	-0.07224913
200	0x3bc0d7f9	0.005885121
201	0x3cbffb5c	0.023435287
202	0xbce79cfd	-0.0282731
203	0x3d623734	0.055228427
204	0x3cc09040	0.023506284
205	0x3d1a54ff	0.037678715
206	0x3ea86a73	0.32893714
207	0x3dedd283	0.116124175
208	0xbe54a918	-0.20767629
209	0x3e847e96	0.25877827
210	0x3ec3c1a2	0.38233668
211	0x3f3b41bc	0.7314718
212	0x3ecc6737	0.39922497
213	0x3d846c3c	0.064659566
214	0xbc94c0cf	-0.018158345
215	0xbd4e69ac	-0.050393745
216	0x3d3575db	0.04430185
217	0xbe7e0399	-0.2480606
218	0x3f13c5ee	0.5772389
219	0x3dd54a80	0.104146
220	0xbe626b1b	-0.2211117
221	0xbec89bdf	-0.3918142
222	0xbd929ac5	-0.07158426
223	0xbd595ca2	-0.053066857
224	0x3f1dad62	0.61592686
225	0x3e958ac2	0.29207426
226	0xbc1112dd	-0.008854595
227	0x3ec7776a	0.38958293
228	0x3eb7361e	0.35783476
229	0x3e1b3d7b	0.15160172
230	0xbeaaa8d5	-0.33331934
231	0xbe2f4b03	-0.17118458
232	0xbe92fb27	-0.2870724
233	0x3efbd00a	0.4918216
234	0xbee7cc71	-0.45273164
235	0xbdfe5901	-0.1241932
236	0xbdd7d9be	-0.10539578
237	0x3cd40248	0.025879994
238	0x3d1f9d29	0.03896824
239	0x3d1d7b86	0.03844788
240	0xbd015646	-0.031576417
241	0x3ee0b92b	0.43891272
242	0xbd94c71c	-0.072645396
243	0xbe5ca222	-0.21546224
244	0xbd209cd8	-0.039212078
245	0x3da93b99	0.082633205
246	0xbee27358	-0.44228625
247	0x3e95476e	0.2915606
248	0xbfa0aab2	-1.2552092
249	0x3d9ac423	0.07556941
250	0x3d3683ad	0.04455917
251	0x3d4634d8	0.04839024
252	0x3e40d750	0.18832135
253	0x3ca91958	0.020641968
254	0x3e05e375	0.13075049
255	0x3d390be0	0.04517734

bias f4 [256]
0	0x3d1828e9	0.03714839
1	0x3f0d9aa8	0.5531411
2	0x3f1222b9	0.5708423
3	0xbea7ba83	-0.32759485
4	0x3ee8641a	0.4538887
5	0xbf4a4e72	-0.7902595
6	0x3f3f8dd5	0.74825794
7	0xbf06e476	-0.52692354
8	0xbbbf923c	-0.00584629
9	0x3e0d4cbd	0.13798805
10	0x3e957afd	0.29195395
11	0xbcd7bd39	-0.026335346
12	0x3e5870a4	0.21136719
13	0xbf2b8040	-0.6699257
14	0xbf1084a5	-0.564524
15	0xbf33f633	-0.70297545
16	0x3f40bb21	0.75285536
17	0xbec183d0	-0.37795877
18	0x3e572e48	0.21013749
19	0x3e7571e6	0.2396923
20	0x3ee4b2b9	0.44667605
21	0xbedd9553	-0.43277988
22	0xbe833812	-0.25628716
23	0xbde2ac12	-0.11067976
24	0x3e4fa664	0.20278317
25	0xbe99c026	-0.3002941
26	0xbf06f84f	-0.5272264
27	0x3e02dc21	0.12779285
28	0x3f3b5a58	0.7318473
29	0xbf00c839	-0.50305516
30	0xbea0f83c	-0.31439388
31	0xbe8bee3f	-0.27330205
32	0xbcd80abc	-0.026372306
33	0xbdf56f50	-0.11984122
34	0x3f39568d	0.7239769
35	0xbdecb2f6	-0.115575716
36	0xbf057e48	-0.52145815
37	0x3e2eb208	0.17060101
38	0xbf008aef	-0.50211996
39	0x3dc37e72	0.09545602
40	0xbf06e024	-0.5268576
41	0xbf0e7152	-0.55641663
42	0x3c422481	0.0118495235
43	0xbe8b1672	-0.27165562
44	0x3f456eb1	0.77122027
45	0x3f4b7260	0.794714
46	0xbe8187fe	-0.25299066
47	0x3ea33974	0.3187977
48	0x3f247a3b	0.6424901
49	0x3edaa054	0.42700446
50	0x3f49a897	0.7877287
51	0xbe9d615c	-0.30738342
52	0xbeac6b6d	-0.3367571
53	0x3f6df029	0.9294458
54	0xbf20681a	-0.62658846
55	0xbeb0cc83	-0.3453103
56	0x3f832b66	1.0247619
57	0xbde2459d	-0.11048434
58	0x3ea0a5a1	0.31376365
59	0x3e6c384d	0.23068352
60	0xbee7b16b	-0.45252547
61	0x3e60d1b1	0.21954991
62	0xbe026652	-0.12734345
63	0xbf08a3b3	-0.53374785
64	0xbcc86072	-0.024460051
65	0x3d9fa404	0.077949554
66	0xbeed4624	-0.46342576
67	0x3e6ec83f	0.23318575
68	0x3f163e37	0.5868868
69	0xbe53cc27	-0.20683347
70	0x3e9bae52	0.30406433
71	0x3d881823	0.06645229
72	0x3f3621a3	0.71145076
73	0x3f093afb	0.5360562
74	0x3f575b99	0.8412414
75	0x3e5d8edd	0.2163653
76	0xbe69b0e4	-0.22821385
77	0xbedf7944	-0.43647206
78	0xbecfadfa	-0.4056242
79	0x3d4a3c08	0.049373657
80	0x3daee08c	0.08538923
81	0xbf06f11c	-0.52711654
82	0xbef69bd5	-0.48165765
83	0xbe9bae0c	-0.30406225
84	0x3f126fe8	0.57202005
85	0x3e49cbbe	0.19706628
86	0xbf29c943	-0.66322726
87	0xbea6b183	-0.32557306
88	0x3ac2de7b	0.001486733
89	0xbe80bca2	-0.25143915
90	0x3e999506	0.29996508
91	0x3e8f3fd9	0.279784
92	0x3d13f470	0.036121786
93	0xbeb0f667	-0.3456299
94	0xbea092ef	-0.313621
95	0xbf45a8fe	-0.77210987
96	0xbf133f0a	-0.57518065
97	0x3e36db48	0.17857087
98	0x3ee209ec	0.44148195
99	0xbef40676	-0.4766118
100	0xbebf9e9f	-0.37425706
101	0xbe530307	-0.20606624
102	0x3f414ba2	0.7550603
103	0xbefc141d	-0.49234095
104	0x3f425ec6	0.7592586
105	0x3b8541fc	0.004066704
106	0x3e715d4b	0.23570745
107	0xbe83cc9c	-0.25742042
108	0xbe941e06	-0.28929156
109	0x3eb85f51	0.3601022
110	0xbeb7193f	-0.3576145
111	0x3f1fe4ba	0.62458384
112	0xbf1d471d	-0.61436635
113	0xbf140fb1	-0.57836443
114	0x3cf4537a	0.029824961
115	0xbf1d869c	-0.6153352
116	0x3d8f5149	0.06997926
117	0x3ee54880	0.44781876
118	0x3f46c569	0.77644974
119	0x3ecc6b2e	0.39925522
120	0xbf0f7030	-0.5603056
121	0xbda56d5c	-0.08077499
122	0xbea4f64a	-0.32219154
123	0x3df11e04	0.11773303
124	0xbe303b87	-0.17210208
125	0x3f28c703	0.6592867
126	0xbee7daf8	-0.45284247
127	0x3f2386cd	0.63877565
128	0xbec6d829	-0.38836792
129	0xbf1ddb1e	-0.6166247
130	0xbe8aef9e	-0.27135938
131	0xbe9a454b	-0.3013099
132	0xbf1cb930	-0.61220074
133	0xbdaa3238	-0.0831036
134	0xbefcae29	-0.49351624
135	0xbe49e64a	-0.19716755
136	0xbf01a7d0	-0.50646687
137	0xbe5e2c4c	-0.21696585
138	0xbdd1ef6d	-0.10250745
139	0x3ee22d5a	0.44175225
140	0x3ead80ae	0.33887237
141	0x3e91bb5a	0.2846325
142	0xbe919aa8	-0.28438306
143	0xbead104a	-0.3380149
144	0x3ea03e5b	0.31297573
145	0xbcb2d49d	-0.021829898
146	0xbde2b8b7	-0.11070388
147	0xbe75bb93	-0.23997335
148	0x3e4254d1	0.18977667
149	0x3daf447b	0.085579835
150	0xbf20133b	-0.62529343
151	0xbedda404	-0.43289196
152	0xbeb1823b	-0.3466967
153	0xbd15b054	-0.036545113
154	0x3e896371	0.2683368
155	0xbe931027	-0.2872326
156	0xbdf53d94	-0.11974636
157	0x3d62ca0b	0.055368464
158	0xbf19f6d5	-0.6014226
159	0x3e2cf0f4	0.16888791
160	0xbea7f40d	-0.32803383
161	0xbe4cb436	-0.1999062
162	0xbf53f091	-0.8278895
163	0xbf0ab7f4	-0.5418694
164	0xbf24e7d0	-0.6441622
165	0x3e7d1eff	0.24718855
166	0x3cd3dd53	0.025862372
167	0xbd957927	-0.072984986
168	0x3e6d08a2	0.23147824
169	0xbf12bb40	-0.5731697
170	0xbf06f3f5	-0.52716
171	0xbeea42be	-0.45754045
172	0xbf05120b	-0.51980656
173	0x3eed46bb	0.46343026
174	0x3cd719d4	0.026257433
175	0x3e65f5f4	0.22457105
176	0x3dfa36ff	0.12217521
177	0xbedf34f8	-0.435951
178	0xbd3bda21	-0.04586232
179	0xbe65cf73	-0.22442417
180	0xbe2031b9	-0.15643968
181	0x3e7f10bb	0.24908726
182	0xbf024bb6	-0.50896776
183	0x3e9b18b4	0.30292284
184	0xbf1e2863	-0.61780375
185	0xbe9237b9	-0.28558138
186	0x3eb72204	0.3576814
187	0x3ef05f1f	0.46947572
188	0x3d820a88	0.06349665
189	0xbe33e3cd	-0.17567368
190	0xbf296bdc	-0.66180205
191	0x3f30a297	0.6899809
192	0xbee353b8	-0.4439981
193	0x3d290212	0.04126174
194	0x3eecca9f	0.46248338
195	0xbf00c155	-0.50295
196	0x3eb7e33a	0.35915548
197	0x3e717f43	0.23583703
198	0x3dd385c7	0.103282504
199	0xbd88881b	-0.06666585
200	0x3d86afd4	0.06576505
201	0x3f91f44b	1.1402677
202	0xbedfffe4	-0.43749917
203	0x3f35d144	0.7102244
204	0x3b9ed6bd	0.004847376
205	0x3f4039bd	0.750881
206	0x3f0a93a1	0.54131514
207	0x3f3f38c4	0.7469599
208	0x3f13567c	0.5755384
209	0xbf092185	-0.5356677
210	0x3efdcea7	0.49571726
211	0xbf222b19	-0.6334701
212	0xbf11da1b	-0.5697343
213	0x3d5226e3	0.051306617
214	0xbef0906c	-0.46985185
215	0xbeb7b552	-0.35880524
216	0x3c88b824	0.016689368
217	0x3f40ddaf	0.7533826
218	0xbe23d4a7	-0.15999089
219	0x3eedcc5c	0.46444976
220	0x3f3f8eb5	0.7482713
221	0xbef88712	-0.4854055
222	0x3d243aa6	0.040094994
223	0xbf1d9200	-0.61550903
224	0xbd5d3eb8	-0.05401489
225	0x3d091b7f	0.033473488
226	0x3eb57157	0.35438034
227	0x3f5e6e04	0.8688662
228	0x3e9edd4c	0.3102821
229	0x3e607ac1	0.21921827
230	0x3da28955	0.0793635
231	0xbe23cc2e	-0.15995857
232	0xbf068638	-0.5254855
233	0xbeb44985	-0.3521234
234	0xbe9899fc	-0.2980498
235	0x3ef73b89	0.4828761
236	0xbf419575	-0.7561868
237	0x3eeba61b	0.46025166
238	0xbdb3a494	-0.08771625
239	0x3f18f3a8	0.5974679
240	0x3bb4cfa1	0.0055179154
241	0xbef95c3a	-0.48703176
242	0xbf2d227e	-0.67630756
243	0x3eb6306a	0.35583812
244	0xbe484a31	-0.19559552
245	0xbec94cf7	-0.39316532
246	0xbe415540	-0.18880177
247	0xbe955837	-0.29168865
248	0x3e5d9506	0.21638879
249	0xbe647ef3	-0.22314052
250	0x3eb4f291	0.35341313
251	0xbeb76b68	-0.35824132
252	0x3eab48dc	0.33454025
253	0xbeb4d075	-0.3531529
254	0xbf31ee12	-0.6950389
255	0x3ebf8a32	0.37410122

weight f4 [256, 256]
0	0xbeb76d0c	-0.35825384
1	0xbd5009d6	-0.05079063
2	0xbd729dd0	-0.059232533
3	0xbee85c89	-0.453831
4	0x3ec2a740	0.38018227
5	0x3cda4a9b	0.026646903
6	0xbe1d07ed	-0.15335055
7	0xbeee2618	-0.46513438
8	0xbeca5715	-0.39519563
9	0xbe8c6025	-0.27417102
10	0xbde3ac1e	-0.11116813
11	0xbe5a7bf6	-0.2133635
12	0xbceef875	-0.029171208
13	0x3be05fa6	0.0068473397
14	0xbf03e215	-0.5151685
15	0xbd4b3b9d	-0.0496174
16	0xbdf502ea	-0.119634464
17	0xbd8905a8	-0.06690532
18	0x3d5a2140	0.053254366
19	0x3bcabc37	0.0061869877
20	0xbd785a81	-0.060633186
21	0xbaeba61c	-0.0017978582
22	0xbd60b540	-0.054860353
23	0xbf1e4bfa	-0.6183468
24	0x3e86f1ff	0.26356503
25	0xbf2dcfec	-0.6789539
26	0xbd61cd1f	-0.05512726
27	0x3e8cf342	0.2752934
28	0xbe5759ea	-0.21030393
29	0xbf5c920a	-0.8616034
30	0xbf236ea9	-0.6384073
31	0x3d3a33fe	0.04545974
32	0xbebca83f	-0.36847112
33	0x3e14538a	0.14484993
34	0x3ed121f0	0.40846205
35	0xbdc765a7	-0.097361855
36	0xbda899d6	-0.08232467
37	0x3e202747	0.15639983
38	0xbef2ef1e	-0.47448057
39	0x3e8b7d68	0.27244115
40	0xbd6c7642	-0.057729967
41	0xbd163e07	-0.036680248
42	0xbdf11bd3	-0.11772885
43	0xbe1498a8	-0.14511359
44	0xbd681f1b	-0.05667029
45	0x3d671b3d	0.05642246
46	0xbf0c7984	-0.5487292
47	0xbe992f80	-0.29919052
48	0xbef0f6e5	-0.47063366
49	0xbdb8ff80	-0.09033108
50	0xbca116e7	-0.019664241
51	0x3e3a7469	0.1820847
52	0xbe254aee	-0.16141865
53	0x3e880307	0.2656481
54	0x3d07398e	0.033013873
55	0xbe75e016	-0.24011263
56	0x3efb1ec6	0.49046916
57	0xbc866c9c	-0.01640921
58	0xbd992c0b	-0.07479104
59	0xbe065965	-0.13120039
60	0xbd68a909	-0.05680183
61	0xbcea57a7	-0.028606249
62	0xbd1c383d	-0.03813957
63	0xbf423f7e	-0.7587813
64	0xbec79d7d	-0.38987342
65	0xbe053aa8	-0.13010657
66	0xbdae155e	-0.08500169
67	0xbe48df58	-0.19616449
68	0x3ee0745e	0.4383878
69	0xbe16c6c9	-0.14724268
70	0x3d4f1d78	0.050565213
71	0xbdfae311	-0.12250341
72	0xbc4935b8	-0.012280874
73	0xbdaf937b	-0.085730515
74	0x3d959fc6	0.07305865
75	0x3d56de81	0.05245829
76	0x3d5b11c5	0.053483743
77	0xbebeb378	-0.372463
78	0xbe5a9cb6	-0.21348843
79	0xbea64c63	-0.32480153
80	0x3e8b462a	0.27201968
81	0xbdcdc4e6	-0.10047321
82	0xbe478aff	-0.19486617
83	0xbd117962	-0.03551615
84	0x3cdc8fb7	0.026923997
85	0xbc1acb8e	-0.009447945
86	0xbf087415	-0.5330213
87	0xbe6e78d3	-0.23288278
88	0xbe6561b8	-0.22400558
89	0xbec78965	-0.3897201
90	0xbe50bb47	-0.2038394
91	0xbc87505c	-0.01651781
92	0xbe6afc76	-0.22947869
93	0xbe57ec11	-0.21086146
94	0xbec8946a	-0.3917573
95	0xbe385125	-0.17999704
96	0xbe682f52	-0.22674301
97	0xbe1628f7	-0.14664064
98	0xbd02d630	-0.031942546
99	0xbe239179	-0.15973462
100	0xbe8c4244	-0.27394307
101	0xbec95161	-0.393199
102	0xbc4ea7f3	-0.012613284
103	0xbf01643a	-0.5054356
104	0xbd1e2bcd	-0.03861599
105	0xbb05679f	-0.0020355952
106	0xbcf32b53	-0.029683745
107	0xbe92d756	-0.28679913
108	0xbed76cdf	-0.4207525
109	0xbdfebd58	-0.12438458
110	0x3dab439d	0.083625056
111	0xbce3576e	-0.02775165
112	0xbe6393ef	-0.22224401
113	0xbc793a1c	-0.015211608
114	0xbddb18cc	-0.10698089
115	0xbf21adfb	-0.631561
116	0x3d704497	0.058659162
117	0xbe285b5b	-0.164411
118	0x3d9073f7	0.070533685
119	0xbd7946e1	-0.06085861
120	0xbeb208c2	-0.34772307
121	0xbec9d209	-0.39418057
122	0xbda8060f	-0.082042806
123	0xbdc4a1d3	-0.09601178
124	0xbe4ead97	-0.20183407
125	0x3d50ad16	0.050946318
126	0x3a2a8a56	0.0006505599
127	0xbd63cacf	-0.055613335
128	0xbe8d9efd	-0.2766036
129	0xbea95605	-0.3307344
130	0xbd515771	-0.05110878
131	0xbcbcd77e	-0.023051973
132	0xbf4005d8	-0.75008917
133	0xbdee4d24	-0.11635807
134	0xbe99f0a6	-0.30066413
135	0xbc907301	-0.017632963
136	0xbe2abc53	-0.16673402
137	0xbe6c6eb2	-0.23089102
138	0xbdb6ca4c	-0.08925304
139	0xbe81aa51	-0.25325254
140	0xbd1303a9	-0.035892162
141	0x3c8ccee1	0.017188491
142	0xbaa6d538	-0.0012728339
143	0xbbb58e9a	-0.005540681
144	0xbed1c6fe	-0.40972131
145	0x3dc5bf2f	0.09655606
146	0xbd9faaa6	-0.077962205
147	0xbee474b2	-0.4462028
148	0xbed5f03c	-0.41784847
149	0xbe45b099	-0.19305648
150	0xbf094310	-0.53617954
151	0xbe460b9a	-0.19340363
152	0xbf398d50	-0.7248125
153	0xbe0f6440	-0.14003086
154	0xbdfbcd32	-0.12294997
155	0xbda53726	-0.08067159
156	0xbedaef15	-0.4276053
157	0xbe449302	-0.19196704
158	0xbe6383da	-0.22218266
159	0xbe8ad4be	-0.27115434
160	0xbe7a612e	-0.24451134
161	0xbdf0d711	-0.11759771
162	0xbdbaa449	-0.09113366
163	0xbe05d5bf	-0.13069819
164	0x3c3e554c	0.011617016
165	0x3e221f94	0.15832359
166	0xbe083638	-0.13301933
167	0xbf08dc37	-0.5346102
168	0x3e9c14c5	0.30484596
169	0xbe0a8080	-0.13525581
170	0xbe6ac1ad	-0.22925444
171	0xbe9316c8	-0.28728318
172	0xbe43f24b	-0.19135396
173	0xbd59c090	-0.053162158
174	0xbec6fef0	-0.38866377
175	0xbe520886	-0.20511064
176	0xbe515f81	-0.20446588
177	0xbe07faa0	-0.132792
178	0xbf1a0072	-0.6015693
179	0xbbf45894	-0.0074568484
180	0xbe652e04	-0.22380835
181	0x3d6485a7	0.055791523
182	0xbe97ac00	-0.29623413
183	0xbe0c8487	-0.1372243
184	0x3da62237	0.08111995
185	0xbe02379b	-0.12716524
186	0xbefa6a4a	-0.48909217
187	0xbe7420f5	-0.23840697
188	0xbd923e84	-0.0714083
189	0xbf13ee5a	-0.5778557
190	0xbe95c141	-0.29249004
191	0xbc5e4be9	-0.013567903
192	0xbee1f94c	-0.4413551
193	0xbe389fb0	-0.18029666
194	0x3d187413	0.037220072
195	0xbe3da71d	-0.1852078
196	0xbe5c49c5	-0.21512516
197	0x3dd28f27	0.102812104
198	0xbd16a70b	-0.0367804
199	0xbe0e344d	-0.13887139
200	0xbd527995	-0.05138548
201	0x3eb54838	0.3540666
202	0xbeb1082e	-0.34576553
203	0x3e73a453	0.23793153
204	0xbeab85d6	-0.33500546
205	0xbd27dba4	-0.04098095
206	0xbd0bbda4	-0.034116402
207	0xbe147759	-0.14498653
208	0x3da8b618	0.082378566
209	0xbe167538	-0.14693153
210	0x3b682dee	0.0035427767
211	0xbf1611c3	-0.5862085
212	0x3cb1b076	0.021690588
213	0xbd238986	-0.039926074
214	0xbe287f0f	-0.16454719
215	0xbf2ac9f8	-0.6671443
216	0xbe1a602d	-0.1507575
217	0xbe30e9d4	-0.17276698
218	0xbe3cfc9a	-0.18455735
219	0xbe189cfc	-0.14903635
220	0xbdf03c3c	-0.11730239
221	0xbef233b1	-0.47305062
222	0xbd81a755	-0.06330744
223	0xbe2b05a9	-0.16701378
224	0x3db9ec4a	0.09078272
225	0xbed24f2c	-0.41076028
226	0xbd263c22	-0.04058469
227	0xbdcaf13c	-0.09909293
228	0xbd222cb6	-0.03959342
229	0xbf071666	-0.5276855
230	0xbe72a80d	-0.23696919
231	0xbf109bf7	-0.56487983
232	0xbe815334	-0.2525879
233	0xbe9a9feb	-0.30200133
234	0xbdaf5025	-0.08560208
235	0x3d787e1f	0.060667153
236	0xbed6c487	-0.41946813
237	0xbca64685	-0.020297298
238	0xbe104454	-0.14088565
239	0xbdc6a9ec	-0.09700379
240	0x3de6bf8a	0.11267002
241	0xbe811816	-0.2521369
242	0xbe9868b5	-0.29767385
243	0xbd027490	-0.031849444
244	0xbe424b42	-0.18974021
245	0xbf298e9d	-0.66233236
246	0xbf131015	-0.57446414
247	0xbe806866	-0.2507965
248	0xbe993457	-0.29922745
249	0xbe82df12	-0.25560814
250	0xbcfbc8e7	-0.030735446
251	0xbe5e2290	-0.21692872
252	0xbc638346	-0.0138862785
253	0xbeac6566	-0.3367111
254	0xbdf486c2	-0.119397655
255	0xbe0771cd	-0.13227005

bias f4 [256]
0	0xbe234f9c	-0.15948337
1	0x3e91890a	0.28424865
2	0x3e89fd3f	0.26951024
3	0x3edd6ae2	0.43245608
4	0xbd9c37c2	-0.076278225
5	0xbb0b25fe	-0.0021232362
6	0xbd42b9f0	-0.047540605
7	0x3c8c00d9	0.017090248
8	0x3e7bb82a	0.24581972
9	0xbdd40b88	-0.10353762
10	0xbebfd091	-0.3746381
11	0xbea1e10c	-0.3161701
12	0xbd63d191	-0.05561978
13	0x3d66e448	0.05637005
14	0xbc0fd62b	-0.008779089
15	0x3e5abc3f	0.21360873
16	0xbe48f410	-0.19624352
17	0xbcf611d5	-0.0300378
18	0x3e1529b7	0.14566694
19	0x3d2c31ae	0.042039566
20	0x3de6e4ee	0.112741336
21	0x3d9121ed	0.07086549
22	0xbe066aa7	-0.13126622
23	0xbea441cc	-0.3208145
24	0xbe41520d	-0.18878956
25	0x3eb5174e	0.35369343
26	0x3e2fdddc	0.17174476
27	0x3de914ca	0.11380918
28	0x3e8d5ecd	0.2761139
29	0xbe547428	-0.20747435
30	0xbca64f66	-0.020301532
31	0xbd6dc93a	-0.058053233
32	0xbe3e87d6	-0.18606505
33	0x3e722582	0.2364712
34	0xbe54d199	-0.2078308
35	0xbbc3723f	-0.005964547
36	0xbd90a62e	-0.07062946
37	0xbdce323a	-0.10068174
38	0xbdc1e370	-0.094672084
39	0x3e287d9f	0.1645417
40	0xbc5ebdf4	-0.013595093
41	0xbd240507	-0.040043857
42	0xbce21305	-0.02759696
43	0xbed18d3c	-0.40928066
44	0x3db8bdc3	0.09020569
45	0xbc746f6f	-0.014919146
46	0xbcb2cc62	-0.021825973
47	0x3d4e620d	0.050386477
48	0xbeabea7f	-0.33577344
49	0xbe96ea1f	-0.29475495
50	0xbe8be6bf	-0.27324483
51	0xbd0e3b93	-0.034724783
52	0xbd1e6ac1	-0.038676027
53	0x3d213942	0.039361246
54	0xbc7f4322	-0.015579971
55	0xbe82f7d1	-0.25579694
56	0xbdaaaaa3	-0.083333276
57	0xbe53c9b4	-0.20682412
58	0xbdd5b974	-0.10435763
59	0x3e4b7b2d	0.19871207
60	0x3e5da8db	0.21646444
61	0xbd83e0dc	-0.06439373
62	0xbe9b7858	-0.30365252
63	0xbe85cc22	-0.26132303
64	0xbceb184a	-0.028698105
65	0x3ea52ad8	0.3225925
66	0xbd59d30b	-0.053179782
67	0xbd8e9f61	-0.06963993
68	0x3c8ae380	0.016954184
69	0xbd8f7a0b	-0.070057
70	0x3d30cea7	0.04316583
71	0xbe8504c6	-0.25980204
72	0x3e1e4806	0.15457162
73	0x3a5b8ba6	0.0008374996
74	0x3ea13beb	0.31491026
75	0xbecdd7f1	-0.40203813
76	0xbe4fd329	-0.20295395
77	0xbe445b8c	-0.19175547
78	0xbcb674bb	-0.022272458
79	0xbbb6991b	-0.005572451
80	0x3e3529bc	0.17691702
81	0xbe432725	-0.19057901
82	0xbe6a3784	-0.2287274
83	0x3e1cee9f	0.15325402
84	0xbe4a2794	-0.1974166
85	0xbe80f754	-0.25188696
86	0x3e7452a1	0.23859645
87	0x3cae18a0	0.021251976
88	0x3e75d13f	0.24005602
89	0x3e990ad2	0.29891068
90	0xbc7cfb11	-0.015440718
91	0xbd325ea4	-0.043547288
92	0x3d516c7b	0.051128846
93	0xbe8baa62	-0.2727843
94	0xbe7d359f	-0.24727486
95	0x3e1e2be7	0.15446435
96	0x3dc24cb8	0.09487289
97	0xbe18a1f3	-0.14905529
98	0x3e122f35	0.1427582
99	0x3ec0eda4	0.37681305
100	0xbe90b8c5	-0.28265968
101	0x3e9a95a2	0.30192286
102	0x3e2b3b27	0.16721784
103	0x3d02d2cc	0.031939313
104	0xbdea3e63	-0.114376806
105	0x3ce29672	0.027659629
106	0x3de1a003	0.11016848
107	0xbec9235d	-0.39284793
108	0x3e8d29cf	0.2757096
109	0xbcefed4b	-0.029287955
110	0x3d2b12ea	0.041766085
111	0xbd0d6bde	-0.0345267
112	0xbd1abd8f	-0.037778433
113	0x3e43d10f	0.19122718
114	0x3dc9516e	0.098299846
115	0xbd919c63	-0.071099065
116	0x3e27300b	0.1632692
117	0xbd146e68	-0.036238104
118	0xbe8725d1	-0.2639604
119	0x3a540afc	0.0008088795
120	0xbcdbb567	-0.026819898
121	0x3c9bcae1	0.019017639
122	0xbe7810ce	-0.2422516
123	0xbeb9d4ab	-0.36295065
124	0xbd8abe88	-0.06774622
125	0xbe86d1a5	-0.2633182
126	0x3e8abf70	0.2709918
127	0x3e54f27d	0.20795627
128	0xbea2b091	-0.31775334
129	0x3cbd6d6f	0.023123471
130	0xbe8cb8d2	-0.27484757
131	0x3dcd6f80	0.100310326
132	0xbeb0dab6	-0.34541863
133	0xbd506732	-0.050879665
134	0xbea45754	-0.32097876
135	0x3e6db5b2	0.23213843
136	0x3c89ace5	0.016806075
137	0x3d1b1bd3	0.037868332
138	0xbdc6cf05	-0.097074546
139	0x3e7504e0	0.23927641
140	0x3e0e3df8	0.13890827
141	0xbd41d5a0	-0.04732287
142	0xbe27d8b9	-0.16391267
143	0x3d4266fe	0.047461502
144	0xbeba34b1	-0.36368325
145	0xbdc10cff	-0.09426307
146	0xbc2e08ed	-0.010622245
147	0x3be57f1a	0.007003677
148	0xbd8f7149	-0.07004029
149	0xbe630802	-0.22171023
150	0x3e7006c6	0.23440084
151	0xbc9adbb8	-0.018903598
152	0x3e255966	0.16147384
153	0x3c6734da	0.014111722
154	0x3e4e4753	0.20144396
155	0x3e8c3861	0.27386764
156	0x3d6e117d	0.058122147
157	0xbed8872e	-0.42290634
158	0xbd65566c	-0.05599062
159	0xbe9e3e5b	-0.30906948
160	0x3d851b1c	0.06499311
161	0xbbdfebe6	-0.006833541
162	0xbd6d0e52	-0.057874985
163	0x3decc385	0.1156073
164	0x3e364791	0.17800738
165	0x3ec6f211	0.38856557
166	0x3cd56f5e	0.02605408
167	0x3e130c8a	0.14360252
168	0xbec454fd	-0.3834609
169	0x3dc80ba9	0.09767849
170	0xbd2abae6	-0.041682146
171	0x3e833647	0.25627348
172	0xbc344848	-0.011003561
173	0xbd77c19d	-0.06048738
174	0xba59353c	-0.00082858256
175	0xbea4cea2	-0.32188898
176	0xbcf2027e	-0.029542204
177	0xbd7f8c4a	-0.06238965
178	0x3e9ba7b0	0.30401373
179	0xbde1a993	-0.11018672
180	0x3cdbd921	0.026836934
181	0xbe8076dc	-0.25090683
182	0x3d63f026	0.055648945
183	0x3ce60862	0.02808017
184	0x3e54d301	0.20783617
185	0xbcf8dea2	-0.030379597
186	0xbdb5c2d6	-0.08875053
187	0x3e93f9f0	0.28901625
188	0xbe84a9a2	-0.2591067
189	0xbd9a8763	-0.07545354
190	0xbcf7425d	-0.030183012
191	0x3e7b9de5	0.2457195
192	0xbe6483c8	-0.22315896
193	0x3e45eb6c	0.19328088
194	0x3dd6c27a	0.10486312
195	0xbe95ae15	-0.29234377
196	0x3c5aca52	0.013353901
197	0xbe1a563d	-0.1507196
198	0x3ea02e50	0.31285334
199	0xbe81abb2	-0.25326306
200	0xbd83c51e	-0.064340815
201	0xbdaa43d5	-0.08313719
202	0xbeaf28f5	-0.34210935
203	0xbe87a6d8	-0.2649448
204	0xbe99b9a4	-0.30024445
205	0xbda9b3a6	-0.08286218
206	0x3e088f62	0.13335946
207	0xbd541f34	-0.05178757
208	0xbeaddc4f	-0.33957145
209	0xbdbc40c0	-0.091920376
210	0xbdf840a0	-0.12121701
211	0x3dbf8953	0.093523644
212	0xbe839e4f	-0.25706717
213	0x3e863e24	0.26219285
214	0x3ede48f8	0.43415046
215	0xbea91f8c	-0.3303188
216	0xbdada7c0	-0.084792614
217	0xbea162d9	-0.31520727
218	0xbeaaedd9	-0.33384588
219	0xbb57dcac	-0.0032937927
220	0xbdc2cc7b	-0.09511658
221	0xbe97654e	-0.29569477
222	0x3eaf1e00	0.34202576
223	0x3c958a9e	0.018254574
224	0x3de0358b	0.109477125
225	0xbe1c0208	-0.1523515
226	0xbeaf3d63	-0.34226522
227	0x3dede690	0.11616242
228	0xbe639ef1	-0.222286
229	0xbd813603	-0.0630913
230	0xbb1ddeb5	-0.0024089043
231	0xbd513e83	-0.051085006
232	0xbd4f93a0	-0.050677896
233	0xbb23e7ff	-0.0025010107
234	0xbe9431b5	-0.28944173
235	0x3eb7e670	0.35917997
236	0xbda2baf6	-0.07945816
237	0x3c004ac4	0.0078303255
238	0x3e945fcb	0.28979334
239	0xbdc96cf9	-0.09835238
240	0x3ea442a1	0.32082084
241	0x3e0005c2	0.12502196
242	0xbd6c1746	-0.057639383
243	0x3e3dbc05	0.18528755
244	0x3ccb4c42	0.024816636
245	0xbcf81d9d	-0.030287558
246	0xbe60b964	-0.21945721
247	0xbeaf5129	-0.34241608
248	0xbd95ca42	-0.07313968
249	0xbcb76227	-0.02238567
250	0x3d16bc0c	0.03680043
251	0x3ecbe179	0.3982046
252	0xbd081f60	-0.033233047
253	0xbec5af0d	-0.38610116
254	0xbe8d3eb8	-0.27586913
255	0xbe66b802	-0.22531131

weight f4 [1, 256]
0	0xbeed39df	-0.46333215
1	0x3ddeb8a2	0.1087506
2	0x3e9f01a2	0.31055933
3	0x3e530f62	0.20611337
4	0xbcab0619	-0.020876931
5	0xbd5b7ad9	-0.053583954
6	0xb9e45918	-0.0004355393
7	0xbd532ffd	-0.051559437
8	0xbf0d6053	-0.55225104
9	0xbed11bf4	-0.4084164
10	0xbe3804cf	-0.17970584
11	0xbe871fee	-0.26391548
12	0x3cc3347c	0.023828737
13	0x3e7de094	0.24792701
14	0xbd05b1f4	-0.032640412
15	0xbd22f943	-0.039788496
16	0xbe0af996	-0.13571772
17	0x3cda1af6	0.026624184
18	0x3d46b219	0.04850969
19	0xbc430bf1	-0.0119047025
20	0x3ae63c42	0.0017565566
21	0xbf26d60d	-0.65170366
22	0xbe23b3ec	-0.15986603
23	0xbda4fcf5	-0.0805606
24	0xbdae14be	-0.0850005
25	0x3e1dc8a2	0.15408567
26	0x3e9c399b	0.305127
27	0x3e04f355	0.12983449
28	0x3ddc6e39	0.10763211
29	0xbe0fc988	-0.14041722
30	0xbb8b89bd	-0.004258363
31	0xbc80bc73	-0.01571486
32	0xbddd3745	-0.108015575
33	0x3e4ae810	0.19815087
34	0xbe0f776b	-0.14010398
35	0xbb971c04	-0.004611494
36	0x382f8f2c	4.185659e-05
37	0xbf135a6a	-0.57559836
38	0x3c980d3b	0.018560996
39	0xbef7f4b2	-0.48428875
40	0xbb8dfd4c	-0.004333174
41	0xbcdf3e21	-0.027251305
42	0x3cad4e0d	0.021155382
43	0xbe4b0b67	-0.19828568
44	0xbf65b0b2	-0.8972274
45	0x3c92fe71	0.017943593
46	0x395e9676	0.00021227621
47	0xbe58bb34	-0.21165162
48	0xbdce7153	-0.10080209
49	0xbe017828	-0.12643492
50	0xbe389e13	-0.1802905
51	0x3d398d0e	0.045300536
52	0xbd0e093a	-0.034676768
53	0x3bba2f4b	0.0056819073
54	0x3e102346	0.14075956
55	0xbd107bbe	-0.03527426
56	0x3837b821	4.3802083e-05
57	0xbde6c27a	-0.11267562
58	0xbe0e2201	-0.13880159
59	0x3dc7843f	0.09742021
60	0xbed18ebe	-0.40929216
61	0xbc498a69	-0.012301066
62	0xbdd15791	-0.1022178
63	0xbdbee881	-0.0932169
64	0xbd568cf5	-0.05238052
65	0x3ee79b95	0.45235887
66	0x3c41f895	0.011839052
67	0xbc916bc6	-0.017751586
68	0x3d12948f	0.035786208
69	0xbd26669b	-0.040625196
70	0xbc2e3340	-0.010632336
71	0xbe9e5edd	-0.3093175
72	0xbf03282b	-0.51233166
73	0x3ee26356	0.44216412
74	0x3d4317c8	0.0476301
75	0xbe224743	-0.15847497
76	0xbec79181	-0.38978198
77	0xbe2ffa9b	-0.17185442
78	0x3cb61644	0.022227414
79	0xbd7955f6	-0.060872994
80	0x3ea1e141	0.31617168
81	0xbe34fd6d	-0.176748
82	0xbdc7c27f	-0.09753894
83	0x3e0535d6	0.13008818
84	0xbe34f4ed	-0.17671557
85	0xbdffed49	-0.124964304
86	0x3d407046	0.046982072
87	0xbbf4278c	-0.0074510034
88	0x3bc3d7aa	0.005976637
89	0x3ed3b6ba	0.41350347
90	0xbe8c6f04	-0.27428448
91	0x3c3e94a7	0.011632121
92	0x3ea505b1	0.32230905
93	0xbe52f5f5	-0.20601638
94	0xbe3e7dff	-0.18602751
95	0xbe9bbaf0	-0.3041606
96	0x3eb6170a	0.35564452
97	0xbe3b5b15	-0.18296464
98	0xbea06b44	-0.31331837
99	0x3cd034ee	0.025415864
100	0xbea8347a	-0.32852536
101	0x3efd3762	0.49456316
102	0x3e0d0725	0.13772257
103	0xbc4d077f	-0.012513994
104	0xbf367022	-0.7126485
105	0x3e3c8df8	0.18413532
106	0xbeb08901	-0.34479526
107	0xbddefdf9	-0.10888285
108	0x3e330303	0.17481618
109	0x3ca6b5b2	0.020350311
110	0x3e1ef441	0.15522863
111	0x3d89c0a5	0.06726197
112	0x3ccbb664	0.024867244
113	0x3e1325f4	0.14369947
114	0x3eb48210	0.3525548
115	0xbcba7f99	-0.022765921
116	0x3e8a3181	0.26990893
117	0xbd0c4d21	-0.034253243
118	0xbea2457d	-0.3169364
119	0xbcdea397	-0.027177615
120	0x3cb01131	0.021492573
121	0x3a9ce28d	0.0011969373
122	0xbe10eb95	-0.14152367
123	0xbde3ce44	-0.111233264
124	0x3bd10344	0.006378563
125	0xbd468fd0	-0.048476994
126	0x3e8d229e	0.27565473
127	0x3e69c5ea	0.22829404
128	0xbe8fc2c8	-0.28078294
129	0xbc1cf83e	-0.00958067
130	0xbdcff570	-0.10154235
131	0x3ed15744	0.4088689
132	0xbe563b76	-0.2092112
133	0xbcb1344a	-0.021631379
134	0xbddcad02	-0.10775186
135	0x3dedcd71	0.116114505
136	0x3c97fcea	0.018553216
137	0x3a330158	0.00068285083
138	0x3cc159a1	0.023602309
139	0x3ec5c6b4	0.3862816
140	0xbecfa008	-0.40551782
141	0xbd4efa95	-0.050531942
142	0xbebe66f4	-0.37187922
143	0xbe9bf398	-0.30459285
144	0xbe4ba33c	-0.19886488
145	0xbd00087b	-0.031258088
146	0x3c06b317	0.008221409
147	0x3b8f5b25	0.004374879
148	0x3d4ca421	0.049961213
149	0xbe248ebb	-0.16070072
150	0xbebee3e8	-0.37283254
151	0xbd44ae52	-0.048017807
152	0x3cde7cc8	0.02715911
153	0xbd09f4f0	-0.033680856
154	0x3e352d67	0.17693101
155	0x3dcfdcb1	0.101495154
156	0xbe95d683	-0.29265222
157	0xbddbc3f8	-0.107307374
158	0x3c512bf7	0.01276683
159	0xbdc089a1	-0.09401251
160	0x3e9f23b0	0.31081915
161	0xbceefb85	-0.029172668
162	0xbccbf5de	-0.024897512
163	0xbebdeee8	-0.37096334
164	0x3dfc2779	0.12312216
165	0x3e744eb2	0.23858145
166	0xbc90fc9e	-0.017698582
167	0xbee7c241	-0.4526539
168	0xbddd0e8d	-0.10793791
169	0x3e4c7865	0.19967802
170	0x3bf37d4e	0.007430709
171	0x3e13f940	0.1445055
172	0x3cc482c9	0.023988144
173	0xbbc14963	-0.005898641
174	0x3e142135	0.14465792
175	0xbe7dbfcc	-0.24780196
176	0x39b7d649	0.00035064135
177	0x3b80a0fa	0.00392544
178	0x3e15fa32	0.14646223
179	0x3ec0263f	0.3752918
180	0xbbbe75be	-0.005812376
181	0xbe556076	-0.20837578
182	0x3c8f7dcd	0.017516041
183	0x3c8e6cc6	0.017385852
184	0xbd677f7d	-0.056518067
185	0xbc00f1e3	-0.00787017
186	0xbe40e02d	-0.18835516
187	0x3d51280c	0.051063582
188	0xbe2a41f9	-0.16626729
189	0xbd008923	-0.031380784
190	0x3c8549f1	0.01627061
191	0x3e0dd77b	0.1385173
192	0xbdb06b24	-0.086141855
193	0xbe6fdfc6	-0.23425207
194	0x3d7f2d12	0.06229884
195	0xbe07c9eb	-0.1326062
196	0x3c49543a	0.012288148
197	0xbe3a6ca6	-0.18205509
198	0x3d890e6e	0.06692205
199	0xbd0cbb72	-0.03435845
200	0x3c83ba04	0.01607991
201	0xbdad3d25	-0.08458928
202	0xbe1309e3	-0.1435924
203	0xbe51b69b	-0.20479815
204	0xbd6440c4	-0.055725828
205	0x3adf311c	0.0017028186
206	0x3e00f12a	0.12591997
207	0xba628b4f	-0.00086419744
208	0xbd2e71ae	-0.042588882
209	0xbcef8da3	-0.029242342
210	0xbea35e6b	-0.31907973
211	0x3ed5f8ef	0.41791484
212	0xbd963af7	-0.073354654
213	0x3e128feb	0.14312713
214	0x3de82917	0.11335962
215	0xbeb7d00b	-0.35900912
216	0xbc3e8b2c	-0.011629861
217	0xbdc11b14	-0.09428993
218	0xbdd93994	-0.10606685
219	0xbc8840f9	-0.016632544
220	0x3c5afd4b	0.013366054
221	0xbe14f837	-0.14547811
222	0x3df759b5	0.12077657
223	0xbd54e601	-0.05197716
224	0xbf2d19dc	-0.67617583
225	0xbda3fa97	-0.080067806
226	0xbdf2bc5e	-0.118523344
227	0x3e271be5	0.16319235
228	0xbde05c87	-0.10955148
229	0xbd0e5d89	-0.03475717
230	0xbd73604e	-0.059418015
231	0xbc3c84ad	-0.011506242
232	0xbc6e7387	-0.014553911
233	0xbc2d5ae0	-0.010580748
234	0xbdfc5e68	-0.12322694
235	0x3df48664	0.119396955
236	0x3d0c82ac	0.034304306
237	0x3bebbf8c	0.007194465
238	0x3dee8438	0.116463125
239	0x3c6e1a63	0.014532658
240	0x3e8deac4	0.27718174
241	0x3c491421	0.0122728655
242	0xbbe77676	-0.007063682
243	0xbf020001	-0.50781256
244	0xbea795f9	-0.32731608
245	0xbcfb5906	-0.030682098
246	0xbf14a325	-0.5806144
247	0xbdbfd99a	-0.09367676
248	0x3d22afa9	0.039718304
249	0xbbc9e01d	-0.0061607496
250	0x3c71fc18	0.0147695765
251	0x3e05a2a1	0.13050319
252	0x3c781691	0.015142099
253	0xbdd09859	-0.10185308
254	0xbe06f1e9	-0.13178219
255	0xbe21fea6	-0.15819797
