IIFDS-DDPG-random_start/TrainedModel/dynamicCritic_hh.pkl (torch, 280727 bytes, 5 tensors)

weight f4 [256, 12]
0.288802 0.3149535 -0.094550945 -0.07587854 -0.044817273 0.051180705 -0.6747618 -0.11034526
0.2710246 -0.09908161 -0.005055511 -0.038306456 0.02233685 0.19948107 -0.19363634 -0.21122068
-0.022685612 0.35236228 -0.7555042 -0.13256672 -0.060318474 0.059094448 0.00477378 -0.048646197
-0.23628202 0.15031877 -0.4314826 -0.1878944 -0.0907909 -0.41254213 -0.21979341 0.37069395
-0.8102136 0.0314984 -0.014096871 0.018101009 -0.25714275 -0.11675996 0.36581886 0.29237866
-0.10908923 -0.035798796 -0.033344787 0.1905623 -0.3222954 0.013380497 -0.048181884 0.4597775
0.012375994 -0.020628415 -0.5009324 -0.26290047 -0.484823 0.42059475 -0.31924143 0.16895278
0.2909344 0.02209438 -0.077569105 -0.08010427 0.23821369 0.29758602 -0.10647361 0.12005291
0.022869622 -0.009632503 0.07997052 0.107315674 0.31485963 -0.056594003 0.056162223 0.02101495
-0.3352349 0.10153563 -0.21397577 -0.6817056 -0.5538042 0.348093 -0.36881328 0.30989546
-0.1658418 0.08788918 -0.0008885358 0.0017922159 0.034650214 0.31185266 0.18773071 -0.07271368
0.2771423 -0.26318112 0.24232106 0.24266107 0.13435182 -0.08187552 0.18436453 -0.13034914
-0.157984 0.011740785 -0.23028567 0.047650598 -0.04142364 -0.21694534 -0.4672252 0.4999436
-0.6246635 -0.050593376 -0.025636202 0.03670543 0.2905067 0.16778032 0.035400346 -0.27119595
0.1701865 0.47479346 -0.31338274 0.040140506 0.22946808 -0.012397587 0.113335855 0.0024135853
-0.0007081677 0.32301685 0.33167017 0.22904083 -0.22584093 0.5353989 -0.2859791 0.2331621
-0.5315599 -0.079441786 -0.0684977 -0.04822607 0.30490392 -0.25780675 0.6101187 0.08443117
0.027336415 0.32711777 0.5798162 0.0019227633 -0.12515768 0.017400354 0.018755764 0.012520397
0.20374902 -0.35721037 0.42972052 -0.044047438 -0.28685018 -0.42348722 0.12603357 -0.31273615
0.18809941 -0.027848212 0.0044822153 0.037410382 0.22121741 0.46453077 0.016602296 0.07600397
0.074998744 -0.19311062 0.3717685 0.46191487 0.10212455 0.031148743 -0.082902916 -0.0151496045
0.10777079 -0.052881945 -0.42742595 -0.039665785 -0.15494277 -0.33786038 0.1726108 -0.2070253
-0.13870017 -0.0012493904 0.003107635 0.009672552 -0.060961045 -0.021768024 -0.24499694 -0.03608844
0.32024738 -0.0786198 -0.14345013 -0.08683186 0.069327906 0.25294936 -0.12332398 -0.15474595
-0.027347935 -0.20601471 -0.1923663 0.028077833 -0.165242 -0.16137493 0.1906714 -0.05870271
0.2086974 3.3571232e-05 -0.022156036 0.06428406 0.016593572 0.11290406 0.3152267 0.1791555
-0.16150182 0.22859763 0.33829457 0.7095733 0.3136595 0.00556503 -0.029499965 0.2010623
0.057416417 -0.062364426 0.5732022 0.038856264 -0.2663074 -0.18257263 0.19527811 -0.10337045
0.16267702 0.5552427 -0.35011363 0.2516696 0.34641954 0.15899006 -0.34988406 -0.029679706
-0.18313158 0.4437779 -0.3529083 -0.17302749 0.0036075572 0.014840652 0.007112445 0.11172514
-0.20086573 0.24605669 -0.22347824 -0.28306746 -0.10285482 -0.176631 -0.23925096 -0.23894279
-0.4780073 0.00087974215 -0.028524894 -0.019900449 0.22079718 0.05877672 -0.08345332 0.106052294
00000000: dbdd 933e 9641 a13e eda3 c1bd 3566 9bbd
00000010: 5192 37bd dca2 513d 30bd 2cbf b2fc e1bd
00000020: bdc3 8a3e 4deb cabd b3a8 a5bb 3be7 1cbd
00000030: c5fb b63c c444 4c3e 9b48 46be 3c4a 58be
00000040: 2dd7 b9bc d468 b43e b968 41bf 92bf 07be
00000050: 8110 77bd 050d 723d 5e6d 9c3b 3c41 47bd
00000060: eaf3 71be 2aed 193e 4aeb dcbe 6467 40be
00000070: 94f0 b9bd b938 d3be 8611 61be 99cb bd3e
00000080: 296a 4fbf 7704 013d 90f6 66bc 9148 943c
00000090: 37a8 83be d91f efbd 9c4c bb3e a8b2 953e
000000a0: 2d6a dfbd c2a1 12bd 8b94 08bd c322 433e
000000b0: e703 a5be df39 5b3c 5e5a 45bd f567 eb3e
000000c0: aec4 4a3c ecfc a8bc 1b3d 00bf e49a 86be
000000d0: b83a f8be 3258 d73e 9d73 a3be f501 2d3e
000000e0: 5bf5 943e 46ff b43c 8ddc 9ebd b50d a4bd
000000f0: 4aee 733e 325d 983e d60e dabd 4dde f53d
00000100: 1359 bb3c a5d1 1dbc 96c7 a33d 52c8 db3d
00000110: 4835 a13e 1dcf 67bd 5c0a 663d 8b27 ac3c
00000120: e9a3 abbe eaf1 cf3d 771c 5bbe 4284 2ebf
00000130: 1dc6 0dbf 3f39 b23e 18d5 bcbe 9eaa 9e3e
00000140: 6fd2 29be 3eff b33d a1ec 68ba c9e8 ea3a
00000150: 62ed 0d3d 27ab 9f3e 7b3c 403e e9ea 94bd
00000160: 98e5 8d3e adbf 86be 0323 783e 257c 783e
00000170: 8693 093e 5aae a7bd 0eca 3c3e 3f7a 05be
00000180: 8fc6 21be 6c5c 403c 02d0 6bbe 462d 433d
00000190: d6ab 29bd eb26 5ebe 2438 efbe 9cf8 ff3e
000001a0: f2e9 1fbf 003b 4fbd 0303 d2bc 6f58 163d
000001b0: 4bbd 943e 9bce 2b3e f4ff 103d 32da 8abe
000001c0: 5f45 2e3e 2118 f33e b473 a0be 5f6a 243d
000001d0: aef9 6a3e 401f 4bbc a11c e83d 3e2d 1e3b
000001e0: 54a4 39ba 7762 a53e acd0 a93e ae89 6a3e
000001f0: d842 67be e70f 093f da6b 92be 0cc2 6e3e
00000200: 4f14 08bf 60b2 a2bd 8648 8cbd b388 45bd
00000210: 5e1c 9c3e 3fff 83be bd30 1c3f 40ea ac3d
00000220: 9ef0 df3c fb7b a73e d66e 143f 3b05 fc3a
00000230: 5629 00be 308b 8e3c b0a5 993c 5a22 4d3c
00000240: 95a3 503e 47e4 b6be 5404 dc3e 166b 34bd
00000250: 07de 92be 51d3 d8be f20e 013e f41e a0be
00000260: 229d 403e ef21 e4bc 8cdf 923b a13b 193d
00000270: d186 623e fad6 ed3e 8a01 883c f8a7 9b3d
00000280: f198 993d cabe 45be 7158 be3e 1b80 ec3e
00000290: ad26 d13d a62b ff3c 01c9 a9bd 0c36 78bc
000002a0: efb6 dc3d bd9a 58bd 93d7 dabe 9778 22bd
000002b0: 51a9 1ebe 09fc acbe e3c0 303e 71fe 53be
000002c0: 6b07 0ebe 96c2 a3ba 77a9 4b3b a079 1e3c
000002d0: 4ab2 79bd db52 b2bc 7ae0 7abe 79d1 13bd
000002e0: 77f7 a33e 6b03 a1bd 97e4 12be e7d4 b1bd
000002f0: cafb 8d3d 9482 813e 4891 fcbd b975 1ebe
00000300: c708 e0bc 85f5 52be acfb 44be 7c03 e63c
00000310: 3335 29be 783f 25be 5d3f 433e 4172 70bd
00000320: c5b4 553e d6ce 0c38 9380 b5bc 5ca7 833d
00000330: 3eef 873c 3e3a e73d 6565 a13e 8a74 373e
00000340: bc60 25be 7f15 6a3e f234 ad3e 99a6 353f
00000350: fa97 a03e db5a b63b e9a9 f1bc 47e3 4d3e
00000360: 7a2d 6b3d d771 7fbd 61bd 123f bf27 1f3d
00000370: 7259 88be 52f4 3abe fcf6 473e e3b3 d3bd
00000380: ce94 263e 6324 0e3f 1842 b3be d6da 803e
00000390: e75d b13e 4ace 223e 0124 b3be db22 f3bc
000003a0: d886 3bbe db36 e33e 66b0 b4be 1e2e 31be
000003b0: c46c 6c3b 3526 733c 830f e93b 26d0 e43d
000003c0: bfaf 4dbe 49f6 7b3e 7bd7 64be 38ee 90be
000003d0: 8ca5 d2bd c2de 34be 34fe 74be 6bad 74be
000003e0: 5fbd f4be 7f9e 663a 0aad e9bc 4406 a3bc
000003f0: a818 623e dcbf 703d 93e9 aabd f231 d93d

bias f4 [256]
0.015539004 0.3528006 0.51671714 -0.34610516 0.099196166 -0.5248517 0.10674362 -0.39270344
0.07413651 0.15976472 0.23320279 -0.15059265 0.24837011 -0.4649028 -0.44092587 -0.4918131
0.6838613 -0.09625643 0.12537245 0.24796091 0.2724041 -0.2430384 -0.1105109 -0.13190828
0.050373442 -0.308711 -0.31551558 0.03469204 0.61339194 -0.31419724 -0.2664999 -0.20213385
0.16453879 -0.12800236 -0.04945131 -0.09957067 -0.32656074 -0.008765176 -0.29221785 0.019673167
-0.4211431 -0.31403503 0.03270852 -0.04035999 0.5474933 0.58580744 0.01274406 0.27823
0.56316596 0.37103236 0.5808693 -0.18702112 -0.13782352 0.6610926 -0.48771596 -0.26568487
-0.004791878 0.025849 0.2545995 0.10091763 -0.2996292 0.0788021 -0.13018839 -0.36939633
-0.08604549 0.0062329294 -0.22205739 0.2877883 -0.0983592 -0.111997716 0.17375834 0.21641982
0.5289235 0.4669082 0.67635036 0.2118491 -0.22821385 -0.2572696 -0.28683728 -9.02161e-05
0.07913497 -0.35925442 -0.18828394 -0.25561172 0.38841805 -0.19897547 -0.52926433 -0.072532825
0.01090158 -0.056457616 0.19661169 0.18832321 0.006706329 -0.18038672 -0.13948411 -0.52150625
-0.4032991 0.26141578 0.53751785 -0.36171165 -0.16361201 -0.011687186 0.39973405 -0.3262139
0.5090325 -0.12755904 -0.05102945 -0.14885202 -0.16803223 -0.40809155 -0.35757363 0.5268143
-0.41851285 -0.40120173 0.067954466 -0.45860472 0.13435267 0.3973464 0.67987597 0.18931857
-0.4271096 -0.006239696 -0.19111277 0.138043 0.10643751 0.5854034 -0.24729386 0.5401814
-0.3727937 -0.40200064 -0.15764086 -0.040838685 -0.43538842 -0.16106896 -0.22263597 0.03785048
-0.35209316 -0.23156486 -0.018548014 0.36859304 -0.066531055 0.22620553 -0.22407544 -0.123854645
0.1874765 -0.0048131724 -0.15303648 -0.21864443 0.04499627 0.060627528 -0.4409806 -0.16214603
-0.20356217 0.09173491 -0.05292332 -0.13058 -0.086598374 0.1300875 -0.48489887 0.22903611
-0.06410183 -0.15458442 -0.6709055 -0.39090332 -0.4966453 0.22479784 0.043892715 -0.009906998
0.1998896 -0.47292057 -0.306198 -0.33879274 -0.36965638 0.36824784 -0.06760887 0.14607207
0.1543865 -0.27931917 -0.0040884675 -0.20680927 -0.03461562 0.40600446 -0.32805744 0.30932677
-0.45435375 -0.19704247 0.15297726 0.4041584 0.0008424306 -0.19020437 -0.44384733 0.59217817
-0.29206213 0.1316643 0.44736868 -0.4131961 0.25427508 -0.027358392 0.032694392 -0.105927154
0.13274103 0.086004116 -0.26992923 0.43372807 -0.073495366 0.6569362 0.34977093 0.6389224
0.2533141 -0.35072523 0.4735005 -0.44773903 -0.35046482 0.06881277 -0.3563201 -0.17827082
-0.011856064 0.5435125 -0.13486263 0.47878042 0.6268497 -0.4191372 0.08383413 -0.44137794
0.05183449 -0.13748963 0.2701926 0.6981047 0.23202184 0.10625099 0.15238921 -0.21071701
-0.40172216 -0.14833133 -0.010120272 0.24053407 -0.56272256 0.4396021 0.077450946 0.45478034
-0.06706416 -0.4160244 -0.4951551 0.13161047 -0.02432165 -0.2685443 -0.12587616 -0.183016
-0.023071796 -0.06988398 0.36058444 -0.19440769 0.23004113 -0.17441344 -0.52933097 0.3969392
00000000: 4e97 7e3c 48a2 b43e 9347 043f b234 b1be
00000010: 5c27 cb3d ae5c 06bf 669c da3d 6d10 c9be
00000020: e2d4 973d 5d99 233e b6cc 6e3e f634 1abe
00000030: bc54 7e3e bd07 eebe 09c1 e1be edce fbbe
00000040: 8911 2f3f 1722 c5bd a361 003e 77e9 7d3e
00000050: 8d78 8b3e 0fdf 78be 8a53 e2bd f712 07be
00000060: 6254 4e3d 5e0f 9ebe 428b a1be 3e19 0e3d
00000070: 4107 1d3f 76de a0be ad72 88be 2dfc 4ebe
00000080: db7c 283e 0d13 03be 758d 4abd b5eb cbbd
00000090: f832 a7be d09b 0fbc 949d 95be 9f29 a13c
000000a0: 12a0 d7be 33c9 a0be 5ef9 053d 8450 25bd
000000b0: 8528 0c3f 7af7 153f 76cc 503c 2a74 8e3e
000000c0: a52b 103f f4f7 bd3e dab3 143f 7782 3fbe
000000d0: 9c21 0dbe 5d3d 293f e8b5 f9be d907 88be
000000e0: 3005 9dbb 48c1 d33c de5a 823e e7ad ce3d
000000f0: 0069 99be ff62 a13d 1b50 05be 8421 bdbe
00000100: 9e38 b0bd 9a3d cc3b 0363 63be fd58 933e
00000110: 8c70 c9bd 0f5f e5bd b5ed 313e 289d 5d3e
00000120: 8867 073f 970e ef3e 4c25 2d3f f8ee 583e
00000130: e4b0 69be d7b8 83be 56dc 92be 6632 bdb8
00000140: 8411 a23d 32f0 b7be 81cd 40be 8adf 82be
00000150: bbde c63e 3ac0 4bbe de7d 07bf 178c 94bd
00000160: 8a9c 323c 1a40 67bd 9354 493e cdd7 403e
00000170: c4c0 db3b 4cb7 38be ecd4 0ebe 6f81 05bf
00000180: 387d cebe 4ad8 853e c59a 093f 4532 b9be
00000190: e889 27be 9c7b 3fbc f1a9 cc3e 8205 a7be
000001a0: f44f 023f d69e 02be 4204 51bd aa6c 18be
000001b0: a410 2cbe 60f1 d0be e413 b7be 4ddd 063f
000001c0: 5147 d6be 506a cdbe b62b 8b3d 3dce eabe
000001d0: bf93 093e fd70 cb3e 5a0c 2e3f badc 413e
000001e0: 1cae dabe 5d76 ccbb 11b3 43be 255b 0d3e
000001f0: e9fb d93d ffdc 153f 9a3a 7dbe 5449 0a3f
00000200: d1de bebe 07d3 cdbe 9b6c 21be 7746 27bd
00000210: 3beb debe 43ef 24be affa 63be 1b09 1b3d
00000220: 8e45 b4be 571f 6dbe 01f2 97bc 3ab8 bc3e
00000230: 6f41 88bd 6ca2 673e 0874 65be 81a7 fdbd
00000240: d7f9 3f3e d1b7 9dbb 98b5 1cbe 53e4 5fbe
00000250: 024e 383d 9254 783d 36c8 e1be 9c09 26be
00000260: 9a72 50be 83df bb3d 20c6 58bd c3b6 05be
00000270: 7d5a b1bd a835 053e aa44 f8be 7188 6a3e
00000280: d247 83bd 614b 1ebe 76c0 2bbf 7b24 c8be
00000290: 4b48 febe 6831 663e d9c8 333d f650 22bc
000002a0: dcaf 4c3e a522 f2be fcc5 9cbe 3e76 adbe
000002b0: 9a43 bdbe fb8a bc3e 8576 8abd eb93 153e
000002c0: 7f17 1e3e ec02 8fbe 8df8 85bb cfc5 53be
000002d0: 1cc9 0dbd d1df cf3e 25f7 a7be 1460 9e3e
000002e0: 0ea1 e8be 80c5 49be 12a6 1c3e daed ce3e
000002f0: 90d6 5c3a efc4 42be f53f e3be fd98 173f
00000300: 2b89 95be 02d3 063e 820d e53e 708e d3be
00000310: 5830 823e b51e e0bc 8eea 053d 56f0 d8bd
00000320: 44ed 073e ed22 b03d 2a34 8abe 9b11 de3e
00000330: bd84 96bd f92c 283f 2d15 b33e 6b90 233f
00000340: 63b2 813e 4292 b3be a86e f23e 0d3e e5be
00000350: 2070 b3be b6ed 8c3d 976f b6be a08c 36be
00000360: f03f 42bc a323 0b3f 6e19 0abe b522 f53e
00000370: 3979 203f 2799 d6be 3ab1 ab3d 4afc e1be
00000380: 6750 543d 15ca 0cbe af56 8a3e fdb6 323f
00000390: 2297 6d3e 1e9a d93d eb0b 1c3e 33c6 57be
000003a0: 87ae cdbe 2be4 17be 7fcf 25bc 904e 763e
000003b0: 960e 10bf 8713 e13e 9a9e 9e3d f8d8 e83e
000003c0: ef58 89bd 2601 d5be f884 fdbe e5c4 063e
000003d0: 323e c7bc a37e 89be aee5 00be 8c68 3bbe
000003e0: 1001 bdbc 551f 8fbd 869e b83e cf12 47be
000003f0: e78f 6b3e 7099 32be 3c82 07bf 9d3b cb3e

weight f4 [256, 256]
-0.3339654 0.008959143 0.0048565883 -0.35092178 0.2451331 0.026646903 -0.23407273 -0.4458878
-0.19678076 -0.2523375 -0.02741029 -0.1858395 0.054922905 0.0068473397 -0.46160796 -0.14757167
-0.03629849 0.03215003 0.03441634 0.097707346 0.046856973 -0.0017978582 -0.054860353 -0.3969852
0.3132607 -0.57212955 -0.05512726 0.31073162 -0.13382034 -0.67855513 -0.5842467 0.04545974
-0.28761393 0.22973742 0.34906983 -0.09165585 -0.08232467 0.25160995 -0.4679012 0.2342957
-0.057729967 -0.036680248 0.003493954 -0.1511112 -0.030296145 0.13013993 -0.47128007 -0.23335353
-0.33040747 0.007247895 0.017344933 0.07894184 -0.17760354 0.3547189 -0.06626815 -0.22173895
0.49448445 0.02345633 -0.005508444 -0.13120039 -0.05680183 -0.07984074 -0.12279075 -0.57518923
-0.34005794 -0.10268511 -0.08500169 -0.05787475 0.3259337 -0.14724268 0.050565213 -0.02967021
-0.003940032 0.018719962 0.1785487 0.1275683 0.053483743 -0.37956333 -0.22229622 -0.19279718
0.28387207 -0.20183332 -0.19486617 -0.03551615 0.041648686 0.013391991 -0.42035615 -0.14488165
-0.13948181 -0.28426036 -0.13615394 0.006523285 -0.14564912 -0.16916765 -0.26294938 -0.17999704
-0.22674301 -0.05014635 0.04156663 -0.15973462 -0.22506371 -0.31994125 0.07193004 -0.3143207
0.028487686 -0.0471613 -0.047792524 -0.21940725 -0.31758398 -0.054214098 0.16934858 0.0815184
-0.17916693 -0.015211608 -0.03791325 -0.5775737 0.16216677 -0.04892646 0.12837705 -0.024511913
-0.30214334 -0.32758307 -0.04044874 -0.09601178 -0.09264003 0.15849157 0.0006505599 -0.041635808
-0.27659702 -0.32430542 -0.05110878 -0.015870223 -0.75663733 -0.092791975 -0.28438997 -0.025146164
-0.08934124 -0.08990225 0.015033835 -0.0937041 0.098593965 0.11247946 0.014042369 0.0037761563
-0.20550314 0.17467174 -0.068685256 -0.33084798 -0.25021887 -0.07457364 -0.44271326 -0.22357206
-0.5397442 -0.081126645 -0.12629361 -0.100332014 -0.24231352 -0.19196704 -0.22218266 -0.14736636
-0.12344736 -0.093213975 -0.2801118 -0.13069819 0.011617016 0.082234085 -0.033887465 -0.34480467
0.31089607 -0.11826997 -0.21647488 -0.36984026 -0.16608702 -0.0005361289 -0.32263926 -0.04445487
-0.16598375 -0.13247845 -0.45670468 -0.0074568484 -0.104189344 0.07592199 -0.3389704 -0.12268871
-0.0018431573 -0.09900592 -0.20646212 -0.17051032 -0.06287641 -0.49749237 -0.36248592 0.092678085
-0.27576992 -0.07313213 0.15549809 -0.17253225 -0.12876225 0.15974559 -0.0367804 -0.026315287
0.029683141 0.33130136 -0.34575742 0.27869207 -0.33681372 0.04644977 -0.0024228913 -0.050084297
0.073929854 -0.14693153 0.13021655 -0.52588254 0.091490015 0.00760599 -0.16454719 -0.48612767
-0.076039575 -0.088496946 -0.18455735 -0.07829586 -0.001112801 -0.39404583 0.05774126 -0.16701378
0.09336567 -0.20958434 0.04362347 0.0099320235 -0.0016900726 -0.37242815 -0.23696919 -0.29293588
-0.22009605 -0.19604687 -0.024979943 0.12790948 -0.28693485 0.06427375 -0.16459441 -0.01197482
0.1469481 -0.18419261 -0.21020396 0.07602909 -0.10615836 -0.43913665 -0.58937144 -0.2053867
-0.26852503 -0.1568482 0.036490526 -0.21692872 0.1346874 -0.2572554 -0.119397655 -0.042212456
00000000: 83fd aabe 5fc9 123c 0424 9f3b 05ac b3be
00000010: 2c04 7b3e 9b4a da3c c3b0 6fbe 684b e4be
00000020: e580 49be 6132 81be 8b8b e0bc b64c 3ebe
00000030: d7f6 603d a65f e03b e157 ecbe 071d 17be
00000040: baad 14bd c0af 033d 26f8 0c3d ca1a c83d
00000050: 19ed 3f3d 1ca6 ebba 40b5 60bd a541 cbbe
00000060: b563 a03e 1577 12bf 1fcd 61bd 3718 9f3e
00000070: 3308 09be cab5 2dbf 3191 15bf fe33 3a3d
00000080: 2242 93be 4940 6b3e 48b9 b23e 10b6 bbbd
00000090: d699 a8bd 05d3 803e bf90 efbe 36eb 6f3e
000000a0: 4276 6cbd 073e 16bd d2fa 643b e5bc 1abe
000000b0: 9f2f f8bc 6743 053e 9f4b f1be 3af4 6ebe
000000c0: 2b2b a9be c07f ed3b f616 8e3c 42ac a13d
000000d0: b4dd 35be b79d b53e 99b7 87bd 890f 63be
000000e0: 112d fd3e 7d27 c03c 2d80 b4bb 6559 06be
000000f0: 09a9 68bd 8b83 a3bd b779 fbbd 9a3f 13bf
00000100: 131c aebe 924c d2bd 5e15 aebd 130e 6dbd
00000110: c8e0 a63e c9c6 16be 781d 4f3d f10e f3bc
00000120: 621b 81bb 9b5a 993c 78d5 363e 44a1 023e
00000130: c511 5b3d 2056 c2be 9fa1 63be a06c 45be
00000140: ae57 913e 65ad 4ebe ff8a 47be 6279 11bd
00000150: d097 2a3d 156a 5b3c ec38 d7be db5b 14be
00000160: 52d4 0ebe 938a 91be f06b 0bbe 48c1 d53b
00000170: 0b25 15be 493a 2dbe 4da1 86be 2551 38be
00000180: 522f 68be 4266 4dbd c541 2a3d 7991 23be
00000190: 1a77 66be 57cf a3be 0f50 933d a5ee a0be
000001a0: 025f e93c 352c 41bd 18c2 43bd 4bac 60be
000001b0: 5e9a a2be 9a0f 5ebd b769 2d3e 1ef3 a63d
000001c0: 8977 37be 1c3a 79bc ed4a 1bbd dfdb 13bf
000001d0: 0c0f 263e 1d67 48bd 4675 033e 35cd c8bc
000001e0: 88b2 9abe f8b8 a7be 94ad 25bd d3a1 c4bd
000001f0: 0eba bdbd 9d4b 223e 568a 2a3a 4f8a 2abd
00000200: 209e 8dbe 5c0b a6be 7157 51bd 4502 82bc
00000210: fcb2 41bf b809 bebd 909b 91be 54ff cdbc
00000220: 8af8 b6bd ac1e b8bd 7950 763c efe7 bfbd
00000230: a2eb c93d a25b e63d f711 663c 6479 773b
00000240: 6a6f 52be 26dd 323e dbaa 8cbd e864 a9be
00000250: b01c 80be 11ba 98bd 50ab e2be 13f0 64be
00000260: ad2c 0abf ba25 a6bd 1d53 01be df7a cdbd
00000270: 0921 78be 0293 44be da83 63be 35e7 16be
00000280: f8d1 fcbd f8e6 bebd d06a 8fbe bfd5 05be
00000290: 4c55 3e3c 586a a83d 95cd 0abd 3d8a b0be
000002a0: c52d 9f3e 8737 f2bd 97ab 5dbe b45b bdbe
000002b0: b712 2abe 008b 0cba f930 a5be 4f16 36bd
000002c0: a5f7 29be 6ea8 07be 32d5 e9be 9458 f4bb
000002d0: 3961 d5bd fd7c 9b3d 878d adbe 3844 fbbd
000002e0: 1996 f1ba 9ec3 cabd ce6a 53be 429a 2ebe
000002f0: 59c5 80bd 52b7 febe c197 b9be 02ce bd3d
00000300: b731 8dbe 4cc6 95bd e43a 1f3e 4bac 30be
00000310: 40da 03be 5994 233e 0ba7 16bd 2893 d7bc
00000320: 0f2a f33c 55a0 a93e 1e07 b1be bab0 8e3e
00000330: d972 acbe 1d42 3e3d 5fc9 1ebb 3125 4dbd
00000340: 8968 973d 3875 16be 7d57 053e 3da0 06bf
00000350: 1e5f bb3d ab3b f93b 0f7f 28be bae5 f8be
00000360: a3ba 9bbd e33d b5bd 9afc 3cbe 9459 a0bd
00000370: 68db 91ba 60c0 c9be 1982 6c3d a905 2bbe
00000380: 8036 bf3d 479d 56be 86ae 323d edb9 223c
00000390: 6d85 ddba e7ae bebe 0da8 72be b1fb 95be
000003a0: dc60 61be 83c0 48be bda2 ccbc b4fa 023e
000003b0: 20e9 92be f5a1 833d 708b 28be 0932 44bc
000003c0: 9079 163e fd9c 3cbe b53f 57be 24b5 9b3d
000003d0: 8e69 d9bd 85d6 e0be 0ce1 16bf e450 52be
000003e0: 1d7c 89be d19c 20be 1777 153d 9022 5ebe
000003f0: 7eeb 093e fbb6 83be c286 f4bd f8e6 2cbd

bias f4 [256]
-0.04044446 0.27752393 0.16537914 0.29578185 -0.045315493 -0.0021232362 -0.047540605 0.045860577
0.14490548 -0.09606988 -0.26333782 -0.17065695 -0.04302464 0.118930764 -0.008779089 0.2214874
-0.113301896 0.001625335 0.16071823 0.066043906 0.112741336 0.026567677 -0.18124563 -0.18035442
-0.094564594 0.26720625 0.14812542 0.13093969 0.28236133 -0.09243487 -0.020301532 -0.026356336
-0.050833575 0.21597768 -0.077056825 -0.005964547 -0.051806893 -0.022972193 -0.06754959 0.08704445
0.018008767 -0.009350472 -0.02759696 -0.22705857 0.014110902 -0.014919146 -0.021825973 0.036079187
-0.19962645 -0.16152862 -0.16889061 -0.034724783 1.6067968e-05 0.039361246 0.05777278 -0.116677366
-0.083333276 -0.08846068 -0.0013845623 0.19889334 0.1180867 -0.06439373 -0.16281743 -0.15410532
-0.028698105 0.14314385 -0.053179782 -0.06963993 0.016954184 -0.070057 0.04316583 -0.16788633
0.084947124 0.015748624 0.3080062 -0.26277417 -0.10760116 -0.120655924 -0.022272458 0.1114566
0.13585162 -0.1759776 -0.15146133 0.17170942 -0.12484264 -0.16558467 0.23648591 0.024065943
0.17891082 0.15942541 0.034002703 -0.008221646 0.07055202 -0.1720473 -0.22147736 0.12805136
0.08823961 -0.11079576 0.047465403 0.38087967 -0.23469211 0.30167788 0.10747399 0.031939313
-0.043303 0.065076426 0.097092554 -0.24587767 0.14637811 -0.029287955 -0.020887977 0.033690304
-0.037778433 0.039139986 0.15076464 -0.071099065 0.17155278 -0.036238104 -0.15723228 0.0008088795
-0.016358895 0.019017639 -0.09631801 -0.20697396 -0.06774622 -0.15033779 0.14154677 0.16131815
-0.25784314 0.023123471 -0.0991677 0.100310326 -0.19754884 -0.019877741 -0.24761672 0.20794094
0.016806075 0.037868332 -0.097074546 0.10441995 0.18829584 -0.04732287 -0.1547832 0.005027826
-0.22351784 -0.0711137 -0.010622245 0.024027485 -0.07004029 -0.06933567 0.15260878 0.008077726
0.16147384 0.014111722 0.18238012 0.19948612 0.019689562 -0.3149385 -0.05599062 -0.1527009
0.07368447 0.012287432 -0.057874985 0.044245813 0.15990557 0.21644089 0.02605408 0.042357855
-0.27828845 0.014398842 -0.041682146 0.1571004 -0.011003561 -0.06048738 0.006810258 -0.19569634
-0.029542204 -0.06238965 0.2919834 -0.029142125 0.026836934 -0.17197658 0.055648945 0.02808017
0.26563364 -0.0123028625 -0.09273173 0.22034144 -0.20769723 -0.057840988 -0.030183012 0.13268648
-0.062349208 0.13904038 0.14478754 -0.1392774 0.036335085 -0.08988057 0.35484353 -0.10863336
-0.064340815 -0.08313719 -0.2625328 -0.1908263 -0.14595425 -0.043343145 0.20227009 -0.05178757
-0.18108574 -0.056105204 -0.03567188 0.1502666 -0.15789545 0.19990893 0.3805407 -0.2740315
-0.084792614 -0.13856554 -0.25299692 -0.0032937927 -0.06403415 -0.1671514 0.20457406 0.018254574
0.02717401 -0.0932436 -0.16553435 0.2134155 -0.11919036 -0.0630913 -0.0024089043 -0.051085006
-0.050677896 -0.0025010107 -0.18009816 0.22955292 -0.072438814 0.0078303255 0.2956991 -0.09835238
0.2506192 0.12502196 -0.057639383 0.13338478 -0.050523255 -0.0015473202 -0.27584675 -0.17329426
-0.07313968 -0.012617041 0.03680043 0.2907789 -0.033233047 -0.18098275 -0.18562423 -0.18741158
00000000: 17a9 25bd 9e17 8e3e 2659 293e b870 973e
00000010: bd9c 39bd fe25 0bbb f0b9 42bd 4dd8 3b3d
00000020: 1a62 143e 49c0 c4bd 37d4 86be b2c0 2ebe
00000030: 9b3a 30bd f991 f33d 2bd6 0fbc 98cd 623e
00000040: d30a e8bd 3109 d53a 5293 243e 0742 873d
00000050: eee4 e63d 75a4 d93c 7498 39be d4ae 38be
00000060: 15ab c1bd 42cf 883e 31ae 173e 0e15 063e
00000070: aa91 903e 7e4e bdbd 664f a6bc 3ee9 d7bc
00000080: de36 50bd 4129 5d3e f8cf 9dbd 3f72 c3bb
00000090: 7733 54bd 2e30 bcbc 7057 8abd 5c44 b23d
000000a0: 1f87 933c b932 19bc 0513 e2bc 0b82 68be
000000b0: 6a31 673c 6f6f 74bc 62cc b2bc c5c7 133d
000000c0: e06a 4cbe c267 25be a9f1 2cbe 933b 0ebd
000000d0: b3c9 8637 4239 213d 27a3 6c3d 8bf4 eebd
000000e0: a3aa aabd df2a b5bd 347a b5ba b2aa 4b3e
000000f0: 71d7 f13d dce0 83bd 9db9 26be c9cd 1dbe
00000100: 4a18 ebbc 4d94 123e 0bd3 59bd 619f 8ebd
00000110: 80e3 8a3c 0b7a 8fbd a7ce 303d 65ea 2bbe
00000120: c2f8 ad3d 4203 813c fdb2 9d3e 568a 86be
00000130: ff5d dcbd 741a f7bd bb74 b6bc 5c43 e43d
00000140: b01c 0b3e 7933 34be ae18 1bbe 98d4 2f3e
00000150: 7fad ffbd 078f 29be 5d29 723e f125 c53c
00000160: 6634 373e 6a40 233e 6b46 0b3d 15b4 06bc
00000170: 947d 903d 2b2d 30be f6ca 62be e51f 033e
00000180: f8b6 b43d e3e8 e2bd 156b 423d a902 c33e
00000190: 2153 70be 8675 9a3e 531b dc3d ccd2 023d
000001a0: 7d5e 31bd ca46 853d 76d8 c63d 5bc7 7bbe
000001b0: 25e4 153e 4bed efbc 431d abbc d8fe 093d
000001c0: 8fbd 1abd 4051 203d 0c62 1a3e 639c 91bd
000001d0: 88ab 2f3e 686e 14bd 8001 21be fc0a 543a
000001e0: 1703 86bc e1ca 9b3c 6042 c5bd fbf0 53be
000001f0: 88be 8abd 26f2 19be a3f1 103e 9630 253e
00000200: 0404 84be 6f6d bd3c 6f18 cbbd 806f cd3d
00000210: 3e4a 4abe a5d6 a2bc 3d8f 7dbe 78ee 543e
00000220: e5ac 893c d31b 1b3d 05cf c6bd 20da d53d
00000230: a0d0 403e a0d5 41bd 7d7f 1ebe 76c0 a43b
00000240: dce1 64be 0fa4 91bd ed08 2ebc 4ad5 c43c
00000250: 4971 8fbd dcff 8dbd 7a45 1c3e 7058 043c
00000260: 6659 253e da34 673c dbc1 3a3e 1746 4c3e
00000270: 014c a13c 9e3f a1be 6c56 65bd a05d 1cbe
00000280: e2e7 963d 3a51 493c 520e 6dbd 193b 353d
00000290: 49be 233e aea2 5d3e 5e6f d53c 6e7f 2d3d
000002a0: d37b 8ebe 1fe9 6b3c e6ba 2abd edde 203e
000002b0: 4848 34bc 9dc1 77bd 9628 df3b 9f64 48be
000002c0: 7e02 f2bc 4a8c 7fbd d97e 953e 77bb eebc
000002d0: 21d9 db3c a11a 30be 26f0 633d 6208 e63c
000002e0: 2201 883e f291 49bc 22ea bdbd 30a1 613e
000002f0: 95ae 54be acea 6cbd 5d42 f7bc f7de 073e
00000300: e261 7fbd 9a60 0e3e 2f43 143e bc9e 0ebe
00000310: 19d4 143d 4e13 b8bd 0dae b53e 2b7b debd
00000320: 1ec5 83bd d543 aabd b36a 86be f867 43be
00000330: 0875 15be 9588 31bd e41f 4f3e 341f 54bd
00000340: 8a6e 39be 92ce 65bd ad1c 12bd 7ddf 193e
00000350: 58af 21be edb4 4c3e 3bd6 c23e db4d 8cbe
00000360: c0a7 adbd 20e4 0dbe d088 81be acdc 57bb
00000370: 5624 83bd bd29 2bbe dd7b 513e 9e8a 953c
00000380: 089c de3c 80f6 bebd d681 29be 9889 5a3e
00000390: 131a f4bd 0336 81bd b5de 1dbb 833e 51bd
000003a0: a093 4fbd ffe7 23bb a76b 38be ec0f 6b3e
000003b0: cd5a 94bd c44a 003c df65 973e f96c c9bd
000003c0: 2951 803e c205 003e 4617 6cbd 0596 083e
000003d0: 79f1 4ebd 73cf caba c93b 8dbe 0d74 31be
000003e0: 42ca 95bd b5b7 4ebc 0cbc 163d f9e0 943e
000003f0: 601f 08bd 8b53 39be 4714 3ebe d2e8 3fbe

weight f4 [1, 256]
-0.45110074 0.08239956 0.06981054 0.057753965 0.0049002613 -0.053583954 -0.0004355393 -0.081814095
-0.57872057 -0.3458829 -0.089383446 -0.08586876 -0.00019859124 0.0052794395 -0.032640412 -0.12270724
-0.060007527 -0.0050494554 0.06272745 0.023855263 0.0017565566 -0.22110133 -0.20637566 -0.056887418
-0.05709498 0.06306789 0.13537672 0.13843052 0.16934454 -0.057427775 -0.004258363 -0.046709523
-0.09372506 0.3365277 -0.08312604 -0.004611494 0.029753769 -0.3324687 -0.0017413123 -0.44242615
-0.031770147 0.004072749 0.021155382 -0.03732059 -0.4889618 0.017943593 0.00021227621 -0.0474867
-0.046485886 -0.056235056 -0.102779604 0.045300536 0.0029361332 0.0056819073 0.19316007 -0.06243684
4.3802083e-05 -0.059865735 -0.029428663 0.16230156 -0.4033057 -0.012301066 -0.1001277 -0.051831428
-0.05238052 0.31083024 0.011839052 -0.017751586 0.035786208 -0.040625196 -0.010632336 -0.26174197
-0.48048097 0.39159587 0.20087457 -0.07594399 -0.52477586 -0.06279656 0.022227414 -0.25604808
0.045134254 -0.11293731 -0.2449255 0.39151368 -0.05800287 -0.071443275 0.21472435 -0.035467725
0.025881534 0.40430036 -0.2083082 -0.020169627 0.31899753 -0.116237566 -0.09849045 -0.31812614
0.5350845 -0.05767885 -0.40787524 0.09766333 -0.61300015 0.36963034 0.10229024 -0.012513994
-0.9130745 0.4033261 -0.16248396 -0.11129273 0.20397423 0.020350311 0.09221834 0.08426892
0.024867244 0.13335074 0.117268644 -0.022765921 0.41421956 -0.034253243 -0.59874046 -0.027177615
-0.00072033686 0.0011969373 -0.053506218 -0.08948471 0.006378563 -0.055859834 0.20084879 0.38002473
-0.17106636 -0.00958067 -0.09099874 0.4088689 -0.04764609 0.006701114 -0.20008451 0.05822864
0.018553216 0.00068285083 0.023602309 0.20095982 -0.28801963 -0.050531942 -0.32563224 -0.3652677
-0.053971194 -0.03986246 0.008221409 0.025319226 0.049961213 -0.0975292 -0.43508926 -0.2232698
0.02715911 -0.033680856 0.023036664 0.09354325 -0.3212821 -0.10167687 0.01276683 -0.098511994
0.14891754 0.00082318345 -0.024897512 -0.39139217 0.034076832 0.056490008 -0.017698582 -0.5055479
-0.093156 0.114779964 0.007430709 0.20131077 0.023988144 -0.005898641 0.14960892 -0.07280042
0.00035064135 0.00392544 0.08368593 0.36889628 -0.005812376 -0.086792104 0.017516041 0.017385852
-0.14521925 0.0027277465 -0.12611476 0.14453346 -0.16619548 0.00015237181 0.01627061 0.21273108
-0.09581511 -0.35109362 0.14916156 -0.08185954 -0.018976176 -0.09763041 0.0985682 -0.066358626
0.01607991 -0.08458928 -0.083607495 -0.09132333 -0.06472854 0.039878834 0.016275542 -0.00086419744
-0.05280632 -0.027663095 -0.22959794 0.57001233 -0.088084705 0.051472697 0.1285336 -0.06520414
-0.011629861 -0.08719749 -0.111748464 -0.016632544 0.035497803 -0.08525477 0.17844312 -0.05197716
-0.73881596 -0.32828987 -0.09999741 0.32985255 -0.09746466 -0.03475717 -0.059418015 -0.011506242
-0.014553911 -0.010580748 -0.050872836 0.15739225 0.045767453 0.007194465 0.026285352 0.014532658
0.024958586 0.0122728655 -0.007063682 -0.52928877 -0.08340534 0.00061703095 -0.44803494 -0.05400067
0.039718304 0.0021929867 0.0147695765 0.041950468 0.015142099 -0.10047826 -0.057806637 -0.058289714
00000000: adf6 e6be 1ac1 a83d d4f8 8e3d 6c8f 6c3d
00000010: 5f92 a03b d97a 5bbd 1859 e4b9 268e a7bd
00000020: 0827 14bf 9017 b1be ab0e b7bd f6db afbd
00000030: ee3c 50b9 26ff ac3b f4b1 05bd ef4d fbbd
00000040: 74ca 75bd e775 a5bb 4077 803d 1d6c c33c
00000050: 423c e63a 6368 62be 2454 53be c802 69bd
00000060: 6ddc 69bd bd29 813d 32a0 0a3e bbc0 0d3e
00000070: a868 2d3e 6339 6bbd bd89 8bbb 7c52 3fbd
00000080: edf2 bfbd 5c4d ac3e fc3d aabd 041c 97bb
00000090: 2dbe f33c 5639 aabe bf3c e4ba ae85 e2be
000000a0: 6a21 02bd b274 853b 0d4e ad3c 7add 18bd
000000b0: 3359 fabe 71fe 923c 7696 5e39 6a81 42bd
000000c0: fc67 3ebd bb56 66bd 1d7e d2bd 0e8d 393d
000000d0: 246c 403b 4b2f ba3b c1cb 453e c6bd 7fbd
000000e0: 21b8 3738 c635 75bd 6114 f1bc 6132 263e
000000f0: 167e cebe 698a 49bc c00f cdbd 314d 54bd
00000100: f58c 56bd 2425 9f3e 95f8 413c c66b 91bc
00000110: 8f94 123d 9b66 26bd 4033 2ebc 0b03 86be
00000120: 9a01 f6be 417f c83e 10b2 4d3e 8688 9bbd
00000130: b657 06bf 7c9b 80bd 4416 b63c bc18 83be
00000140: b2de 383d ad4b e7bd c0cd 7abe 7b74 c83e
00000150: 6b94 6dbd da50 92bd b3e0 5b3e 9b46 11bd
00000160: 8305 d43c 7500 cf3e bf4e 55be c63a a5bc
00000170: a553 a33e f60d eebd 5cb5 c9bd 6ee1 a2be
00000180: 4cfb 083f a840 6cbd 06d5 d0be b603 c83d
00000190: 94ed 1cbf 3040 bd3e 8c7d d13d 7f07 4dbc
000001a0: 40bf 69bf c280 ce3e 3262 26be 71ed e3bd
000001b0: 9fde 503e b2b5 a63c f8dc bc3d 2f95 ac3d
000001c0: 64b6 cb3c 198d 083e 8b2a f03d 997f babc
000001d0: 9614 d43e 214d 0cbd 0e47 19bf 97a3 debc
000001e0: fdd4 3cba 8de2 9c3a 5629 5bbd c243 b7bd
000001f0: 4403 d13b 48cd 64bd 4eab 4d3e 9a92 c23e
00000200: 052c 2fbe 3ef8 1cbc 8c5d babd 4457 d13e
00000210: 8c28 43bd 0595 db3b f4e2 4cbe 2881 6e3d
00000220: eafc 973c 5801 333a a159 c13c 69c8 4d3e
00000230: 4f77 93be 95fa 4ebd 45b9 a6be 5e04 bbbe
00000240: e610 5dbd d246 23bd 17b3 063c 446a cf3c
00000250: 21a4 4c3d 64bd c7bd 05c4 debe d7a0 64be
00000260: c87c de3c f0f4 09bd 63b7 bc3c 9a93 bf3d
00000270: 167f a4be f63b d0bd f72b 513c a8c0 c9bd
00000280: d77d 183e e8ca 573a def5 cbbc 8e64 c8be
00000290: 2694 0b3d 1162 673d 9efc 90bc 966b 01bf
000002a0: 93c8 bebd c211 eb3d 4e7d f33b 6924 4e3e
000002b0: c982 c43c 6349 c1bb 1533 193e 6318 95bd
000002c0: 49d6 b739 faa0 803b 8763 ab3d f9df bc3e
000002d0: be75 bebb 0fc0 b1bd cd7d 8f3c c66c 8e3c
000002e0: 5bb4 14be fec3 323b 3a24 01be 9400 143e
000002f0: 262f 2abe ffc5 1f39 f149 853c 2dd6 593e
00000300: b63a c4bd 8bc2 b3be cfbd 183e f9a5 a7bd
00000310: ed73 9bbc 74f2 c7bd 20de c93d 08e7 87bd
00000320: 04ba 833c 253d adbd 683a abbd ba07 bbbd
00000330: 6690 84bd fd57 233d 4954 853c 4f8b 62ba
00000340: 714b 58bd b79d e2bc b91b 6bbe 54ec 113f
00000350: c165 b4bd 09d5 523d 509e 033e c089 85bd
00000360: 2c8b 3ebc 9994 b2bd 61dc e4bd f940 88bc
00000370: 2566 113d 0e9a aebd cbb9 363e 01e6 54bd
00000380: 0b23 3dbf 9c15 a8be 71cb ccbd 6fe2 a83e
00000390: 8d9b c7bd 895d 0ebd 4e60 73bd ad84 3cbc
000003a0: 8773 6ebc e05a 2dbc 0960 50bd 6f2b 213e
000003b0: a776 3b3d 8cbf eb3b 6154 d73c 631a 6e3c
000003c0: f375 cc3c 2114 493c 7676 e7bb 787f 07bf
000003d0: 6bd0 aabd 3fc0 213a d664 e5be ce2f 5dbd
000003e0: a9af 223d 36b8 0f3b 18fc 713c 41d4 2b3d
000003f0: 9116 783c 8cc7 cdbd a7c6 6cbd 32c1 6ebd
