IIFDS-DDPG-random_start/TrainedModel/dynamicActor_h.pkl (torch, 279831 bytes, 6 tensors)

weight f4 [256, 9]
0	0x3f13938b	0.5764701
1	0xbebd8c65	-0.37021175
2	0x3fe6ee06	1.8041389
3	0xbda01704	-0.0781689
4	0x3e19c56a	0.15016714
5	0xbeb30c28	-0.34970212
6	0x3e644fe3	0.222961
7	0x3d294aad	0.041330982
8	0xbe62f303	-0.22163014
9	0x3e6e2b1a	0.2325863
10	0xbd3c2d96	-0.04594191
11	0xbf1dd1c4	-0.616482
12	0xbdc785a6	-0.09742288
13	0x3e1e267e	0.15444371
14	0x3f8d6bf1	1.1048566
15	0xbf1746fd	-0.59092695
16	0x3f86e006	1.0537117
17	0xbe0dcc45	-0.13847454
18	0xbf11c60c	-0.5694282
19	0x39261dc5	0.00015842084
20	0x3fa08511	1.2540609
21	0x3df0fbf3	0.117668055
22	0xbf4748b0	-0.7784529
23	0xbe1d5f31	-0.15368344
24	0x3e69d45b	0.22834913
25	0xbf0c03fc	-0.5469358
26	0x3eb63de8	0.35594106
27	0x3f125c50	0.5717211
28	0x3e8d4faa	0.2759984
29	0xbf571792	-0.8402034
30	0xbdfcc43b	-0.123421155
31	0xbe475816	-0.19467196
32	0xbf071cbb	-0.52778214
33	0xbe9d3640	-0.30705452
34	0x3e265622	0.16243795
35	0x3e839aea	0.25704128
36	0x3eed4bb3	0.46346816
37	0xbe985eb0	-0.2975974
38	0x3dcf5d0b	0.101251684
39	0x3de0b5e4	0.10972193
40	0xbd7cc2fb	-0.061709385
41	0x3e118cb7	0.14213835
42	0xbe111375	-0.14167579
43	0x3ec98944	0.39362538
44	0x3f453196	0.7702879
45	0x3f801cb3	1.0008758
46	0x3d3b8fa1	0.045791272
47	0x3f017192	0.5056392
48	0x3db303f1	0.08740986
49	0xbd64d519	-0.05586729
50	0x3e95781e	0.29193205
51	0xbed8d2a6	-0.42348212
52	0xbdcd04e6	-0.100107
53	0xbe808a3a	-0.25105458
54	0x3e35bc88	0.177477
55	0x3e0a1af3	0.13486843
56	0x3e591da8	0.21202719
57	0xbe5a22a6	-0.2130228
58	0xbe357ca0	-0.17723322
59	0x3ea18188	0.31544137
60	0xbe3d743e	-0.18501374
61	0xbe42ab23	-0.19010596
62	0xbdb6a79b	-0.08918687
63	0xbdf84045	-0.121216334
64	0xbf46710b	-0.7751624
65	0x3f22ab57	0.63542694
66	0xbdbdecc1	-0.09273673
67	0x3cae91e0	0.021309793
68	0x3ecdfad4	0.4023043
69	0xbee5dac4	-0.44893467
70	0x3e63923f	0.22223757
71	0x3c77f0c9	0.015133091
72	0xbea955af	-0.33073184
73	0x3e5fc7b3	0.21853523
74	0x3f696eff	0.9118499
75	0x3e7b6294	0.24549323
76	0x3d86874a	0.06568773
77	0x3f5915bc	0.8479879
78	0xbe8f2145	-0.2795507
79	0x3e47e27e	0.19519994
80	0x3d482d0e	0.048871092
81	0x3df7a214	0.12091461
82	0xbee1e94b	-0.441233
83	0x3e606024	0.21911675
84	0x3ebf3873	0.37347755
85	0xbf2490e5	-0.6428359
86	0x3e1cd6c3	0.153163
87	0xbedd028c	-0.43166006
88	0xbd3b0f83	-0.04566909
89	0xbeb4d84d	-0.35321274
90	0xbe296b8a	-0.16544929
91	0x3ebdb362	0.3705092
92	0x3e0590e9	0.1304356
93	0xbf322f36	-0.6960329
94	0xbf77ab19	-0.9674545
95	0xbf30bf46	-0.6904186
96	0x3eeb9994	0.46015608
97	0xbc854725	-0.016269276
98	0x3f049fa6	0.51806104
99	0x3ebdaf13	0.37047634
100	0xbe5a79e9	-0.21335568
101	0xbdb14881	-0.08656407
102	0x3cc80be8	0.02441974
103	0xbeaada1f	-0.33369538
104	0x3e6d4e2a	0.23174348
105	0xbf40220e	-0.75051963
106	0x3e010035	0.12597735
107	0x3f188f56	0.59593713
108	0xbea55c46	-0.32296962
109	0x3df1ea3a	0.11812253
110	0xbdf6c186	-0.120486304
111	0x3d68efb8	0.05686924
112	0xbf05b844	-0.5223429
113	0x3db9ff9f	0.09081959
114	0x3f2cd7e3	0.67516917
115	0x3eba46a8	0.3638203
116	0xbf980eab	-1.1879476
117	0xbe85486b	-0.26031813
118	0xbd9c860a	-0.076427534
119	0x3ebf1d94	0.37327254
120	0xbe6414c6	-0.2227355
121	0xbea3a8ef	-0.31964824
122	0x3e9a8610	0.30180407
123	0xbe61e008	-0.22058117
124	0xbf0a3a1e	-0.5399493
125	0x3e9b1e8b	0.3029674
126	0xbe7de410	-0.2479403
127	0xbee3e646	-0.44511622
128	0xbe6e384f	-0.23263668
129	0xbe256ecd	-0.16155548
130	0xbe313f64	-0.17309338
131	0xbe2243fd	-0.15846248
132	0xbeedbdcc	-0.46433866
133	0xbf2ec776	-0.68273103
134	0xbf13dc48	-0.57758
135	0x3f3b6e06	0.7321476
136	0xbebfd1e6	-0.37464827
137	0xbe9b3524	-0.3031398
138	0x3e8f2175	0.27955213
139	0xbecd04d4	-0.40042746
140	0xbe9ea0d1	-0.30982068
141	0x3dbebdf8	0.093135774
142	0x3f1a13b4	0.60186315
143	0x3ef4c636	0.47807473
144	0x3eefd8c1	0.46845058
145	0xbe8c7067	-0.27429506
146	0xbdf17bf0	-0.11791217
147	0x3d956413	0.07294478
148	0x3c6e9094	0.014560837
149	0xbecef913	-0.40424404
150	0xbefe4dbd	-0.49668685
151	0x3f7ba92d	0.98305017
152	0x3b558e19	0.0032585918
153	0x3dfb1d6d	0.12261472
154	0xbe50e703	-0.20400624
155	0xbf8771b6	-1.0581577
156	0x3dbc23fb	0.0918655
157	0xbe9071d5	-0.28211847
158	0x3f3baee5	0.7331374
159	0x3d8ba58b	0.06818684
160	0x3e95350b	0.2914203
161	0x3abeba7a	0.0014551424
162	0x3e795ac9	0.24351038
163	0x3d6fa3d5	0.05850585
164	0x3f0a821c	0.5410478
165	0xbc345798	-0.011007212
166	0xbde71e8c	-0.11285123
167	0xbd6371d5	-0.05552848
168	0x3f82b2c8	1.021081
169	0x3f60aa61	0.8775998
170	0xbf6ffb90	-0.9374323
171	0x3ea5a6c6	0.323538
172	0x3dcdee00	0.100551605
173	0xbd3e8a40	-0.046518564
174	0xbe9c3282	-0.30507284
175	0xbeaa8e97	-0.33311912
176	0xbe8610b0	-0.26184607
177	0xbe8ec28e	-0.27882808
178	0xbe639f46	-0.22228727
179	0xbdc6cd26	-0.09707098
180	0xbea3658d	-0.31913415
181	0xbc940d66	-0.018072795
182	0xbed7a5d6	-0.4211871
183	0xbe2812d8	-0.16413438
184	0xbe990dc9	-0.2989333
185	0x3e084633	0.13308029
186	0xbf7da9d5	-0.9908727
187	0x3f197553	0.5994465
188	0x3f387670	0.7205572
189	0xbedf6d54	-0.43638098
190	0x3e9fa694	0.31181777
191	0x3e69f1de	0.22846171
192	0xbe6052df	-0.21906613
193	0xbe94dff3	-0.2907711
194	0xbe5f12d2	-0.21784523
195	0xbf2da7ba	-0.67834055
196	0xbe6e97bf	-0.23300074
197	0xbeda0297	-0.425801
198	0x3e9445d2	0.2895952
199	0xbefd3b75	-0.49459425
200	0xbf2716fb	-0.6526944
201	0x3e8b7672	0.27238804
202	0xbeeb4136	-0.4594819
203	0x3dcff268	0.10153657
204	0x3ea9152e	0.3302397
205	0x3df0473c	0.11732337
206	0x3e340b5f	0.17582463
207	0x3cc12303	0.023576265
208	0x3e36612f	0.1781051
209	0x3ea02f7c	0.31286228
210	0x3da166a2	0.07880904
211	0xbe176fdd	-0.14788766
212	0xbde67968	-0.11253625
213	0x3d629678	0.05531928
214	0xbea45dec	-0.32102907
215	0x3dc9a5fc	0.09846112
216	0x3f1b7381	0.6072312
217	0xbf16ad23	-0.58857936
218	0xbf229f2b	-0.6352412
219	0x3dad038a	0.08447941
220	0xbd884de8	-0.066554844
221	0xbe3e1b15	-0.18565018
222	0xbec595f0	-0.38590956
223	0x3f0b04c9	0.54304177
224	0xbeb2ea3d	-0.34944335
225	0xbe944127	-0.28955957
226	0xbe9073c6	-0.28213328
227	0x3f9bec1a	1.2181427
228	0xbc023f5b	-0.007949675
229	0xbd9897e0	-0.07450843
230	0xbe9a5476	-0.30142564
231	0xbf22e580	-0.6363144
232	0x3ef02230	0.46901083
233	0xbedcce08	-0.4312594
234	0xbeb0ba61	-0.34517196
235	0x3db11791	0.08647073
236	0xbf985113	-1.1899742
237	0x3e1bfb58	0.15232599
238	0xbeaa9799	-0.33318785
239	0x3ed1daee	0.40987343
240	0x3f0b05ef	0.5430593
241	0xbda54f62	-0.08071782
242	0xbeedb539	-0.46427324
243	0x3d4f075c	0.050544128
244	0xbe1e680c	-0.15469378
245	0xbde5fd66	-0.112299725
246	0xbed84bfc	-0.4224547
247	0xbf2480c6	-0.6425899
248	0x3f1c426f	0.6103887
249	0xbeb8feb8	-0.36131835
250	0xbf368a63	-0.7130491
251	0xbf0ea865	-0.557257
252	0xbe5b933d	-0.21442886
253	0x3b6cc4bf	0.0036128012
254	0x3f3df7ca	0.7420622
255	0xbe7ebb79	-0.24876203

bias f4 [256]
0	0x3deda878	0.116043985
1	0x3ed32966	0.41242522
2	0xbdb76474	-0.08954707
3	0xbdad417a	-0.08459754
4	0xbf508041	-0.814457
5	0xbebdb77a	-0.37054044
6	0xbea64bee	-0.32479805
7	0x3e040c00	0.12895203
8	0xbef8c30e	-0.48586315
9	0x3ecec3e1	0.4038382
10	0x3ebb9d9c	0.36643684
11	0x3ef619db	0.480666
12	0x3d3c6ae3	0.046000373
13	0x3f15463b	0.5831029
14	0x3f0a23ec	0.5396106
15	0xbec98e5d	-0.39366427
16	0xbf35b384	-0.70977044
17	0x3f51e1ab	0.81984967
18	0xbe904aa9	-0.2818196
19	0xbe380f2e	-0.1797454
20	0x3f26d127	0.6516289
21	0x3f05a486	0.5220417
22	0x3ec0d81a	0.37664872
23	0xbf371ab8	-0.71525145
24	0xbdc1c2f8	-0.094610155
25	0x3e0b4bff	0.13603209
26	0x3e328734	0.17434388
27	0x3e644628	0.22292387
28	0x3ecce5e5	0.40019146
29	0xbee26d17	-0.44223854
30	0xbf201af3	-0.6254112
31	0xbd433ade	-0.047663562
32	0xbf1a2ab7	-0.6022143
33	0xbeef981d	-0.4679574
34	0x3cded465	0.027200887
35	0x3f3cf11f	0.7380542
36	0xbe0dc5b2	-0.13844946
37	0x3e946288	0.28981423
38	0xbf04eac4	-0.51920724
39	0x3d98343b	0.07431837
40	0xbe0f4078	-0.13989437
41	0x3e249e79	0.16076078
42	0x3bfc0b4b	0.007691776
43	0xbe30488d	-0.17215176
44	0xbecac235	-0.39601293
45	0x3c5065e6	0.012719607
46	0xbda5c533	-0.080942534
47	0xbe5afdda	-0.21385899
48	0x3f2b8a82	0.6700822
49	0xbf4722fb	-0.7778775
50	0x3ed2b947	0.4115698
51	0xbf04c3dc	-0.5186136
52	0xbec8cc04	-0.39218152
53	0xbc49af33	-0.012309837
54	0xbf45196c	-0.76991916
55	0xbeb0a050	-0.3449731
56	0x3e7f44f2	0.24928644
57	0xbe27638e	-0.16346571
58	0xbde99175	-0.11404697
59	0xbdd8ae3c	-0.105801076
60	0x3e90eb6d	0.28304616
61	0x3e4e3898	0.20138776
62	0x3f6e9769	0.93199784
63	0x3ec3112e	0.38099045
64	0xbef53b94	-0.47897017
65	0x3e81cb6e	0.25350517
66	0x3e669c5c	0.22520584
67	0xbeec81a8	-0.4619267
68	0xbe43a9aa	-0.1910769
69	0xbefa67f0	-0.48907423
70	0x3e9144d9	0.2837284
71	0x3efc5d3e	0.49289888
72	0x3e924d93	0.2857481
73	0xbe907b4b	-0.28219065
74	0x3da159fd	0.07878492
75	0xbf10c60c	-0.56552196
76	0x3cb56154	0.022141136
77	0xbdd64396	-0.1046211
78	0xbe2ced06	-0.16887292
79	0xbe67d5bf	-0.22640131
80	0x3e16dea9	0.14733376
81	0x3edb5e62	0.42845446
82	0x3e34c073	0.17651539
83	0x3f0b8b47	0.54509395
84	0xbe58c9a6	-0.21170673
85	0xbe19ba13	-0.15012388
86	0x3eff09aa	0.4981206
87	0x3d974844	0.073868304
88	0xbd12d0b6	-0.035843574
89	0xbe80a458	-0.25125384
90	0xbe4bfbf4	-0.19920331
91	0x3e563b73	0.20921116
92	0x3e0830a2	0.13299802
93	0xbf3075da	-0.6892983
94	0x3f1bae63	0.6081297
95	0xbe1b8dc3	-0.15190797
96	0x3f099a80	0.53751373
97	0x3e3ffeb9	0.18749513
98	0x3f03a8b3	0.5142929
99	0xbd4308ea	-0.047615923
100	0x3d8aa54e	0.067698106
101	0xbf141636	-0.5784639
102	0x3f0731c0	0.5281029
103	0xbf049c5e	-0.518011
104	0x3d5f44a0	0.054508805
105	0x3f26963e	0.65073
106	0xbdbb6073	-0.091492556
107	0xbe1a8349	-0.15089144
108	0xbf6918da	-0.91053545
109	0xbd356638	-0.044286937
110	0xbed5b643	-0.41740617
111	0x3f3a8846	0.72864187
112	0x3f17fe8d	0.5937279
113	0x3ef2890f	0.47370192
114	0xbcb8bf1f	-0.022552071
115	0x3e13d455	0.14436467
116	0x3e5e3121	0.21698429
117	0xbf1b1758	-0.60582495
118	0x3d93acd3	0.07210698
119	0x3da67e6c	0.08129582
120	0x3e023102	0.12714007
121	0xbf08f246	-0.5349468
122	0xbee0147a	-0.43765622
123	0x3ef78fb0	0.48351812
124	0x3df35dbf	0.11883115
125	0x3c75a816	0.014993688
126	0xbeb160bb	-0.34644112
127	0xbe8c3fbe	-0.2739238
128	0x3e911678	0.28337455
129	0xbf56d356	-0.83916223
130	0xbe38ff7a	-0.18066207
131	0x3ebbc551	0.36673978
132	0xbe902b3e	-0.2815799
133	0x3da02331	0.07819212
134	0xbeb91aa0	-0.36153126
135	0xbe20d6bb	-0.15706913
136	0xbed2cc96	-0.41171712
137	0x3ea5be4f	0.32371756
138	0x3e68148c	0.22664088
139	0x3c4bdaf4	0.012442339
140	0xbe81ce99	-0.25352934
141	0x3f60f634	0.87875676
142	0xbefb24d8	-0.49051547
143	0xbf32ab00	-0.69792175
144	0x3ed7bdff	0.42137143
145	0xbf219901	-0.6312409
146	0xbedac992	-0.4273191
147	0x3ea125f0	0.31474257
148	0xbe9b7d8d	-0.30369225
149	0xbe4ca450	-0.19984555
150	0xbd0ec736	-0.03485795
151	0xbddf35b2	-0.108989134
152	0x3e765274	0.24054891
153	0xbdcf72c9	-0.101293154
154	0xbe89b51b	-0.26895985
155	0xbe89699d	-0.2683839
156	0x3dc3d7d2	0.09562649
157	0x3edc9dde	0.43089193
158	0xbc174aad	-0.009234113
159	0xbec0de2c	-0.37669504
160	0x3de55e4a	0.11199625
161	0xbd9bf653	-0.07615342
162	0x3f0eebd3	0.5582859
163	0xbeb54b1c	-0.35408866
164	0xbe64bda1	-0.22337963
165	0x3e9bdbf9	0.30441263
166	0xbe704592	-0.23464039
167	0xbd485ade	-0.048914783
168	0xbd6a1ee6	-0.057158373
169	0xbcd4f8b9	-0.025997506
170	0xbf3726cb	-0.7154357
171	0xbe54031d	-0.20704313
172	0xbf32f63a	-0.6990696
173	0xbd8be9b8	-0.06831688
174	0x3e25b2d8	0.16181505
175	0xbef98f34	-0.48742068
176	0xbeab2b4d	-0.33431473
177	0x3e726a35	0.23673327
178	0xbda3e1b6	-0.08002035
179	0xbf243506	-0.6414341
180	0x3c2c5694	0.010518689
181	0xbe92f4cc	-0.2870239
182	0x3d5adc6a	0.05343286
183	0xbf257246	-0.6462749
184	0xbcc2f82a	-0.023799974
185	0xbebad385	-0.36489502
186	0xbf2d44fc	-0.67683387
187	0x3d8d5807	0.069015555
188	0x3e4e008c	0.20117396
189	0x3dcc9c58	0.09990758
190	0xbe6ce2ed	-0.2313344
191	0xbe97f5c2	-0.29679686
192	0x3ec840c9	0.39111927
193	0x3e50f1bf	0.20404719
194	0x3e531689	0.20614065
195	0xbe270eb8	-0.16314209
196	0x3d88f273	0.066868685
197	0xbe301a50	-0.17197537
198	0xbd0ed09c	-0.034866914
199	0xbe9bafbe	-0.30407518
200	0xbdb4467f	-0.088025086
201	0xbeb7e7e8	-0.35919118
202	0xbe84b764	-0.25921166
203	0xbcb8733c	-0.022515886
204	0xbe9871db	-0.29774365
205	0x3d8a8ff2	0.06765737
206	0x3c2e5176	0.010639539
207	0xbeca145e	-0.39468664
208	0x3e65e4f8	0.22450626
209	0xbe6e769d	-0.23287435
210	0xbbfcba90	-0.0077126697
211	0x3e65349e	0.22383353
212	0x3d8e0eed	0.069364406
213	0xbd941765	-0.07231025
214	0x3ee950d9	0.45569494
215	0x3d702777	0.058631387
216	0xbcbad0a0	-0.022804558
217	0x3ebfc82d	0.3745741
218	0x3eb201ce	0.34767002
219	0x3f6f5a7f	0.9349746
220	0x3e57e7e5	0.21084554
221	0xbe18af5f	-0.14910649
222	0xbe810ffa	-0.25207502
223	0xbee37de1	-0.44431975
224	0x3daf1b66	0.08550148
225	0xbefd7f95	-0.495114
226	0xbf4db2fb	-0.8035123
227	0xbe631a31	-0.2217796
228	0xbeef7b6e	-0.46773857
229	0x3f100fd6	0.56274164
230	0x3e7c7214	0.24652892
231	0x3e98e5f3	0.29862937
232	0x3a9a2452	0.0011760092
233	0x3e9e2dd9	0.30894354
234	0xbf05f551	-0.5232745
235	0x3ea8077a	0.32818204
236	0x3e8bb89c	0.27289283
237	0x3cd27bcc	0.025693797
238	0x3e996603	0.2996064
239	0xbeb2d7a5	-0.3493015
240	0xbee7bc8e	-0.45261043
241	0xbe96e9d0	-0.2947526
242	0x3ceef560	0.029169738
243	0xbdebc07f	-0.11511325
244	0xbf2014d3	-0.62531775
245	0x3ea16293	0.3152052
246	0x3d8e56e4	0.06950167
247	0xbe7258cd	-0.23666687
248	0xbeea71c9	-0.45789936
249	0xbf2f8076	-0.6855539
250	0x3e143e45	0.14476879
251	0x3e8e9fca	0.27856284
252	0x3e908563	0.28226766
253	0xbdfd7cfc	-0.123773545
254	0xbe8bb33c	-0.27285182
255	0x3f036597	0.5132689

weight f4 [256, 256]
0	0xbc394b8a	-0.011309514
1	0xbb3dc3c5	-0.00289558
2	0x3d584870	0.052803457
3	0xbe3d3e45	-0.18480785
4	0x3d1f640e	0.03891378
5	0xbcbdf3de	-0.023187574
6	0xbd082188	-0.033235103
7	0xbda321c6	-0.07965426
8	0xbd9ba628	-0.07600051
9	0xbd8224b0	-0.06354654
10	0x3c7613b7	0.015019349
11	0xbcb429e1	-0.021992626
12	0xbd944ff0	-0.07241809
13	0xbcfa215c	-0.030533485
14	0xbd4f7279	-0.05064628
15	0xbd2c970d	-0.04213624
16	0xbd3dbc6b	-0.046322268
17	0xbdd6040a	-0.10449989
18	0x3d6911db	0.056901794
19	0x3ab32380	0.0013667196
20	0xbcfcb4c4	-0.030847915
21	0x3cda29d2	0.02663127
22	0xbde80410	-0.113289
23	0xbda8c07e	-0.0823984
24	0x3bcf1207	0.0063192877
25	0x3d049481	0.032368187
26	0xbdea8bdf	-0.114524595
27	0x3d880dbb	0.06643244
28	0x3d1e060c	0.038579985
29	0xbe0b2f8d	-0.13592358
30	0xb9ff64a5	-0.00048712376
31	0x3cab4df2	0.02091119
32	0x3cb09287	0.021554245
33	0xbd8e7c23	-0.06957271
34	0xbdbcad61	-0.09212757
35	0xbdfcdbb1	-0.1234659
36	0xbd1bab8b	-0.038005393
37	0xbc3369aa	-0.010950485
38	0xbd60b4ec	-0.05486004
39	0xbd33081c	-0.043708906
40	0x3a7a9e63	0.00095603446
41	0x3d4c8369	0.04993001
42	0xbd8e0e13	-0.06936278
43	0xbd78b6ff	-0.060721394
44	0xbc25fdcc	-0.010131311
45	0xbd2a8abf	-0.041636225
46	0x393fa58f	0.00018276855
47	0xbc7b35c9	-0.015332648
48	0x3dce984a	0.100876406
49	0xbd932e8e	-0.07186614
50	0x3cfcef6f	0.03087589
51	0xbd485324	-0.048907414
52	0x3d69906b	0.057022493
53	0xbd7bfc1a	-0.06151972
54	0x3d8d732c	0.06906733
55	0xbbe3bcbf	-0.0069499905
56	0xbd4201fd	-0.047365177
57	0xbdec58ca	-0.11540373
58	0x3d00eb9f	0.031474706
59	0xbca1775f	-0.01971024
60	0xbde3ac60	-0.11116862
61	0xbd1b084a	-0.037849702
62	0xbd8eb9cc	-0.06969032
63	0xbd4ef430	-0.050525844
64	0xbd927606	-0.071514174
65	0xbca7fb17	-0.020505471
66	0xbd993fce	-0.07482873
67	0xbe0ea898	-0.13931501
68	0x3b94efe4	0.0045451988
69	0xbccd1cb5	-0.025038103
70	0xbd8ba179	-0.06817908
71	0xbccc47ba	-0.024936546
72	0x3d109525	0.035298485
73	0xbe231281	-0.15925027
74	0x3c61de0e	0.013785852
75	0xbd569c57	-0.05239519
76	0xbd183b3a	-0.037165858
77	0xbdbfe8e8	-0.09370595
78	0xbaabefcf	-0.0013117733
79	0xbd9b3393	-0.075781964
80	0xbcdc383d	-0.026882285
81	0x391314e3	0.00014026793
82	0xbd1be57f	-0.03806066
83	0x3a9ce86c	0.0011971123
84	0x3ba13da2	0.0049206773
85	0xbd5a587a	-0.053307034
86	0xbd33536e	-0.043780737
87	0xbdc8ddad	-0.09807906
88	0x3c0118f7	0.007879487
89	0xbdd1e149	-0.10248048
90	0xbbc09d20	-0.0058781058
91	0x3cd37662	0.025813285
92	0x3cda0cf9	0.026617514
93	0xbd12db01	-0.03585339
94	0xbd8cfb9a	-0.06883927
95	0xbd5d79ab	-0.05407111
96	0xbd7410f3	-0.059586477
97	0xbe040fa9	-0.12896599
98	0xbd688a5d	-0.05677258
99	0x3d04619e	0.032319658
100	0x3cfb2a9f	0.030659972
101	0xbdb6a375	-0.08917896
102	0xbd81bb6d	-0.06334577
103	0x3d5a7db6	0.053342544
104	0xbc7fee65	-0.0156208025
105	0xbc4cc355	-0.012497743
106	0x3c873122	0.01650292
107	0xbd0b25cb	-0.03397159
108	0xbdd7384f	-0.10508787
109	0x3d43e53a	0.04782603
110	0xbc9ddf64	-0.01927156
111	0xbd693fdc	-0.056945667
112	0xbd8f7d6a	-0.07006343
113	0xbd12d90f	-0.035851534
114	0xbd0c2029	-0.034210358
115	0xbd47a718	-0.048743337
116	0x3ddb77ce	0.1071621
117	0x3da27acd	0.07933579
118	0xbe306100	-0.17224503
119	0x3df11894	0.11772266
120	0xbd702159	-0.058625553
121	0x3ca75049	0.020424025
122	0xbe00d620	-0.12581682
123	0x3e13c763	0.14431529
124	0xbd052552	-0.032506295
125	0x3c301b76	0.010748735
126	0xbde61364	-0.11234167
127	0x3b8c2754	0.004277149
128	0xbd6fb9dc	-0.05852686
129	0xbca459b8	-0.020062312
130	0xbc69193a	-0.014227206
131	0xbcdc50d4	-0.02689401
132	0x3c3d2144	0.011543576
133	0xbd1a61e4	-0.037691012
134	0xbd3fcf9b	-0.046828847
135	0xbcac6fcb	-0.0210494
136	0xbbe18198	-0.006881904
137	0xbc7cb875	-0.015424837
138	0xbcd02955	-0.025410334
139	0xbd993938	-0.07481617
140	0xbd6a84f8	-0.057255715
141	0x3cd52d5c	0.026022606
142	0xbd4f1325	-0.050555367
143	0xbc4facdf	-0.012675493
144	0xbc6dc4c2	-0.014512243
145	0xbcb719c0	-0.022351146
146	0xbd16eda3	-0.03684772
147	0xbd903b6a	-0.07042582
148	0xbc247949	-0.010038682
149	0x3d6e8fa8	0.05824247
150	0xbcb656d5	-0.022258202
151	0xbd96a212	-0.07355131
152	0xbd94c217	-0.07263582
153	0xbb41b2bd	-0.0029556
154	0xbc2e48e9	-0.0106375
155	0xbdc94084	-0.098267585
156	0xbda60de5	-0.08108119
157	0xbd42910c	-0.04750161
158	0xbd852af9	-0.06502337
159	0x3ba980c8	0.0051728226
160	0xbc6d1495	-0.014470239
161	0xbe38e4bd	-0.18056007
162	0xbd293c3d	-0.041317213
163	0x3b4ead5d	0.0031536438
164	0xbd84b634	-0.06480065
165	0xbd98176b	-0.074263416
166	0xbcbb95dd	-0.022898609
167	0xbde48539	-0.11158223
168	0xbc5c4742	-0.013444724
169	0x3ca0615c	0.019577675
170	0x3c9e1c6e	0.019300666
171	0xbd45562a	-0.048177876
172	0xbda903b4	-0.082526594
173	0x3ca6875f	0.020328222
174	0x3c9d93e0	0.019235551
175	0xbdb17a8e	-0.086659536
176	0xbc0d0257	-0.008606515
177	0xbd7dec00	-0.061992645
178	0xbd29d589	-0.04146341
179	0x3d4d1852	0.05007202
180	0xbc5156b1	-0.0127770165
181	0x3cfc11d0	0.030770212
182	0x3d3b3ae1	0.04571045
183	0xbd4b7bc3	-0.049678575
184	0x3bb5b913	0.005545744
185	0xbd403d6f	-0.046933588
186	0xbd2dcd9b	-0.04243241
187	0xbc5e6789	-0.013574489
188	0xbc600fcd	-0.013675642
189	0x3cd5b24f	0.026086
190	0xbd25880e	-0.040412955
191	0xbd85f1d7	-0.06540268
192	0xbd272ece	-0.04081612
193	0xbc375e1c	-0.011191871
194	0xbd5a757e	-0.053334706
195	0xbd963d95	-0.073359646
196	0xbdef15e5	-0.11674098
197	0x3cce2e46	0.02516855
198	0xbd6cdaaf	-0.05782574
199	0xbce32bfe	-0.027730938
200	0x3c874120	0.016510546
201	0xbda0b90f	-0.07847797
202	0x3b940068	0.00451665
203	0x3ce5c430	0.028047651
204	0x3c2d7fb1	0.010589526
205	0xbd386b29	-0.04502407
206	0xbd164875	-0.036690194
207	0xbb1985ec	-0.002342577
208	0xbd2282a6	-0.039675377
209	0x3aa0e65b	0.0012275683
210	0x3d54b315	0.0519286
211	0xbdef2aaa	-0.116780594
212	0xbd8fc785	-0.07020477
213	0x3d38935c	0.045062408
214	0xbde26b22	-0.1105559
215	0xbe3d360d	-0.1847765
216	0x3d17387c	0.036919102
217	0xbd833062	-0.06405713
218	0xbe2aab05	-0.16666801
219	0x3d53b2f4	0.051684335
220	0x3cd1f3be	0.02562892
221	0xbcc9413b	-0.024567237
222	0xbd97d0f3	-0.07412901
223	0xbbd74883	-0.0065699234
224	0xbda81889	-0.08207805
225	0x3b5a7026	0.0033331006
226	0xbd5356bf	-0.0515964
227	0x3ce75f87	0.028243793
228	0x3ae5684e	0.0017502399
229	0xbdacaddf	-0.08431601
230	0xbde07627	-0.10960036
231	0xbd8ad1df	-0.06778311
232	0xbd2189e8	-0.03943816
233	0xbdc14e34	-0.09438744
234	0xbd0320cd	-0.032013703
235	0xbd94b530	-0.07261121
236	0xbd1aee1c	-0.037824735
237	0xbcd77c01	-0.026304247
238	0x3d75cadc	0.060007915
239	0xbc3f2662	-0.011666866
240	0xbc850384	-0.016237028
241	0x3d83b293	0.06430545
242	0xbcc01526	-0.023447584
243	0x3c909219	0.01764779
244	0xbd278eb6	-0.040907584
245	0xbc5fa8cd	-0.013651085
246	0xbe196ced	-0.14982958
247	0xbbc28c30	-0.005937122
248	0xbd094df3	-0.033521604
249	0xbd6e81fd	-0.058229435
250	0xbb678d68	-0.0035332087
251	0x3cfd3898	0.030910775
252	0x3d5ccb58	0.05390486
253	0xbd922eef	-0.07137858
254	0xbd25ba6a	-0.04046098
255	0xbc8cd793	-0.017192638

bias f4 [256]
0	0xbdfe026f	-0.12402808
1	0xbc9c9e72	-0.019118521
2	0xbec0428a	-0.37550765
3	0xbe30c4dd	-0.17262597
4	0xbce9057d	-0.028445
5	0x3e2448a1	0.1604333
6	0xbe28c916	-0.16482958
7	0xbe02b02a	-0.12762514
8	0xbe6ffc6d	-0.23436137
9	0x3e87accb	0.26499018
10	0xbd80bdeb	-0.06286224
11	0xbdeb8d27	-0.11501532
12	0xbe4f0905	-0.20218284
13	0xbdaffcf1	-0.085931666
14	0x3e5c317b	0.2150325
15	0xbe89fdcb	-0.2695144
16	0x3d201d22	0.039090283
17	0xbd372cbf	-0.044720408
18	0xbe64b54b	-0.22334783
19	0xbe860ee8	-0.26183248
20	0x3c8febe7	0.017568542
21	0x3d6eaff0	0.058273256
22	0xbc32e8bf	-0.010919749
23	0xbdb3a7b5	-0.08772222
24	0xbe0d93de	-0.13825938
25	0xbe63f5b0	-0.22261691
26	0xbe83c3a5	-0.25735202
27	0x3ddc9f0c	0.10772523
28	0xbe7dbe8a	-0.24779716
29	0x3e03c162	0.12866738
30	0xbc5cd829	-0.013479271
31	0x3be63e15	0.0070264437
32	0x3ec1de7d	0.37865058
33	0xbecceb2b	-0.4002317
34	0xbd84357e	-0.06455515
35	0x3d86718e	0.065646276
36	0xbdc05357	-0.09390896
37	0xbe3842dd	-0.17994256
38	0x3e57816e	0.21045467
39	0xbda22441	-0.07917071
40	0xbdda8386	-0.10669617
41	0x3c105b2f	0.008810802
42	0xbd2ec3a3	-0.042667042
43	0xbb3f1658	-0.0029157605
44	0x3b261ec6	0.0025347932
45	0xbe8d334d	-0.27578202
46	0xbeba7770	-0.3641925
47	0x3aaf1c18	0.0013359813
48	0x3da21e71	0.079159625
49	0x3c5f5762	0.0136316735
50	0xbe825981	-0.2545891
51	0xbde3dad5	-0.11125723
52	0xbd6616b4	-0.056173995
53	0x3d86fb7c	0.065909356
54	0xbdcbd56f	-0.099528186
55	0xbe0228f4	-0.12710935
56	0xbd92fe03	-0.07177355
57	0xbdba3112	-0.09091391
58	0xbd96e447	-0.07367759
59	0x3eb00dfd	0.34385672
60	0xbe975e40	-0.29564095
61	0x3ecb9750	0.3976388
62	0xbdaa5711	-0.08317388
63	0x3e3a3406	0.18183908
64	0xbe9c9558	-0.3058269
65	0xbe20d8bf	-0.15707682
66	0xba8c6238	-0.0010710424
67	0xbd84b4c0	-0.06479788
68	0x3ec5aac5	0.3860685
69	0xbc069ef7	-0.008216611
70	0xbd1c54ca	-0.0381668
71	0xbe4d64b4	-0.20057946
72	0xbd543aeb	-0.051814
73	0xbf0259bd	-0.5091818
74	0xbdea2d23	-0.114343904
75	0x3ca5f0c6	0.020256411
76	0x3bd0ebc5	0.006375762
77	0xbdd5cc60	-0.10439372
78	0xbd672c73	-0.056438874
79	0xbe3dea66	-0.18546447
80	0x3ea3716a	0.31922466
81	0xbea0e851	-0.31427243
82	0x3be82f6d	0.0070857317
83	0xbcf3a084	-0.029739626
84	0xbdac2330	-0.08405149
85	0x3ea9dea0	0.33177662
86	0xbc817526	-0.015802931
87	0xbd82fb19	-0.06395549
88	0x3d6bfa0c	0.05761151
89	0x3cbe0d41	0.02319968
90	0xbc2351c3	-0.009968224
91	0xbf1a2741	-0.60216147
92	0x3df46195	0.11932675
93	0xbdff54f6	-0.12467377
94	0x3dd36806	0.10322575
95	0xbdc4cfbd	-0.096099354
96	0xbe165703	-0.1468163
97	0xbd9b7c6b	-0.0759209
98	0xbe4edfa6	-0.20202503
99	0x3e0ddc4f	0.13853572
100	0xbd736100	-0.05941868
101	0xbd70d6de	-0.058798663
102	0x3e2a73f0	0.16645789
103	0xbec79bae	-0.38985962
104	0xbe7c96dc	-0.24666923
105	0xbd582354	-0.052768067
106	0xbcaacca5	-0.020849535
107	0xbd8a2878	-0.06746
108	0xbde7d5c5	-0.1132007
109	0xbe6e86d1	-0.23293616
110	0xbe1cf959	-0.15329494
111	0xbdf7b8d6	-0.120958015
112	0xbe62abd8	-0.22135866
113	0xbdc7e65f	-0.09760737
114	0xbdb3741d	-0.08762381
115	0xbe8d3416	-0.275788
116	0xbe71408c	-0.23559779
117	0xbd238efb	-0.03993128
118	0xbd43894d	-0.047738362
119	0x3c206336	0.009789279
120	0xbec53dc6	-0.38523692
121	0xbd107783	-0.035270225
122	0xbd3d90dd	-0.04628073
123	0x3ecf21b5	0.40455404
124	0xbe1e82cc	-0.15479583
125	0xbb904168	-0.0044023283
126	0xbd6ccb14	-0.057810858
127	0xbe42668c	-0.18984431
128	0x3eca7dd6	0.3954913
129	0xbec1a4fb	-0.37821183
130	0xbd89a06e	-0.06720053
131	0xbdd2b448	-0.10288292
132	0xbdcc9a01	-0.099903114
133	0xbd8f5843	-0.069992565
134	0xbcd92fb0	-0.026511997
135	0xbd56283f	-0.052284475
136	0xbeb20b2b	-0.34774145
137	0xbcc600b1	-0.024170252
138	0xbdf4bea4	-0.11950424
139	0xbebf5266	-0.37367553
140	0xbd4cbc29	-0.04998413
141	0xbe5fa5d8	-0.21840608
142	0xbe33de60	-0.17565298
143	0x3b901938	0.0043975376
144	0x3de46950	0.11152899
145	0xbcaadbc8	-0.020856753
146	0x3ecaa600	0.39579773
147	0x3c22e562	0.009942384
148	0xbd3173c4	-0.043323293
149	0xbe948f97	-0.290158
150	0xbe0301e7	-0.12793694
151	0xbea7961a	-0.32731706
152	0xbdbe78d4	-0.0930039
153	0xbe5c180e	-0.21493551
154	0xbf1ce028	-0.61279535
155	0xbe4ac90e	-0.19803259
156	0xbdfd1396	-0.12357251
157	0xbd86b5b6	-0.06577627
158	0xbc26d6c6	-0.010183042
159	0xbdf8baf4	-0.121450335
160	0x3d1920bb	0.03738473
161	0xbd7d0423	-0.061771523
162	0xbdb92b19	-0.09041423
163	0xbf022e6c	-0.50852084
164	0xbdf88810	-0.12135327
165	0x3e87349d	0.26407328
166	0xbc4b4535	-0.012406637
167	0xbdbfe82c	-0.09370455
168	0xbdc679b3	-0.09691181
169	0xbea70dba	-0.3262766
170	0xbd835f38	-0.06414646
171	0xbce6813a	-0.028137792
172	0xbecd0029	-0.40039185
173	0x3e4f7b45	0.20261867
174	0x3dc79553	0.09745278
175	0x3dd837c8	0.105575144
176	0xbd962383	-0.07330992
177	0xbdbd5bd0	-0.092460275
178	0xbdea9bf5	-0.11455528
179	0xbdbe0f6c	-0.09280285
180	0x3dc46e57	0.09591358
181	0x3d3e9196	0.04652556
182	0xbdf333a1	-0.11875082
183	0xbdfd793c	-0.12376639
184	0xbe0a5369	-0.13508381
185	0xbd4abe2d	-0.049497772
186	0x3c58bbe7	0.013228393
187	0xbe804f6c	-0.25060594
188	0xbdcf2d3c	-0.1011605
189	0xbdddf57d	-0.10837839
190	0xbeb00e7b	-0.34386048
191	0x3d5300a6	0.05151429
192	0xbeb37481	-0.35049823
193	0xbcd124df	-0.025530277
194	0x3cb2cfc6	0.02182759
195	0xbe4c081c	-0.19924968
196	0xbe449548	-0.19197571
197	0x3ea4c820	0.32183933
198	0x3c5c11d0	0.013431981
199	0xbf00a2db	-0.502485
200	0xbd993c9e	-0.07482265
201	0xbee95afc	-0.45577228
202	0xbe9ac7bb	-0.30230507
203	0x3c80943a	0.01569568
204	0xbe6271a3	-0.22113661
205	0xbd5ebf06	-0.054381393
206	0x3ea79f54	0.32738745
207	0xbe829467	-0.25503847
208	0xbcc034f1	-0.023462744
209	0xbd3d01cc	-0.04614429
210	0xbe012f43	-0.12615685
211	0x3e86ffcf	0.2636704
212	0xbd7f7076	-0.06236311
213	0x3ddaa702	0.106763855
214	0xbd8d67d5	-0.0690457
215	0xbdbce244	-0.09222844
216	0xbd067d3e	-0.032834284
217	0xbc780887	-0.015138752
218	0xbdc62eb3	-0.09676876
219	0x3e31af2d	0.1735198
220	0xbeb59d89	-0.35471752
221	0xbe1a9f4b	-0.15099828
222	0x3e0ac774	0.13552648
223	0xbee1f404	-0.44131482
224	0xbc930c4d	-0.017950201
225	0x3abd2d41	0.0014433042
226	0xbc048982	-0.008089425
227	0xbd9c9257	-0.076450996
228	0xbd692d51	-0.056927983
229	0xbd163c3b	-0.036678534
230	0xbe962be5	-0.29330364
231	0xbe3b548f	-0.18293975
232	0xbdf2274a	-0.118239
233	0xbc5c1c90	-0.013434544
234	0xbdf3241d	-0.118721224
235	0xbd84a4e2	-0.064767614
236	0xbd9fa728	-0.077955544
237	0xbd811e61	-0.063046224
238	0xbd9e3368	-0.07724649
239	0xbe10e3e3	-0.14149432
240	0xbdabf709	-0.083967276
241	0xbd0f04b9	-0.034916613
242	0xbdab6cc2	-0.08370353
243	0xbe651e00	-0.22374725
244	0x3df59599	0.11991424
245	0x3bd94ed9	0.006631714
246	0xbec0d6e1	-0.3766394
247	0xbda922ad	-0.08258567
248	0xbe0c6243	-0.13709359
249	0xbdcce46c	-0.100045055
250	0x3df25f3a	0.11834569
251	0x3ec9afb7	0.39391872
252	0x3d1aa040	0.037750483
253	0xbe0caa5f	-0.13736866
254	0xbd4731e7	-0.048631575
255	0xbe10deb4	-0.14147455

weight f4 [3, 256]
0	0xbbfd7fa4	-0.007736163
1	0x3b924385	0.0044636154
2	0xbfddd29b	-1.7329897
3	0xbe4e51ae	-0.20148346
4	0xbf868598	-1.050952
5	0xbcd343c3	-0.025789147
6	0xbe075a80	-0.13218117
7	0x3e8ce7fe	0.27520746
8	0xbed5e678	-0.41777396
9	0xbf8c2cb4	-1.0951142
10	0x3c4c1d67	0.012458182
11	0xbd35acda	-0.044354297
12	0x3ec10d7a	0.37705594
13	0xbc7501b6	-0.014954021
14	0xbfb9e50b	-1.4523023
15	0xbf52162d	-0.8206509
16	0x3d45153d	0.048115958
17	0xc0025400	-2.036377
18	0xbdbde716	-0.09272592
19	0x3f23caac	0.6398113
20	0xbf4c73d7	-0.7986426
21	0x3e7b3d45	0.24535091
22	0xbd1beca9	-0.038067494
23	0xbcada847	-0.021198405
24	0xbf72e9b6	-0.94887865
25	0xbeb48881	-0.35260394
26	0xbc1d730e	-0.009609951
27	0xc0045368	-2.0675907
28	0xbebfa097	-0.37427208
29	0x3e1970eb	0.14984481
30	0xbc1a817b	-0.009430285
31	0xbd29674f	-0.04135829
32	0xbf4a0d30	-0.7892637
33	0xc013379b	-2.300269
34	0x3d61c5b6	0.055120192
35	0xbf185b83	-0.59514636
36	0xbd61ec10	-0.055156767
37	0xbe31fbdd	-0.17381234
38	0xbdb7b829	-0.08970673
39	0xbfa1d04f	-1.2641696
40	0xbcce9957	-0.025219603
41	0x3ca36e15	0.019949952
42	0xbd7416a7	-0.059591915
43	0x3d1f0f02	0.038832672
44	0x3cfe9a0c	0.031079315
45	0x3ee74e0d	0.45176736
46	0xbe7d8267	-0.24756776
47	0xbd1b5598	-0.037923425
48	0x3f215a73	0.6302864
49	0xbebd1116	-0.36927098
50	0xbf6eb016	-0.93237436
51	0xbc391518	-0.011296533
52	0xbd53b4c6	-0.05168607
53	0x3f222b67	0.63347477
54	0xbe04cafd	-0.12968059
55	0xbd8f06de	-0.06983732
56	0xbc768a99	-0.015047693
57	0xbcf6f7b3	-0.030147409
58	0xbf412c0b	-0.7545783
59	0xbfdc6452	-1.7218115
60	0x3e739427	0.23786984
61	0xbfd9f4ec	-1.7027869
62	0x3cbf9cc6	0.023390185
63	0xbfab5cc5	-1.3387686
64	0xbdfc681e	-0.12324546
65	0x3edc7c80	0.43063736
66	0xbf28a6bf	-0.65879434
67	0x3ca1f3c1	0.019769551
68	0xbfae8549	-1.3634425
69	0xbd369067	-0.044571307
70	0xbd2d3e47	-0.04229572
71	0xbf81c9ec	-1.0139747
72	0xbf1ce4a7	-0.61286396
73	0x3bb9a426	0.00566532
74	0x3cab78b9	0.020931588
75	0xbfa8b77e	-1.3180997
76	0x3c89a8d9	0.016804146
77	0x3ad1d450	0.0016008709
78	0x3c074936	0.008257201
79	0x3b9bb720	0.004752055
80	0xbf4d10a6	-0.8010353
81	0xbd91c04e	-0.07116757
82	0xbd07d4f9	-0.03316209
83	0xbd206887	-0.039162185
84	0x3e9580d0	0.2919984
85	0xbddcc981	-0.10780621
86	0x3da5909e	0.08084224
87	0xbd5b25a1	-0.053502683
88	0xbf4bd4a7	-0.79621357
89	0xbec98637	-0.3936021
90	0x3ef4d697	0.4781997
91	0xbf821f47	-1.0165795
92	0xbf5a9c70	-0.85394955
93	0xbccecf53	-0.025245344
94	0xbf831c9b	-1.0243105
95	0xbc37ff7c	-0.011230346
96	0xbe417e5f	-0.18895863
97	0xbf89509a	-1.0727723
98	0x3e9f4e67	0.31114504
99	0xbfe68de0	-1.8012047
100	0xbf0b577a	-0.54430354
101	0x3d0241e0	0.031801105
102	0xbcd90f2c	-0.026496492
103	0xbe39294d	-0.18082161
104	0x3eab5aea	0.334678
105	0xbe3c5a30	-0.18393779
106	0xbd61dbdf	-0.055141326
107	0xbffc9048	-1.9731531
108	0x3ef5d2f1	0.48012498
109	0x3ee1ef84	0.44128048
110	0x3d821795	0.06352154
111	0x3ebe8be6	0.3721611
112	0x3f4b3c99	0.7938934
113	0xbf1ea5c5	-0.61971694
114	0x3e0292ef	0.12751363
115	0xbf002bed	-0.50067025
116	0xbdf86529	-0.1212867
117	0x3d1ebad2	0.038752384
118	0xbfdc70ea	-1.7221959
119	0xbef7d55a	-0.48404962
120	0xbf14ded9	-0.5815254
121	0xbe024a6a	-0.12723699
122	0xbdc8d13a	-0.09805532
123	0xbe41c0fd	-0.18921275
124	0x3c3191d8	0.0108379945
125	0xbd26245a	-0.04056201
126	0xbe06ae7c	-0.13152498
127	0xbbe4cb5c	-0.00698225
128	0xbf5c01ea	-0.8594042
129	0x3ebb4b93	0.36581096
130	0xbd0d04be	-0.03442835
131	0xbc47dfea	-0.012199381
132	0xbc81282c	-0.015766226
133	0x3d28ca13	0.041208338
134	0xbd272b40	-0.04081273
135	0xbe91eb92	-0.28500038
136	0xbf1dbbc0	-0.6161461
137	0x3c93097b	0.017948857
138	0x3d3b31d5	0.04570182
139	0xbf04539e	-0.5169009
140	0xbcb99e0b	-0.022658369
141	0xbda46d1b	-0.08028623
142	0xbbef9743	-0.007311733
143	0x3d1f661e	0.038915746
144	0xbec91720	-0.39275455
145	0x3c976385	0.018480072
146	0xbef72b2c	-0.48275125
147	0xbec6dff0	-0.38842726
148	0xbc262f51	-0.010143117
149	0xbf3ee667	-0.74570316
150	0x3da34c39	0.07973523
151	0x3ea15f0d	0.3151783
152	0x3cb60655	0.022219816
153	0xbc5f5e53	-0.0136333285
154	0xbee3698f	-0.44416472
155	0xbd947d46	-0.072504565
156	0xbeb24f1d	-0.34825984
157	0x3f0a84bd	0.5410879
158	0xbd69a3c9	-0.057040963
159	0xbe5ecbe1	-0.21757461
160	0x3d10a5e0	0.03531444
161	0x3e76f8dd	0.24118371
162	0xbd758fb3	-0.059951495
163	0xbedaceca	-0.42735893
164	0x3d5e5327	0.05427852
165	0x3f54b485	0.8308795
166	0xbcc3d190	-0.023903638
167	0xbf91be20	-1.1386147
168	0xbd4f77e7	-0.050651457
169	0x3dec8f96	0.11550824
170	0xbbfe7429	-0.007765312
171	0x3cfd3376	0.030908328
172	0x3c1de812	0.009637849
173	0x3dc3d7e1	0.0956266
174	0x3ded1c9d	0.11577723
175	0xbf3119f1	-0.6918021
176	0xbda399f3	-0.07988348
177	0xbdbe5dd0	-0.09295237
178	0x3d9dc410	0.077034116
179	0x3aaa212c	0.0012979857
180	0x3f436e47	0.76340145
181	0x3d472060	0.04861486
182	0x3b39d9d7	0.0028358602
183	0xbcfc5d95	-0.030806342
184	0xbf84c0b2	-1.0371306
185	0xbec3cd97	-0.3824279
186	0x3f3ddcbb	0.7416493
187	0x3d0d849d	0.034550298
188	0xbdafadcb	-0.0857807
189	0xbcfcb6c2	-0.030848864
190	0xbc733c85	-0.014845972
191	0x3f89020d	1.0703751
192	0x3e6ba2db	0.23011343
193	0xbf36bcd0	-0.71381855
194	0x3e669971	0.22519471
195	0xbef4080d	-0.47662392
196	0xbe089311	-0.13337351
197	0xbf845b2d	-1.0340325
198	0x3d39b9e2	0.045343287
199	0xbec62e53	-0.38707218
200	0xbc545261	-0.012959094
201	0xbeb11bc3	-0.34591493
202	0xbe20d500	-0.15706253
203	0xbfa62937	-1.2981328
204	0xbe8c89a4	-0.2744876
205	0x3d4b9fba	0.049712874
206	0x3f20b6a4	0.6277869
207	0xbe2e47e7	-0.17019616
208	0x3ecbf889	0.39838055
209	0x3d038aaf	0.03211468
210	0xbede7d67	-0.4345505
211	0xc0067dfd	-2.1014397
212	0x3f2e3544	0.68050027
213	0xbf9bbfc9	-1.2167903
214	0x3cec93f3	0.028879141
215	0xbd324fe3	-0.043533217
216	0x3ac54fab	0.001505365
217	0xbe9cebc9	-0.3064864
218	0xbf0a0ad6	-0.53922784
219	0x3f856823	1.0422405
220	0xbf6c2923	-0.9225027
221	0xbf899932	-1.0749876
222	0xbf7b701a	-0.9821793
223	0xbe1de0cc	-0.15417784
224	0xbd98ecc3	-0.07467034
225	0x3f6e29fc	0.93032813
226	0xbee2521d	-0.44203272
227	0xbd8614c1	-0.06546927
228	0xbd15ec5e	-0.03660237
229	0x3cfabbe3	0.03060717
230	0x3e848605	0.258835
231	0xc0331edd	-2.7987587
232	0x3dc7d8e6	0.09758167
233	0xbd223b5f	-0.039607402
234	0x3d53e9aa	0.05173651
235	0xbfbe3b7b	-1.4861902
236	0xbf8af4dd	-1.0855976
237	0xbd113a58	-0.03545603
238	0x3d63b91a	0.05559645
239	0xbd3b5241	-0.04573274
240	0xbb7cfd89	-0.0038603267
241	0x3d8ab803	0.06773379
242	0xbce948c6	-0.028477084
243	0xbebedced	-0.37277928
244	0x3f89e288	1.0772257
245	0xc03b682e	-2.9282336
246	0xbdf12e0e	-0.11776362
247	0x3cae1424	0.021249838
248	0x3f28b8e0	0.65907097
249	0xbd2bc800	-0.04193878
250	0xbf554d8b	-0.83321446
251	0xbef77aaa	-0.48335773
252	0xbeae8164	-0.34083092
253	0xbcb46122	-0.022018973
254	0x3b95b653	0.004568854
255	0x3dabf1ff	0.083957665

bias f4 [3]
0	0xbec5a4c3	-0.38602266
1	0x3d6fb70c	0.058524176
2	0x3eadea4d	0.3396782
