IIFDS-DDPG-random_start/TrainedModel/dynamicActor.pkl (torch, 279831 bytes, 6 tensors)

weight f4 [256, 9]
0	0x3f05fd89	0.5233999
1	0xbe20ff3a	-0.15722361
2	0x3f3c1281	0.73465735
3	0xbd7693a9	-0.060199413
4	0x3df4f4ed	0.119607784
5	0xbe9565c4	-0.29179204
6	0x3d8de234	0.069279104
7	0x3e737ceb	0.23778121
8	0xbd9afa56	-0.07567279
9	0x3ea26a0b	0.3172153
10	0xbd184f7d	-0.03718518
11	0xbe05a873	-0.1305254
12	0xbe8ffcec	-0.28122652
13	0x3c4a8cc7	0.0123626655
14	0x3ea0b4df	0.31387994
15	0x3e4234d6	0.18965468
16	0x3effb3f4	0.4994198
17	0x3e8f69f5	0.28010526
18	0xbec545c9	-0.38529804
19	0x3e0a2a05	0.13492592
20	0x3e66b974	0.22531682
21	0xbdea8785	-0.114516295
22	0xbf0714b5	-0.5276597
23	0x3ed6a9f8	0.4192655
24	0x3f2fab40	0.6862068
25	0xbe5e065d	-0.21682115
26	0xbe696e41	-0.22795965
27	0x3dd8f9ec	0.10594544
28	0xbd4920cb	-0.04910354
29	0xbec377d1	-0.3817735
30	0xbd43f1fc	-0.047838196
31	0xbe347cee	-0.17625782
32	0xbeab06c3	-0.33403596
33	0xbe525203	-0.20539097
34	0x3ef1e205	0.47242752
35	0x3eae15ed	0.34001103
36	0x3eb42d94	0.35191023
37	0xbe1bc85a	-0.15213147
38	0x3c1cfbce	0.009581519
39	0x3e9571e5	0.29188457
40	0x3da2a200	0.07941055
41	0xbc79b7dd	-0.01524159
42	0xbf08b53a	-0.5340153
43	0x3e0c14c0	0.1367979
44	0x3ecee2f8	0.40407538
45	0x3f3cb37a	0.7371136
46	0x3e06271a	0.13100854
47	0xbd0d7cd5	-0.034542877
48	0x3e91c225	0.28468433
49	0xbe044acd	-0.12919159
50	0x3eae3b76	0.3402974
51	0xbe7377b6	-0.23776135
52	0x3d0f5a2c	0.034998104
53	0xbd0b688f	-0.03403526
54	0x3e35bc88	0.177477
55	0x3e0a1af3	0.13486843
56	0x3e591da8	0.21202719
57	0xbe5a22a6	-0.2130228
58	0xbe357ca0	-0.17723322
59	0x3ea18188	0.31544137
60	0xbe3d743e	-0.18501374
61	0xbe42ab23	-0.19010596
62	0xbdb6a79b	-0.08918687
63	0xbc12b4a1	-0.008954198
64	0xbdd7b7b0	-0.105330825
65	0x3eb9db65	0.36300197
66	0xbdf14788	-0.11781222
67	0xbcc8db7a	-0.024518717
68	0x3f17564a	0.5911604
69	0xbeaccfdf	-0.33752343
70	0x3e4e97d5	0.20175107
71	0xbe7c3a7c	-0.24631685
72	0xbe2209f4	-0.1582411
73	0x3e0430ee	0.1290929
74	0x3f1652df	0.587202
75	0x3e6bd174	0.23029119
76	0x3d3579bc	0.044305548
77	0x3edefc4c	0.43551862
78	0xbeedf276	-0.46474046
79	0x3e060968	0.13089526
80	0xbe91ac55	-0.2845179
81	0x3c1f9266	0.009739494
82	0xbd820038	-0.06347698
83	0x3ec99456	0.39370984
84	0x3e42cf08	0.19024289
85	0xbed5cee8	-0.4175942
86	0xbe1fd4f2	-0.15608576
87	0xbe0f14e4	-0.13972813
88	0x3e8607ba	0.2617777
89	0xbe8136f3	-0.25237235
90	0xbdaf9b56	-0.0857455
91	0x3cf6f5ee	0.030146565
92	0xbc4ac729	-0.012376585
93	0xbe6f49f6	-0.23368058
94	0xbf1d02ae	-0.61332214
95	0xbd8cd692	-0.068768635
96	0x3e126f70	0.14300323
97	0x3d824ae3	0.0636194
98	0x3e81a3ce	0.25320286
99	0x3e683425	0.22676142
100	0xbd9aa269	-0.075505085
101	0xbe6a3573	-0.22871952
102	0xbe3d7fee	-0.18505833
103	0xbea41b74	-0.32052195
104	0x3e18406d	0.14868326
105	0xbec9c03c	-0.39404476
106	0x3dccb30b	0.09995087
107	0x3eb0d812	0.3453985
108	0x3d9dfde9	0.07714445
109	0xbddb7d53	-0.10717263
110	0xbc2044d8	-0.009782039
111	0x3eb4d9c8	0.35322404
112	0xbe87f18e	-0.2655148
113	0xbe336ebd	-0.17522712
114	0x3ea7ef20	0.32799625
115	0x3e42e364	0.19032055
116	0xbeeba401	-0.46023563
117	0xbe682231	-0.22669293
118	0x3e32c569	0.17458118
119	0x3eab2cfa	0.33432752
120	0xbdbbc901	-0.09169198
121	0xbe9df55c	-0.30851257
122	0x3eca9380	0.3956566
123	0xbea12142	-0.31470686
124	0xbec648ed	-0.38727513
125	0x3cf679e2	0.030087415
126	0x3c67ea53	0.014154988
127	0xbdfef09e	-0.12448238
128	0xbed3ac0c	-0.413422
129	0xbe0d7805	-0.13815315
130	0xbea75949	-0.32685307
131	0xbe88b440	-0.2670002
132	0xbe1dc0c0	-0.1540556
133	0xbda7eaf5	-0.08199111
134	0xbea4b8c0	-0.32172203
135	0x3f1e912a	0.6194025
136	0xbd4784c7	-0.04871061
137	0xbe939c4c	-0.28830183
138	0x3e5ddaee	0.21665546
139	0xbeae0dc0	-0.33994865
140	0xbe89fe58	-0.2695186
141	0x3e5cb7bf	0.21554469
142	0x3e5902c2	0.21192458
143	0x3e2863a3	0.16444258
144	0x3e3004c1	0.17189313
145	0x3d00f4ec	0.031483576
146	0xbd59b06e	-0.053146772
147	0xbcea9d55	-0.028639475
148	0x3c36c1ef	0.011154636
149	0xbe4cf8e1	-0.20016815
150	0xbed0a6e9	-0.40752342
151	0x3ec10e0d	0.37706032
152	0x3e4ddbac	0.2010333
153	0x3e31b484	0.17354017
154	0xbda731be	-0.081637844
155	0xbf15b99a	-0.5848633
156	0xbd8308bb	-0.063981496
157	0xbebac67f	-0.36479566
158	0x3de9ab35	0.11409608
159	0x3d9a8b59	0.0754611
160	0x3e9d3e7c	0.30711734
161	0x3e98b8b6	0.29828423
162	0x3e51b126	0.20477733
163	0x3d8d6dca	0.06905706
164	0x3eee3138	0.46521926
165	0x3d156797	0.036475744
166	0xbcaab728	-0.020839289
167	0xbe462df1	-0.19353463
168	0x3ed82fbb	0.42223915
169	0x3e9c668b	0.30546984
170	0xbe862b70	-0.26205015
171	0x3ea5a6c6	0.323538
172	0x3dcdee00	0.100551605
173	0xbd3e8a40	-0.046518564
174	0xbe9c3282	-0.30507284
175	0xbeaa8e97	-0.33311912
176	0xbe8610b0	-0.26184607
177	0xbe8ec28e	-0.27882808
178	0xbe639f46	-0.22228727
179	0xbdc6cd26	-0.09707098
180	0xbc06a32a	-0.008217612
181	0xbdb8f591	-0.09031213
182	0xbd7753a2	-0.060382493
183	0xbf0db102	-0.5534822
184	0xbec3035f	-0.3808851
185	0x3dbbca2e	0.09169422
186	0x3e9dcc97	0.30820152
187	0x3eab8ebf	0.33507344
188	0x3eb80856	0.3594386
189	0xbe4c0425	-0.19923456
190	0x3e07371d	0.13204618
191	0x3e1f4fee	0.15557835
192	0xbe06a093	-0.13147192
193	0xbde55e3e	-0.11199616
194	0xbe445d4d	-0.19176216
195	0xbe6dffae	-0.23242065
196	0xbe65062f	-0.2236564
197	0xbdefc928	-0.117082894
198	0x3c1baeb8	0.009502105
199	0xbe213014	-0.15740997
200	0xbe2cbe6a	-0.16869512
201	0x3e3b4ef8	0.18291843
202	0xbede4563	-0.43412313
203	0xbc9de3b2	-0.019273613
204	0x3e452099	0.19250716
205	0xbe00362e	-0.12520668
206	0x3ec6681a	0.38751298
207	0x3df360ce	0.118836984
208	0xbb3f672c	-0.0029205782
209	0xbe6ef70e	-0.23336431
210	0x3eae273a	0.34014302
211	0x3d9baf8b	0.076018415
212	0xbe6da8ef	-0.23208974
213	0xbc6267f6	-0.0138187315
214	0xbd74ffcf	-0.05981427
215	0x3ef10696	0.47075337
216	0x3e59f9fa	0.21286765
217	0xbe7f1bd5	-0.24912961
218	0xbebff284	-0.37489712
219	0x3d3e1274	0.046404317
220	0xbe249594	-0.16072685
221	0x3e5cc0d6	0.21557936
222	0xbea9dd68	-0.33176732
223	0x3f084d9b	0.53243417
224	0xbd9ba28d	-0.075993635
225	0x3e08218b	0.13294046
226	0xbbd0b3eb	-0.006369104
227	0x3ed2b9f0	0.41157484
228	0xbd9ab711	-0.075544484
229	0x3b2baf2e	0.0026196945
230	0xbe5cf91b	-0.21579401
231	0xbec487a4	-0.38384736
232	0x3e531b73	0.2061594
233	0xbd4893d9	-0.048969124
234	0xbe73854c	-0.23781317
235	0x3c004f92	0.007831471
236	0xbe804570	-0.25052977
237	0x3e5a0524	0.21291023
238	0xbe74d4a5	-0.23909242
239	0x3e852877	0.26007435
240	0x3e8ab027	0.2708752
241	0xbe52d165	-0.2058769
242	0x3c471c88	0.0121527985
243	0x3d8daa5d	0.0691726
244	0xbe30f26c	-0.17279977
245	0x3defce98	0.117093265
246	0xbe2feb7d	-0.17179675
247	0xbe885da1	-0.26633933
248	0x3e985264	0.2975036
249	0xbec6f3f4	-0.38857996
250	0xbe798735	-0.24367984
251	0xbee08893	-0.43854198
252	0xbe10d101	-0.14142229
253	0xbd05110c	-0.03248696
254	0x3e711477	0.23542963
255	0xbe659166	-0.22418746

bias f4 [256]
0	0x3e228c42	0.15873817
1	0x3df9b7fa	0.12193294
2	0xbe04b66f	-0.12960218
3	0x3e2a8290	0.16651368
4	0xbeed6240	-0.4636402
5	0xbeb3a42f	-0.350862
6	0xbea64bee	-0.32479805
7	0x3e6f4b01	0.23368455
8	0xbe56d448	-0.20979416
9	0x3bb37b86	0.0054773716
10	0x3e114e70	0.14190078
11	0x3e4d2a1d	0.20035596
12	0x3e211471	0.15730454
13	0x3ecb8b2f	0.39754626
14	0x3e927ae3	0.2860938
15	0xbe1312c7	-0.14362632
16	0xbe9e5304	-0.3092271
17	0x3e8f1eff	0.27953336
18	0x3d1a5fcb	0.03768901
19	0xbe380f2e	-0.1797454
20	0xbcc6b959	-0.024258303
21	0x3e7926f3	0.24331264
22	0x3ded5da8	0.11590129
23	0xbea9b5a1	-0.33146384
24	0xbd16c423	-0.036808144
25	0x3c2e2182	0.010628106
26	0x3e936d4d	0.28794327
27	0x3e8a39f4	0.2699734
28	0x3cb20756	0.021732014
29	0xbeb512b0	-0.3536582
30	0xbee2289e	-0.44171613
31	0xbdfed2cf	-0.12442552
32	0xbe129ce5	-0.14317663
33	0xbec09039	-0.37610033
34	0x3e3ae096	0.18249735
35	0x3ee272fc	0.4422835
36	0xbe8b54a6	-0.2721302
37	0x3d1ce2de	0.038302295
38	0xbe8373a5	-0.25674167
39	0x3e0caeec	0.13738602
40	0xbe1af81f	-0.15133713
41	0x3e36059d	0.17775579
42	0x3d51a3cc	0.0511816
43	0xbeb8efb2	-0.36120373
44	0xbe8ed4e3	-0.27896795
45	0xbd929bef	-0.07158648
46	0x3e6173b9	0.22016801
47	0xbe141701	-0.144619
48	0x3eaf4842	0.34234816
49	0xbea54bf6	-0.32284516
50	0xbe4828e9	-0.19546856
51	0xbf01b303	-0.50663775
52	0xbf0cc197	-0.54982895
53	0xbe29c94f	-0.165807
54	0xbed3c39f	-0.41360185
55	0xbe16ffc8	-0.1474601
56	0x3ed33c2c	0.41256845
57	0xbe61b270	-0.22040725
58	0xbe641073	-0.222719
59	0x3d026cec	0.031842157
60	0x3e64dedc	0.22350639
61	0x3e225f3c	0.15856642
62	0x3e615b57	0.220075
63	0x3eb234cb	0.34805903
64	0xbee9a04e	-0.45630115
65	0x3e61ca78	0.22049892
66	0x3e9d2831	0.30694726
67	0xbedecc5a	-0.43515283
68	0xbeb89831	-0.36053613
69	0xbe0295eb	-0.12752502
70	0xbe0b76ea	-0.13619581
71	0xbd50f5ee	-0.051015787
72	0x3e39cb3b	0.18143933
73	0xbe2e2064	-0.17004544
74	0x3dffca50	0.1248976
75	0xbe4b1f31	-0.19836117
76	0xbd0992aa	-0.033587135
77	0xbe40f6bb	-0.1884412
78	0xbe7cd605	-0.24691017
79	0xbdb60ba6	-0.088889405
80	0x3e380a62	0.1797271
81	0x3eca7d2b	0.3954862
82	0xbd93122c	-0.071812004
83	0x3ecb5964	0.39716637
84	0xbd4829d8	-0.04886803
85	0x3e6572eb	0.22407119
86	0x3e3bc508	0.1833688
87	0x3e06f326	0.13178691
88	0xbe476873	-0.19473438
89	0xbd025f96	-0.03182944
90	0xbdbadb3b	-0.09123846
91	0xbd2005aa	-0.0390679
92	0xbdfa2933	-0.122148894
93	0xbefd79b3	-0.49506912
94	0x3ee6b1d8	0.4505756
95	0xbe2ba6a2	-0.16762784
96	0x3e2099f5	0.1568373
97	0x3e0587ee	0.13040134
98	0x3dfff782	0.1249838
99	0xbd9187e2	-0.07105996
100	0x3e825e89	0.2546275
101	0xbeb854c3	-0.36002168
102	0x3e9e743a	0.3094805
103	0xbe793c81	-0.24339487
104	0x3cf7f95b	0.03027027
105	0x3e1123d6	0.14173827
106	0xbe8e2f9a	-0.27770692
107	0xbcb85b15	-0.022504369
108	0xbf015a1b	-0.50528115
109	0xbd9850b9	-0.074372716
110	0x3dc0ee25	0.094204225
111	0x3eca779f	0.3954439
112	0x3ef4a600	0.47782898
113	0x3ed77bfd	0.42086783
114	0x3e1e2908	0.1544534
115	0xbe281394	-0.16413718
116	0xbe441d10	-0.19151711
117	0xbe89b2f3	-0.2689434
118	0x3e43339c	0.19062656
119	0xbeca8869	-0.39557198
120	0x3d7a60d9	0.061127517
121	0xbe1757db	-0.14779608
122	0xbddcfcca	-0.10790403
123	0x3d9dfeef	0.0771464
124	0x3d46eebd	0.048567522
125	0xbd9e2a0b	-0.07722863
126	0xbe22e40d	-0.15907307
127	0xbe8c3fbe	-0.2739238
128	0x3e9e9c40	0.30978584
129	0xbefd2a5f	-0.4944639
130	0xbe3d74b0	-0.18501544
131	0x3e92976e	0.28631157
132	0xbeab0cab	-0.33408102
133	0xbe8f76c3	-0.28020296
134	0xbeb28b2e	-0.3487181
135	0xbe9f3edb	-0.31102642
136	0xbe3ab668	-0.18233645
137	0xbdb5f2fe	-0.08884238
138	0x3e5ad06b	0.21368568
139	0xbd935567	-0.071940236
140	0xbd76a1fb	-0.06021307
141	0x3e4add65	0.19811018
142	0xbd5ed100	-0.054398537
143	0xbea45b84	-0.3210107
144	0x3e88aecc	0.2669586
145	0xbece8ffd	-0.4034423
146	0xbea88878	-0.32916617
147	0x3ea17a1a	0.3153847
148	0xbecc1b07	-0.3986437
149	0xbeec4443	-0.4614583
150	0x3e155dad	0.14586516
151	0x3e5c6fd0	0.21527028
152	0x3e435d8b	0.19078653
153	0x3e6e8f7f	0.23296927
154	0xbe29a926	-0.16568431
155	0xbd94a1db	-0.07257434
156	0x3dedc3cc	0.11609611
157	0x3e6a53bd	0.22883506
158	0xbe477966	-0.19479904
159	0xbd097ce5	-0.033566374
160	0x3e8c8065	0.27441707
161	0xbe11d9bc	-0.14243215
162	0x3eabb1a1	0.33533958
163	0xbf016278	-0.50540876
164	0xbc3428f4	-0.010996092
165	0x3eceabc7	0.4036543
166	0x3d01e8dd	0.031716216
167	0x3db7817f	0.08960246
168	0xbd831d2c	-0.064020485
169	0xbdb37ea5	-0.0876439
170	0xbeae2f6c	-0.34020555
171	0xbdedad74	-0.11605349
172	0xbed82464	-0.42215264
173	0xbdf618c5	-0.12016443
174	0xbea7b3b2	-0.32754284
175	0xbeb6910d	-0.3565754
176	0x3d97768c	0.07395658
177	0x3e4f9f40	0.20275593
178	0xbdbb0a05	-0.091327704
179	0xbeb9a19f	-0.3625612
180	0xbe17277d	-0.14761157
181	0x3d426a71	0.04746479
182	0x3d32a0e3	0.043610465
183	0xbe823599	-0.25431517
184	0x3e17e119	0.14831962
185	0xbebc0eb4	-0.36729968
186	0xbeb183b6	-0.346708
187	0x3e2ce534	0.16884309
188	0x3cb96e89	0.022635715
189	0x3e5d34f5	0.21602233
190	0xbea40c1a	-0.32040483
191	0xbe7e1c86	-0.24815568
192	0x3dd39656	0.10331409
193	0x3ebf5a88	0.37373757
194	0x3dd47b45	0.10375074
195	0xbe8bfc67	-0.27341005
196	0x3d38fd25	0.045163292
197	0xbe026cd4	-0.12736827
198	0x3e2b6e18	0.16741216
199	0xbe0c7e66	-0.13720092
200	0x3e577463	0.21040492
201	0xbe2754d0	-0.16340947
202	0xbe85ca10	-0.26130724
203	0xbd324792	-0.043525286
204	0xbe64fafa	-0.22361365
205	0x3dd5e34f	0.10443746
206	0xbe5c9ce1	-0.2154422
207	0xbf197fcb	-0.5996062
208	0x3ed22288	0.4104197
209	0xbe4456e9	-0.19173779
210	0x3c421d20	0.011847764
211	0x3d13b09c	0.0360571
212	0x3d9e58ff	0.077318184
213	0xbd22666d	-0.039648462
214	0x3e5e7159	0.21722926
215	0x3e8a2026	0.26977652
216	0x3cf4c135	0.029877285
217	0x3eb8f84a	0.3612693
218	0x3dda188c	0.10649213
219	0x3e2e15a8	0.17000449
220	0x3db78b30	0.08962095
221	0xbdbdf98f	-0.09276115
222	0xbe751e36	-0.23937306
223	0xbe4485c9	-0.1919166
224	0x3c82156d	0.015879357
225	0xbf1e5936	-0.61854875
226	0xbea7bc7e	-0.32760996
227	0xbf01ce17	-0.50705093
228	0xbe1336cb	-0.1437637
229	0x3ec4cbe5	0.3843681
230	0xbc0ff051	-0.008785323
231	0x3e777bd2	0.24168327
232	0x3cdd85fe	0.027041432
233	0xbe036b91	-0.12834002
234	0xbe8b8738	-0.272516
235	0xbde20920	-0.11036897
236	0x3e216f4b	0.15765111
237	0x3d96e714	0.073682934
238	0xbe61fa15	-0.22068055
239	0xbd8b62da	-0.06805964
240	0xbee8c55c	-0.45463073
241	0x3da57f0f	0.08080875
242	0x3d09d0a6	0.03364625
243	0xbe12cbb2	-0.14335516
244	0xbeabbb55	-0.3354136
245	0x3e07b16c	0.13251275
246	0xbde10264	-0.10986784
247	0xbe9446c6	-0.28960246
248	0xbe6bb679	-0.23018827
249	0xbeb1a5f9	-0.3469694
250	0xbdf6f68b	-0.12058743
251	0x3dc793f3	0.09745016
252	0x3b632eb4	0.0034665288
253	0x3d6243b5	0.05524035
254	0xbe117d51	-0.1420796
255	0x3e9e24d3	0.3088747

weight f4 [256, 256]
0	0x3c7e0df6	0.015506258
1	0xbd02dc68	-0.031948477
2	0x3d584870	0.052803457
3	0xbe2202a3	-0.15821318
4	0x3d094df6	0.033521615
5	0x3cb11635	0.021617034
6	0xbd082188	-0.033235103
7	0xbd52ee65	-0.051496882
8	0xbc940ccf	-0.018072514
9	0xbca58f98	-0.020210072
10	0x3c7613b7	0.015019349
11	0x3be41cab	0.0069614253
12	0xbd55c988	-0.05219415
13	0xbcfa215c	-0.030533485
14	0xbd93da60	-0.07219386
15	0xbd2d582a	-0.042320408
16	0xbd247b55	-0.04015668
17	0xbd44fda2	-0.048093446
18	0x3d651566	0.05592861
19	0x3ab32380	0.0013667196
20	0xbcfcb4c4	-0.030847915
21	0x3d1370e9	0.03599635
22	0xbd846cfb	-0.06466099
23	0xbd81784a	-0.063217714
24	0xbcacd81b	-0.02109914
25	0x3ce65785	0.028117904
26	0xbdad20c1	-0.08453513
27	0x3d880dbb	0.06643244
28	0x3d1e060c	0.038579985
29	0xbd990546	-0.07471709
30	0xbb670407	-0.0035250203
31	0x3d8b21a6	0.06793527
32	0x3d29dffc	0.041473374
33	0xbd63319f	-0.055467244
34	0xbd4b45d2	-0.049627133
35	0xbd97b1d5	-0.07406966
36	0xbd1bab8b	-0.038005393
37	0xbc32fc25	-0.010924374
38	0xbc9ad2d0	-0.018899351
39	0xbd255363	-0.040362727
40	0x3d1362b0	0.035982788
41	0x3d4c8369	0.04993001
42	0xbd3d61a5	-0.0462357
43	0xbcfac916	-0.030613463
44	0xbb923606	-0.0044620065
45	0xba89fa7e	-0.0010526923
46	0x3cb2ce87	0.021826996
47	0xbd40d7fb	-0.047080975
48	0x3dce984a	0.100876406
49	0xbd803a78	-0.06261152
50	0x3cfcef6f	0.03087589
51	0xbb863669	-0.0040958417
52	0x3c88f4d6	0.01671831
53	0xbd7be15f	-0.061494227
54	0x3bfa0fa0	0.007631257
55	0x3b77adbe	0.0037792767
56	0xbcfa7dbc	-0.030577533
57	0xbd96029c	-0.073247164
58	0x3c6622d1	0.014046387
59	0x3c205128	0.009784974
60	0xbdb2ecd4	-0.08736578
61	0xbd1b084a	-0.037849702
62	0xbd8eb9cc	-0.06969032
63	0xbd62f4fc	-0.055409417
64	0xbceaed76	-0.028677683
65	0xbbea781c	-0.0071554314
66	0xbd15a545	-0.036534566
67	0xbdc209df	-0.09474539
68	0x3b94efe4	0.0045451988
69	0xbcf4e77a	-0.029895533
70	0xbd8ba179	-0.06817908
71	0xbccc47ba	-0.024936546
72	0xb99a4846	-0.00029427017
73	0xbe01b7f2	-0.12667826
74	0x3c61de0e	0.013785852
75	0xbd320076	-0.04345747
76	0x3a7f54b1	0.0009740098
77	0xbca742ee	-0.020417657
78	0xbaabefcf	-0.0013117733
79	0xbd62980f	-0.055320796
80	0x3c8743dc	0.01651185
81	0x3d9bd953	0.07609811
82	0x3c86f32c	0.016473375
83	0x3a9ce86c	0.0011971123
84	0x3c9a8668	0.018862918
85	0x3a83e518	0.0010062782
86	0x3c27ac9d	0.010234025
87	0xbd8d4901	-0.0689869
88	0x3c0118f7	0.007879487
89	0xbd9b1c63	-0.07573774
90	0x3d17b2e5	0.03703584
91	0x3ccf3d18	0.025297686
92	0xbb32b059	-0.0027265756
93	0x3d06ba44	0.03289248
94	0xbd8d032a	-0.06885369
95	0xbd0a54b9	-0.033772204
96	0xbd7410f3	-0.059586477
97	0xbdcd20d2	-0.100160256
98	0xbd688a5d	-0.05677258
99	0x3d03364a	0.032034196
100	0x3d4ead6b	0.050458353
101	0xbd2f554e	-0.042805962
102	0xbce32c65	-0.02773113
103	0x3c99127f	0.018685577
104	0xbc7fee65	-0.0156208025
105	0xbc4cc355	-0.012497743
106	0x3c873122	0.01650292
107	0xbc585cc4	-0.013205711
108	0xbdb15908	-0.086595595
109	0x3d43e53a	0.04782603
110	0x3a89d947	0.0010517024
111	0xbd693fdc	-0.056945667
112	0xbc9d7d22	-0.019224707
113	0xbd0ebd57	-0.034848537
114	0xb9a99ef4	-0.0003235262
115	0xbd47a718	-0.048743337
116	0x3ddb77ce	0.1071621
117	0x3d75f991	0.06005246
118	0xbe40ab97	-0.18815456
119	0x3d4c4603	0.049871456
120	0xbdacf35b	-0.08444854
121	0x3d0e29e0	0.034707904
122	0xbdb43a65	-0.088002004
123	0x3e13c763	0.14431529
124	0xbc0c7539	-0.00857287
125	0x3c5582e5	0.013031696
126	0xbd3faa36	-0.046793185
127	0x3b8c2754	0.004277149
128	0xbc9aaf03	-0.01888228
129	0x3c39ba30	0.011335894
130	0x3c6a6a92	0.014307635
131	0xbcdc50d4	-0.02689401
132	0x3c3d2144	0.011543576
133	0xbd1a61e4	-0.037691012
134	0xbbd86c69	-0.0066047204
135	0xbcac6fcb	-0.0210494
136	0xbc137594	-0.009000201
137	0xbc7cb875	-0.015424837
138	0xbcd02955	-0.025410334
139	0xbcae73fd	-0.021295542
140	0xbd0f48c3	-0.0349815
141	0x3cd52d5c	0.026022606
142	0xbd42918c	-0.047502086
143	0x3cea4e1a	0.028601695
144	0x3cb36bcc	0.021901987
145	0xbcb719c0	-0.022351146
146	0xbd016d0b	-0.031598132
147	0xbd903b6a	-0.07042582
148	0xbc247949	-0.010038682
149	0x3d6e8fa8	0.05824247
150	0xbbb5eaf2	-0.0055516893
151	0xbd7bf339	-0.061511252
152	0xbd94c217	-0.07263582
153	0x3c841720	0.016124308
154	0xbbf939bb	-0.007605759
155	0xbda3869b	-0.07984658
156	0xbdb0fc04	-0.08641818
157	0xbc99ba71	-0.01876566
158	0xbd4ba2c1	-0.04971576
159	0x3cc8e40a	0.0245228
160	0x3bc82ef0	0.006109111
161	0xbe38e4bd	-0.18056007
162	0x3b92abe4	0.0044760574
163	0x3b4ead5d	0.0031536438
164	0xbca6d2f1	-0.020364257
165	0xbd1b3875	-0.03789564
166	0xbcf104ed	-0.029421294
167	0xbd8ec01f	-0.06970238
168	0xbd08dd3d	-0.033414114
169	0x3ca0615c	0.019577675
170	0x3beffa35	0.007323528
171	0xbc3d923f	-0.011570512
172	0xbd8d4e04	-0.06899646
173	0xb9b37d23	-0.00034234775
174	0x3c9d93e0	0.019235551
175	0xbd470c19	-0.04859552
176	0x3baafcd8	0.0052181296
177	0x3b076ba0	0.0020663515
178	0xbc9cc656	-0.019137543
179	0x3d8e04bb	0.06934496
180	0x3beaa12f	0.007160328
181	0x3d103dde	0.03521525
182	0x3ccb6e74	0.024832942
183	0xbd2b68eb	-0.041848104
184	0x3d0273d3	0.03184874
185	0xbc7ada00	-0.015310764
186	0xbbf0526b	-0.0073340437
187	0x3cafa654	0.021441616
188	0xbc600fcd	-0.013675642
189	0x3d83a221	0.06427408
190	0x3c481abf	0.012213408
191	0xbcb4fc38	-0.022092924
192	0xbd272ece	-0.04081612
193	0x3cdbf0fe	0.026848312
194	0xbd94f00a	-0.07272346
195	0xbd338ebf	-0.043837305
196	0xbdb19014	-0.08670059
197	0x3cf9e65a	0.030505348
198	0xbba493bb	-0.0050224937
199	0x3bd476bd	0.0064838813
200	0x3d1763e9	0.036960516
201	0xbd813773	-0.06309404
202	0x3d3a07e5	0.045417685
203	0x3ce5c430	0.028047651
204	0xbad0e0fe	-0.0015936194
205	0xbb1598f1	-0.0022826756
206	0xbd164875	-0.036690194
207	0xbc532965	-0.012888287
208	0xbcc22358	-0.023698494
209	0x3c0a95e6	0.00845859
210	0x3d5bcd27	0.053662445
211	0xbd7e6037	-0.062103476
212	0xbd8fc785	-0.07020477
213	0x3d38935c	0.045062408
214	0xbd9e2092	-0.07721056
215	0xbe1aeb23	-0.1512876
216	0x3d17387c	0.036919102
217	0xbd22bb50	-0.039729416
218	0xbe16d753	-0.14730577
219	0x3d53b2f4	0.051684335
220	0x3cd1f3be	0.02562892
221	0xbc5d6056	-0.013511738
222	0xbc867c5f	-0.016416727
223	0x3c60e17d	0.013725636
224	0xbc96094d	-0.018314982
225	0x3b5a7026	0.0033331006
226	0xbd0d65e6	-0.034521006
227	0x3ce75f87	0.028243793
228	0xbc3e8047	-0.011627263
229	0xbcf310a4	-0.02967102
230	0xbd231858	-0.039818138
231	0xbd8ad1df	-0.06778311
232	0xbcaea37c	-0.02131819
233	0xbdc14e34	-0.09438744
234	0x3cde5012	0.02713779
235	0xbd94b411	-0.072609074
236	0xbc68e653	-0.01421507
237	0xbcd77c01	-0.026304247
238	0x3d75cadc	0.060007915
239	0x3cdde6ec	0.027087651
240	0xbc0edc8e	-0.0087195765
241	0x3d44cf89	0.048049483
242	0x3cfce7c5	0.030872235
243	0x3b85cd9d	0.004083349
244	0xbc8463db	-0.016160896
245	0xbd341f6a	-0.04397527
246	0xbdd17b02	-0.1022854
247	0xbb8f89f3	-0.0043804585
248	0x3b081317	0.0020763332
249	0xbcf03200	-0.029320717
250	0xbb678d68	-0.0035332087
251	0x3d7d91b2	0.061906524
252	0x3da0baa6	0.078481
253	0xbd9f2ab2	-0.07771815
254	0x3b96f7f8	0.004607197
255	0x3b65bce4	0.0035055215

bias f4 [256]
0	0xbda2f288	-0.079564154
1	0xbc9c9e72	-0.019118521
2	0x3b6ede6f	0.0036448499
3	0xbca51525	-0.020151684
4	0x3e118503	0.14210896
5	0x3d0ab0b4	0.033859923
6	0xbd2893bf	-0.041156527
7	0x3da73b5e	0.0816562
8	0xbe0c586a	-0.13705602
9	0x3d9387c3	0.07203629
10	0xbd80bdeb	-0.06286224
11	0xbdc19a25	-0.09453229
12	0xbe3381db	-0.17530005
13	0xbdaffcf1	-0.085931666
14	0x3db2adfb	0.087245904
15	0xbd821c08	-0.06353003
16	0xbda7d6a9	-0.0819524
17	0xbc8c6f16	-0.017142814
18	0xbd3a74da	-0.045521595
19	0xbe18eee1	-0.14934875
20	0x3d3a077f	0.045417305
21	0x3e3e4f34	0.18584901
22	0x3b853239	0.004064825
23	0xbdb3a7b5	-0.08772222
24	0xbde766b6	-0.112988874
25	0x3c3b6626	0.011437928
26	0xbe251dbd	-0.16124626
27	0x3de81eac	0.11333975
28	0xbe7eff69	-0.24902119
29	0x3dfc0e8b	0.12307461
30	0x3c31035f	0.010804026
31	0x3d0e0f83	0.034682762
32	0x3e2e679e	0.17031714
33	0xbd85a0cc	-0.0652481
34	0xbd1b93d6	-0.037982784
35	0x3cd3ceca	0.02585544
36	0x3dec4972	0.11537446
37	0x3d901318	0.07034892
38	0x3d554b17	0.052073564
39	0x3daa8bc4	0.083274394
40	0xbdaaa2ce	-0.08331834
41	0x3c105b2f	0.008810802
42	0x3c8744ba	0.016512264
43	0xbb3f1658	-0.0029157605
44	0x3cecad13	0.028891122
45	0xbdc35e18	-0.09539431
46	0xbe1eb8a5	-0.15500124
47	0x3c3d9a22	0.011572393
48	0x3d4364cd	0.047703553
49	0x3d4c75b7	0.04991695
50	0xbde6c663	-0.11268308
51	0xbdbb0902	-0.091325775
52	0xbd6616b4	-0.056173995
53	0xbe448fbb	-0.19195454
54	0xbdbebfc5	-0.09313921
55	0xbdab84d0	-0.08374941
56	0xbd92fe03	-0.07177355
57	0xbd784106	-0.060608886
58	0xbe923b72	-0.28560978
59	0x3bb43180	0.005499065
60	0xbde061af	-0.10956132
61	0x3d09af2d	0.033614326
62	0xbd52e597	-0.051488485
63	0x3e1c7d65	0.15282209
64	0xbe5d27e0	-0.21597242
65	0xbdc5b804	-0.09654239
66	0x3d0ece98	0.034864992
67	0xbd384c57	-0.04499468
68	0x3d9f40d4	0.07776037
69	0xbc069ef7	-0.008216611
70	0xbc6e31a6	-0.014538204
71	0xbdae1911	-0.08500875
72	0x3d2d685c	0.042335853
73	0xbddcbe43	-0.10778477
74	0xbdea2d23	-0.114343904
75	0x3dda4c83	0.10659125
76	0x3bd0ebc5	0.006375762
77	0xbd8c232e	-0.068426475
78	0xbd672c73	-0.056438874
79	0xbe3624e4	-0.1778751
80	0x3d924b85	0.071433105
81	0xbdbc8c7f	-0.09206485
82	0xbb970cc0	-0.004609674
83	0x3c14a3f7	0.009072295
84	0xbe0f997a	-0.1402339
85	0x3e63cce0	0.22246122
86	0xbc03878d	-0.008027923
87	0xbd052926	-0.032509945
88	0x3b829e86	0.0039861826
89	0xbcba6f24	-0.022758074
90	0xbd9360b4	-0.07196179
91	0xbe1ea141	-0.15491201
92	0x3c7284d8	0.01480218
93	0xbd1548f5	-0.03644653
94	0xbe0bea63	-0.1366363
95	0xbcf88d0e	-0.030340698
96	0x3c4132ba	0.011791879
97	0xbe22441d	-0.15846296
98	0xbe2af0cb	-0.16693418
99	0x3dc00694	0.09376255
100	0xbd8cd56f	-0.06876647
101	0xbce47152	-0.027886067
102	0xbd27e128	-0.04098621
103	0xbda245aa	-0.079234436
104	0x3d8b7b31	0.06810606
105	0x3dae9f65	0.08526496
106	0xbcaacca5	-0.020849535
107	0x3d257dd6	0.04040321
108	0xbb5ed5a5	-0.0034001854
109	0xbdb50cf6	-0.08840363
110	0xbd388c31	-0.045055572
111	0xbe18d94a	-0.14926639
112	0xbdac74f8	-0.084207475
113	0xbd9079c7	-0.07054477
114	0xbd3a6d84	-0.0455146
115	0xbe3560df	-0.17712735
116	0x3c68ed0d	0.014216674
117	0xbc327d81	-0.01089418
118	0x3dc7af67	0.09750252
119	0x3e229ee4	0.15880924
120	0xbe57d7d2	-0.21078423
121	0x3c822d1e	0.015890654
122	0xbd1c0e0d	-0.038099337
123	0x3de95aaa	0.11394246
124	0xbe1e82cc	-0.15479583
125	0x3cf01ac9	0.029309647
126	0xbc138aa7	-0.009005225
127	0xbc81ee1d	-0.015860612
128	0xbc9a3987	-0.01882626
129	0xbdb22305	-0.08698086
130	0xbca513eb	-0.0201511
131	0xbdaa2c96	-0.08309285
132	0x3cd02b70	0.025411338
133	0xbd8c4b4a	-0.06850298
134	0xbbc345b5	-0.0059592375
135	0xbc59cb60	-0.013293117
136	0xbc7f7570	-0.015591964
137	0x3ab24d68	0.0013603391
138	0xbdb4910e	-0.088167295
139	0xbe32b68a	-0.17452446
140	0xbd4316c0	-0.047629118
141	0xbdc0f72b	-0.094221435
142	0xbdfa2a63	-0.12215116
143	0x3cb0a65c	0.021563701
144	0x3d61af09	0.055098567
145	0x3c31690a	0.010828266
146	0x3ddd2f59	0.108000465
147	0x3d2beba8	0.041972786
148	0xbd3173c4	-0.043323293
149	0x3dbaeb91	0.09126962
150	0xbdd760fc	-0.10516545
151	0xbd112709	-0.035437617
152	0xbdbe78d4	-0.0930039
153	0xbe5c180e	-0.21493551
154	0xbe0e1226	-0.1387411
155	0xbd4935f0	-0.049123704
156	0xbbd3b9af	-0.006461344
157	0x3c58ffe7	0.013244606
158	0x3d18cc28	0.037304074
159	0x3d916db6	0.07101004
160	0xbe09b565	-0.13448103
161	0x3c66856f	0.014069899
162	0xbda7c3c5	-0.08191637
163	0xbe22f7d8	-0.15914857
164	0x3da7154d	0.0815836
165	0xbdd999ca	-0.10625036
166	0x3c291961	0.010320992
167	0x3cbb9de8	0.022902444
168	0xbd923f9d	-0.071410395
169	0xbddf77f9	-0.10911555
170	0xbd7e8c87	-0.062145736
171	0xbcd0e510	-0.02549985
172	0xbe135c2a	-0.14390627
173	0xbc4f302a	-0.012645761
174	0xbd9e3ca0	-0.07726407
175	0x3d544de5	0.0518321
176	0xbd6f3274	-0.058397725
177	0x3cc3bb0f	0.023892907
178	0xbce4d9c5	-0.027935872
179	0xbd8ac784	-0.06776336
180	0xbe07cea2	-0.13262418
181	0x3cee1876	0.029064398
182	0xbdd3ae64	-0.10335997
183	0xbdfd76d2	-0.12376179
184	0x3d834159	0.064089485
185	0x3e33eca5	0.17570741
186	0xbe0ba96b	-0.13638847
187	0xbe084d1e	-0.13310668
188	0xbdc5a4ea	-0.096505955
189	0xbda3e338	-0.08002323
190	0xbd9a5197	-0.07535093
191	0xbd1d0600	-0.0383358
192	0xbde33b12	-0.11095251
193	0xbcbc417a	-0.02298044
194	0x3da47c0f	0.08031475
195	0xbd21bd02	-0.039486893
196	0xbdee51fc	-0.11636731
197	0x3d43e3a7	0.047824528
198	0x3c5c11d0	0.013431981
199	0xbdeffb89	-0.117178984
200	0xbd717331	-0.058947746
201	0xbe06c942	-0.13162711
202	0xbdd1018a	-0.10205372
203	0xbd9f08ac	-0.07765326
204	0x3bc5efcb	0.0060405484
205	0xbd5ebf06	-0.054381393
206	0x3e02638c	0.12733287
207	0xbdf26d22	-0.11837222
208	0x3e1a4943	0.1506701
209	0xbd3d01cc	-0.04614429
210	0xbdd80050	-0.105469346
211	0xbbff2b27	-0.0077871266
212	0xbd73ec8e	-0.059551768
213	0x3deacc8d	0.11464796
214	0xbbc55261	-0.006021783
215	0xbdbce244	-0.09222844
216	0xbc97b2a6	-0.018517803
217	0x3d0cf1a7	0.034410145
218	0xbe1738fb	-0.1476783
219	0x3d9ecdb7	0.07754081
220	0x3d13f837	0.036125388
221	0xbd928d36	-0.0715584
222	0x3bcd316a	0.006261994
223	0xbe49eee9	-0.19720043
224	0xbc930c4d	-0.017950201
225	0xbcc0ca65	-0.02353401
226	0xbd93d691	-0.0721866
227	0xbe05749b	-0.13032763
228	0xbcc62bd8	-0.024190828
229	0xbd163c3b	-0.036678534
230	0xbd0939f6	-0.03350254
231	0x3d2aa7b8	0.041663855
232	0xbe0c054b	-0.13673894
233	0x3c71a9b0	0.014749929
234	0xbdf3241d	-0.118721224
235	0xbdb8fb0d	-0.09032259
236	0x3d9a4d9d	0.07534335
237	0xbc9d3d1d	-0.01919418
238	0xbd569e80	-0.05239725
239	0xbe05d215	-0.13068421
240	0x3a09e807	0.000526071
241	0xbce6f55a	-0.028193165
242	0xbd39d64f	-0.045370396
243	0xbde7966c	-0.113079876
244	0xbc1e28a8	-0.009653248
245	0x3c4dde94	0.012565274
246	0xbd22bc61	-0.039730433
247	0xbd54e20b	-0.051973384
248	0x3d8baa5b	0.06819602
249	0xbdb8ae25	-0.090175904
250	0xbe2bdd44	-0.16783625
251	0xbd36aec1	-0.044600252
252	0xbe11e160	-0.1424613
253	0xbd250be9	-0.04029456
254	0xbd4731e7	-0.048631575
255	0x3d4acb66	0.049510382

weight f4 [3, 256]
0	0xbb5d3038	-0.0033750664
1	0x3b924385	0.0044636154
2	0xbf2bbbf4	-0.6708367
3	0xbd63f5a7	-0.055654194
4	0xbf1c4f17	-0.6105818
5	0xbe26de1e	-0.16295668
6	0xbd622933	-0.055215072
7	0xbdf04eeb	-0.117338024
8	0xbdd1c8f2	-0.102434054
9	0xbe4f2f4e	-0.20232889
10	0x3c4c1d67	0.012458182
11	0xbd353862	-0.044243224
12	0xbd998887	-0.07496744
13	0xbc7501b6	-0.014954021
14	0x3d967d7e	0.073481545
15	0xbd2c77f7	-0.042106595
16	0xbd8e76e2	-0.06956269
17	0xbf3da120	-0.7407398
18	0xbd4249fe	-0.047433846
19	0xbc164867	-0.0091725355
20	0xbcda03b1	-0.026613088
21	0xbe3ef4b4	-0.18648034
22	0xbd1beca9	-0.038067494
23	0xbcada847	-0.021198405
24	0x3c98fdf9	0.018675791
25	0xbdbcfa8b	-0.09227475
26	0x3d0beee4	0.03416337
27	0xbf13a156	-0.57668054
28	0x3880b924	6.138001e-05
29	0x3d3f7a9a	0.04674778
30	0xbc1a817b	-0.009430285
31	0xbd296759	-0.041358326
32	0x3d84bf11	0.064817555
33	0xbecd0667	-0.40043947
34	0x3d61c5b6	0.055120192
35	0x3cd3571b	0.025798371
36	0xbd296b5a	-0.041362144
37	0xbe2b6bbb	-0.16740315
38	0xbdc485e1	-0.09595848
39	0xbe58eacb	-0.21183316
40	0x3ca42714	0.020038165
41	0x3ca36e15	0.019949952
42	0xbd2e6704	-0.042578712
43	0x3d1f0f02	0.038832672
44	0x3d203dec	0.039121553
45	0x3cf77107	0.030205263
46	0xbdb3e377	-0.0878362
47	0xbd1b5598	-0.037923425
48	0x3ca12ca2	0.019674603
49	0xbcdb3512	-0.026758704
50	0x3ce32689	0.027728336
51	0xbb95d44b	-0.0045724264
52	0xbd53b4c6	-0.05168607
53	0xbd6a4e85	-0.05720379
54	0xbdfb0065	-0.122559346
55	0xbd8d1438	-0.06888622
56	0xbc768a99	-0.015047693
57	0xbcf6f7b3	-0.030147409
58	0x3d24bc9f	0.040218946
59	0xbce41997	-0.027844233
60	0xbdbd0bd8	-0.09230775
61	0xbccfe3f2	-0.025377247
62	0x3bc34403	0.0059590354
63	0xbe9dc7ae	-0.30816406
64	0xbd43fb04	-0.04784681
65	0xbce0aef1	-0.027427169
66	0xbdd871c6	-0.105685756
67	0x3cbbfbdf	0.02294725
68	0xbe3861e8	-0.18006098
69	0xbd369067	-0.044571307
70	0xbd2d3e47	-0.04229572
71	0xbcb37958	-0.021908447
72	0xbdf1549a	-0.117837146
73	0x3c4c5abd	0.012472806
74	0x3cab78b9	0.020931588
75	0xbcc017e6	-0.023448896
76	0x3c89a8d9	0.016804146
77	0x3ad1d450	0.0016008709
78	0x3c074936	0.008257201
79	0x3b9bb75a	0.004752082
80	0x3c8acbb6	0.01694284
81	0xbdea3ebf	-0.11437749
82	0xbd8a554d	-0.06754551
83	0xbd206887	-0.039162185
84	0x3c242c8f	0.010020389
85	0x3da98c81	0.08278752
86	0xbcedb511	-0.029017003
87	0xbd48e886	-0.049049877
88	0xbd0ba6f6	-0.034094773
89	0xbd93d66f	-0.07218634
90	0xbde130a7	-0.10995608
91	0x3ba17095	0.004926751
92	0x3d9f6a99	0.07784004
93	0xbd280a3e	-0.041025393
94	0xbd8eba7d	-0.069691636
95	0xbc8f09c4	-0.017460711
96	0x3d56f717	0.052481737
97	0xbe36a6e9	-0.17837109
98	0xbd5aa192	-0.05337674
99	0xbe759599	-0.23982848
100	0x3bdac61f	0.00667645
101	0x3d0241e0	0.031801105
102	0xbd4ba6fe	-0.049719803
103	0xbdfe44d2	-0.1241547
104	0xbe128c12	-0.14311245
105	0xbda8e6d2	-0.082471505
106	0xbd61dbdf	-0.055141326
107	0xbf066a79	-0.52506214
108	0xbdc32adf	-0.095296614
109	0xbde05ce4	-0.109552175
110	0xbe18c59b	-0.1491913
111	0xbd223a15	-0.039606173
112	0xbd7f924e	-0.062395386
113	0xbda42faa	-0.08016904
114	0xbef0613d	-0.46949187
115	0xbbd43dd7	-0.0064770984
116	0x3d401210	0.046892226
117	0x3d121c40	0.035671473
118	0xbe888116	-0.26660985
119	0xbe3b2927	-0.18277417
120	0xbcb4225a	-0.021989036
121	0xbe69b87b	-0.2282428
122	0xba999f59	-0.0011720463
123	0xbd046395	-0.03232153
124	0x3c3191d8	0.0108379945
125	0xbd26245a	-0.04056201
126	0xbe052bb6	-0.13004956
127	0xbdcd3a94	-0.100209385
128	0xbd0163aa	-0.031589188
129	0xbdb29429	-0.087196656
130	0xbd0d04bb	-0.03442834
131	0x3ccd59e0	0.02506727
132	0xbd2caa8d	-0.042154837
133	0x3d28ca13	0.041208338
134	0xbc155827	-0.009115255
135	0xbcf84132	-0.030304525
136	0xbcb52738	-0.022113428
137	0x3c93097b	0.017948857
138	0x3d3b31d5	0.04570182
139	0xbd07c1e4	-0.033143893
140	0xbcb594ce	-0.022165682
141	0xbdaf2eef	-0.08553874
142	0xbbef8fdd	-0.007310851
143	0x3d870182	0.065920845
144	0xbda2e5a0	-0.07953954
145	0x3cc7034a	0.02429356
146	0xbe0e819c	-0.1391663
147	0xbc862a88	-0.016377702
148	0xbc262f51	-0.010143117
149	0xbdbdcebc	-0.09267947
150	0x3d793612	0.06084258
151	0xbde104b3	-0.109872244
152	0x3cb60655	0.022219816
153	0xbc5f5e53	-0.0136333285
154	0xbc706188	-0.014671691
155	0xbdad6c22	-0.0846789
156	0xbdac9d21	-0.084284075
157	0xbe10ef77	-0.14153849
158	0xbd67a585	-0.056554336
159	0x3d121a7a	0.03566978
160	0x3c39efb4	0.011348654
161	0x3ceaf2aa	0.028680164
162	0xbd8181b9	-0.06323571
163	0xbd208af4	-0.039195016
164	0x3c209149	0.009800264
165	0xbd4d372a	-0.050101437
166	0xbcc3d0d6	-0.023903292
167	0xbd9c0799	-0.07618637
168	0xbc2e47e9	-0.010637262
169	0xbd36f9dd	-0.044671882
170	0xbbfe7429	-0.007765312
171	0x3cfd3376	0.030908328
172	0xbd8fd30a	-0.070226744
173	0xbc8047f2	-0.015659306
174	0xbde25b33	-0.11052551
175	0x3ce8229f	0.028336821
176	0xbd2a2e81	-0.041548256
177	0xbe9246bd	-0.28569594
178	0xbe82608a	-0.25464278
179	0x3aaa212c	0.0012979857
180	0xbdeca241	-0.11554385
181	0xbc3db16f	-0.011577948
182	0x3b39d9d7	0.0028358602
183	0xbcfc5d95	-0.030806342
184	0xbe44536b	-0.19172446
185	0xbe6e2b45	-0.23258694
186	0x3d6be39d	0.057590116
187	0xbd6a4837	-0.057197776
188	0xbdafadcb	-0.0857807
189	0xbcf25c85	-0.029585132
190	0xbd7c1287	-0.061541107
191	0xbcc18f70	-0.023627967
192	0x3ca2cd25	0.019873211
193	0x3d242a83	0.040079605
194	0xbd00595e	-0.031335227
195	0xbd8d7b13	-0.0690824
196	0xbd71de05	-0.059049625
197	0xbe10bfcd	-0.14135666
198	0x3d39b9e2	0.045343287
199	0xbdcab488	-0.09897715
200	0xbc545261	-0.012959094
201	0xbd10efa0	-0.035384774
202	0x3b1eaa8c	0.002421054
203	0x3c69a1b7	0.014259747
204	0xbc9cce9e	-0.019141492
205	0x3d4b9fba	0.049712874
206	0xbd00d17e	-0.031449787
207	0xbe0a3de4	-0.13500172
208	0xbe014adb	-0.12626211
209	0x3d038aaf	0.03211468
210	0x3d2cb937	0.042168822
211	0xbd971971	-0.073778994
212	0x398a77a8	0.00026410562
213	0xbda37709	-0.079816885
214	0x3d239488	0.039936572
215	0xbd324fe3	-0.043533217
216	0x3ac550a1	0.0015053937
217	0xbd6bc429	-0.05756012
218	0xbe0569bc	-0.13028616
219	0x3d1e06cd	0.038580704
220	0x3cef18ff	0.029186724
221	0xbd9726e5	-0.073804654
222	0x3cdda695	0.027056972
223	0xbc9b4892	-0.018955503
224	0xbd98ecc3	-0.07467034
225	0x3e0237c4	0.12716585
226	0xbde426bc	-0.111402005
227	0xbdabbdd5	-0.08385817
228	0xbd157a1c	-0.036493406
229	0x3cfabbe3	0.03060717
230	0xbdef2dad	-0.11678634
231	0xbf3c10ee	-0.7346333
232	0xbd1b09c8	-0.037851125
233	0xbd223b5f	-0.039607402
234	0x3d53e9aa	0.05173651
235	0xbe98bd72	-0.29832035
236	0xbe0f4437	-0.13990866
237	0xbd113a58	-0.03545603
238	0x3d63ba1b	0.055597406
239	0xbd3b5241	-0.04573274
240	0xbcb1cff0	-0.021705598
241	0x3d8adda8	0.06780559
242	0xbce948ee	-0.028477158
243	0xbdd83edc	-0.105588645
244	0x3ca02dad	0.01955303
245	0xbfaa73e6	-1.3316619
246	0xbd991c98	-0.07476157
247	0x3cae1424	0.021249838
248	0x3cd33c1b	0.025785496
249	0xbd219fce	-0.039459042
250	0xbdd01e09	-0.10161979
251	0xbda4804e	-0.08032285
252	0xbc506caf	-0.012721225
253	0xbcb227d4	-0.021747507
254	0x3b95b653	0.004568854
255	0xbd1733cc	-0.03691463

bias f4 [3]
0	0xbe632d47	-0.2218524
1	0x3df5359c	0.11973116
2	0x3e189c3a	0.14903346
