IIFDS-SAC-random_start/TrainedModel/ac_tar_weights.pkl (torch, 840745 bytes, 18 tensors)

pi.net.0.weight f4 [256, 9]
0.3133032 -0.0047587366 0.76934767 -0.24970645 -0.07275723 -0.07756136 -0.024130777 0.12207415
-0.14347596 0.45902476 0.25481907 0.267193 -0.7100291 -0.09716386 0.47785386 0.27566877
0.48076853 0.23955874 0.07781617 0.05871771 0.36528444 -1.4609708 -1.7074006 -0.05550725
0.15901491 -0.5699461 -0.61138326 -0.05212944 0.14386944 -0.8374305 -1.5519804 -1.8387089
-0.67405444 -0.9793742 -0.012342385 -0.3293933 0.3369941 -0.09374263 -0.14602055 -0.08470872
-0.36154136 0.12502006 0.10919431 0.2663769 0.2062719 0.134878 0.3145847 0.7736392
-0.43728095 -0.57352245 0.7163829 -0.31669468 0.24549834 0.63036144 0.177477 0.13486843
0.21202734 -0.2130228 -0.17723322 0.31544137 -0.18501374 -0.19010596 -0.08918687 0.18617976
0.29569 0.43242314 -0.41478616 -0.18949081 0.6868309 -0.12427356 0.110177055 0.23729376
-0.08344584 0.20555426 0.64563215 -0.06310425 -0.16306506 0.23311248 -0.31521052 0.043383658
-0.31891197 0.00083104824 -0.16447875 0.745878 0.5738725 -0.5853062 -0.1687507 0.15331757
0.6545274 1.7658604 -0.1792331 0.116340905 -0.40637562 -0.8453405 -0.9443459 -1.1220087
0.11027063 -0.38917518 1.3285815 0.60284793 0.12556402 -0.85612017 -0.9932945 -1.0687481
-0.21718314 -0.35693976 -0.32998055 0.022353811 0.10862428 -0.9521671 0.25952247 0.6950227
-0.7587214 0.25135234 0.29055738 0.6446772 -0.010809369 0.26423064 0.43360332 0.4071806
-0.2899024 -0.47591078 0.19030441 -0.2956602 -0.045791686 0.6253189 0.3858681 0.041955445
0.25269973 -0.38605592 -0.690635 -0.22080159 0.5209181 -0.5406326 0.28547847 0.15867218
0.057814695 -0.13255936 0.036459822 -0.52303725 0.007820464 0.43853268 -0.1337902 -0.19633938
-0.1980904 0.9722265 0.7358647 -0.2276927 0.17024103 0.28931138 -0.63753444 0.93977517
-0.8889744 -0.14127925 -0.011326883 -0.43428436 -0.22663316 -0.3610323 0.020176327 0.49807593
0.59980804 0.1731873 0.46363467 0.3731707 1.1084737 -0.23266025 -0.16974849 0.8807569
1.3605881 -0.37456718 0.632313 0.323538 0.100551605 -0.046518564 -0.30507284 -0.33311912
-0.26184607 -0.27882808 -0.22228727 -0.09707098 -0.2947616 -0.3103446 -0.0004720467 -0.43433723
-0.2973611 -0.082590304 -0.010743608 0.022697084 0.6794364 -0.13389872 0.23416208 2.602806
0.03554152 -0.15052265 0.31040823 -0.040770408 0.28384778 -0.12362783 -0.16046962 -0.050529603
-0.79267955 0.15284964 -0.85722965 0.22856028 0.21378225 0.53071254 -0.60094804 0.1175146
0.02392776 -0.13107085 -0.5416172 -1.2931391 -0.45616186 0.29212084 -0.9823941 0.037522934
0.05799054 0.23325334 0.5402762 -0.21462122 -0.38755187 0.86940193 -0.7927182 0.5191796
-0.33950165 0.12261357 -0.018147957 0.086888015 -0.09978647 0.033910975 -0.030424288 -0.04294928
0.016178021 0.025740476 0.1259373 0.1908915 -0.108844884 0.21118094 -1.0189425 0.49466833
0.23712985 0.3619704 -0.20778051 0.34165117 0.26638237 -0.23389629 -0.5154317 -0.18442738
0.15267298 -0.39328074 -0.0062528593 -0.047803342 0.23462945 0.0492726 0.70234007 -0.1503484
00000000: 4769 a03e 2def 9bbb f8f3 443f 0cb3 7fbe
00000010: be01 95bd 7ed8 9ebd e8ad c5bc 0302 fa3d
00000020: 5deb 12be 4b05 eb3e a577 823e 85cd 883e
00000030: 78c4 35bf d9fd c6bd 43a9 f43e 7524 8d3e
00000040: 4b27 f63e e34e 753e 165e 9f3d fb81 703d
00000050: 9006 bb3e 1701 bbbf 1a8c dabf 925b 63bd
00000060: ced4 223e fde7 11bf 9d83 1cbf ae85 55bd
00000070: 8352 133e d861 56bf 4ba7 c6bf d05a ebbf
00000080: d58e 2cbf 44b8 7abf b737 4abc 3da6 a8be
00000090: 7e8a ac3e 23fc bfbd 6986 15be c47b adbd
000000a0: f31b b9be 4205 003e 44a1 df3d 8e62 883e
000000b0: f138 533e 751d 0a3e 3f11 a13e 380d 463f
000000c0: 4ae3 dfbe 5ed2 12bf df64 373f ce25 a2be
000000d0: eb63 7b3e 5e5f 213f 88bc 353e f31a 0a3e
000000e0: b21d 593e a622 5abe a07c 35be 8881 a13e
000000f0: 3e74 3dbe 23ab 42be 9ba7 b6bd e8a5 3e3e
00000100: ae64 973e 9166 dd3e da5e d4be e109 42be
00000110: 26d4 2f3f 2383 febd 82a4 e13d 23fd 723e
00000120: a7e5 aabd d17c 523e 2648 253f cd3c 81bd
00000130: 87fa 26be 0ab5 6e3e 4663 a1be 10b3 313d
00000140: 6e48 a3be b4da 593a 1e6d 28be dcf1 3e3f
00000150: 4fe9 123f a1d6 15bf fccc 2cbe 48ff 1c3e
00000160: 1c8f 273f b707 e23f e288 37be 2444 ee3d
00000170: 7710 d0be 3c68 58bf a7c0 71bf fb9d 8fbf
00000180: 91d5 e13d f841 c7be f50e aa3f 3e54 1a3f
00000190: db93 003e b12a 5bbf 8c48 7ebf bdcc 88bf
000001a0: 4265 5ebe cfc0 b6be 36f3 a8be 571f b73c
000001b0: 6876 de3d 39c1 73bf 21e0 843e 02ed 313f
000001c0: 913b 42bf 41b1 803e f0c3 943e 9109 253f
000001d0: c819 31bc 3d49 873e 4101 de3e fa79 d03e
000001e0: 166e 94be 94aa f3be 29df 423e c660 97be
000001f0: 1090 3bbd e614 203f 8190 c53e 79d9 2b3d
00000200: dc61 813e 1fa9 c5be 75cd 30bf d019 62be
00000210: e35a 053f e666 0abf 3c2a 923e f67a 223e
00000220: 1acf 6c3d a4bd 07be e556 153d c5e5 05bf
00000230: 6721 003c 5b87 e03e 4c00 09be 310d 49be
00000240: 36d8 4abe d6e3 783f a161 3c3f 4628 69be
00000250: aa53 2e3e 9f20 943e 7535 23bf 1b95 703f
00000260: d493 63bf 82ab 10be 6494 39bc 855a debe
00000270: 8612 68be 3ad9 b8be d348 a53c cf03 ff3e
00000280: 058d 193f 0358 313e 8661 ed3e 3b10 bf3e
00000290: 77e2 8d3f 7d3e 6ebe 8cd2 2dbe 4979 613f
000002a0: c027 ae3f 45c7 bfbe 44df 213f c6a6 a53e
000002b0: 00ee cd3d 408a 3ebd 8232 9cbe 978e aabe
000002c0: b010 86be 8ec2 8ebe 469f 63be 26cd c6bd
000002d0: feea 96be 7de5 9ebe 097d f7b9 7361 debe
000002e0: b73f 98be 1b25 a9bd f505 30bc 3cef b93c
000002f0: 8bef 2d3f bf1c 09be 2fc8 6f3e 6094 2640
00000300: fc93 113d 9c22 1abe d4ed 9e3e dffe 26bd
00000310: 7f54 913e 9630 fdbd 2652 24be 21f8 4ebd
00000320: 0ced 4abf 9e84 1c3e 6773 5bbf b50b 6a3e
00000330: bce9 5a3e c7dc 073f bbd7 19bf 7fab f03d
00000340: 2604 c43c 7037 06be 6da7 0abf 9585 a5bf
00000350: 0c8e e9be dd90 953e 2e7e 7bbf a6b1 193d
00000360: 7d87 6d3d f7d9 6e3e 8b4f 0a3f aac5 5bbe
00000370: 336d c6be 2091 5e3f 94ef 4abf f4e8 043f
00000380: 29d3 adbe d31c fb3d 06ab 94bc 58f2 b13d
00000390: d95c ccbd 3ce6 0a3d 5b3c f9bc 96eb 2fbd
000003a0: c587 843c b1dd d23c b5f5 003e 1079 433e
000003b0: 11ea debd d13f 583e b56c 82bf 2b45 fd3e
000003c0: 2bd2 723e 2f54 b93e 6ac4 54be e7ec ae3e
000003d0: 4563 883e 8282 6fbe 55f3 03bf 88da 3cbe
000003e0: 4e56 1c3e 185c c9be c9e4 ccbb 70cd 43bd
000003f0: b442 703e 11d2 493d 8fcc 333f eef4 19be

pi.net.0.bias f4 [256]
-0.23878092 -0.42966348 -0.5557483 0.27276096 -0.8518668 -0.7950731 -0.32479805 -0.009727953
-0.86028063 -0.16243553 0.58357096 -0.026037384 -0.11539284 -0.007936646 0.5844967 -0.43148142
-0.8953092 1.4354756 0.0075148502 -0.17974544 0.6866945 -0.20975175 0.21899779 -0.2730293
-0.47398314 -0.23049884 -0.39907435 -0.050844677 -0.8447834 -0.60644805 -1.0510943 0.08226446
-0.35953045 -0.38193205 -0.5506819 0.010360694 -0.033618603 0.4056745 -1.0586401 -0.26678768
-0.0042997357 0.5888487 -0.35544968 -1.08384 -0.64053005 -0.84887683 -0.59328735 -0.2539548
0.46399304 -1.5056406 -0.99196774 -1.3248743 -0.69306564 -0.3411028 -0.43283445 -0.58848286
0.17485812 -0.33830917 -0.18088259 -0.21019748 -0.3330681 -0.5686044 0.6039843 -0.08541428
-0.98661876 -0.18779208 -0.69778633 -0.9293379 -0.9587617 -1.2506603 -0.38271287 0.35638228
0.5075878 -0.21887207 0.24263918 -0.42233953 -0.060684424 -0.29943982 -0.5945152 -0.41328096
-0.26968393 0.4344402 -0.5 0.39362425 -0.04667756 -0.5142495 0.7194283 0.64667666
-0.21633974 -0.5625671 -0.64853793 -0.331125 -0.19621123 -1.1012135 0.50535846 -0.33727288
-0.46092615 0.0256246 0.039514564 -0.45039603 0.09458615 -0.7385678 0.2238223 -0.27734366
0.20838906 0.7654572 -0.33067796 -0.15868114 -0.7505091 -0.22930078 0.3635845 0.7482786
-0.03947723 -0.0531253 -0.120758384 -0.1887994 0.08195869 -0.34159753 -0.09966726 -0.7835575
-0.030486753 -1.2076747 -0.7644674 0.31698346 -0.2756076 -0.5522197 -0.24986142 -0.2542111
-0.050618175 -0.81375325 -0.31549135 -0.041187223 -0.5058107 -0.72072583 -0.7839618 -0.52779865
-0.5084818 -0.5514925 0.46668673 0.17420693 -0.57585895 -0.014879104 -0.2995643 -0.6142086
-0.12909336 -0.32639238 -0.9476254 -0.36433077 -0.5845851 -1.0852944 -0.10572757 -0.6254024
1.1920198 -0.092514694 -0.21225584 -0.3603015 -0.53013015 -0.0027451694 -0.48991787 -1.0227485
0.066990465 -0.3656659 -0.03176968 -0.78674036 -0.22074454 -0.22691064 -0.9755442 -0.5019521
-0.62283933 -0.38443545 -0.6141659 -0.21260564 -0.57858884 -0.3568468 -0.2960923 -0.92861146
-0.21058193 -0.42877638 -0.4744028 -0.69210005 -0.7128134 0.26356304 -0.5612319 -0.4210336
0.2973529 -0.3581438 -0.9280512 -0.34773684 0.07240452 0.20900883 -0.5258625 -0.47707665
-0.39553383 0.5815383 -0.18098521 -0.66627926 -0.24493888 -0.78297937 0.15263051 -0.38420716
0.17031649 -0.5664168 -0.52041465 0.20259044 -0.9597676 -0.22979535 -0.041735712 -0.12996794
-0.49005583 -0.46190915 -0.2576324 0.35951427 0.4630497 -0.36014652 -0.3939424 0.07998429
0.28065047 -0.052205898 -0.09276801 -0.0015022157 0.042833798 -0.5988544 -0.6099987 -0.7821747
-0.6276537 -1.4116765 -0.8064695 -1.0211484 -0.37167037 0.37237358 -0.38875082 0.08442931
-0.74439716 -0.43838292 -1.4785662 -0.06592068 -0.34420824 -0.14593321 -0.49214113 -0.045853164
-0.25174832 -0.1592782 -0.30225843 -0.14667113 -0.7387906 -0.0021483158 -0.21377972 -1.0170921
-1.3960497 -0.83642685 0.30056393 0.40821066 0.049260892 -0.07233851 -0.27251837 0.28598547
00000000: fc82 74be dafc dbbe 8545 0ebf 53a7 8b3e
00000010: f113 5abf e989 4bbf ee4b a6be fe61 1fbc
00000020: 5a3b 5cbf 8055 26be e864 153f 5a4c d5bc
00000030: 1553 ecbd b508 02bc 93a1 153f 22eb dcbe
00000040: fc32 65bf aabd b73f 223f f63b 300f 38be
00000050: 36cb 2f3f 2ac9 56be f540 603e 7fca 8bbe
00000060: ebad f2be e307 6cbe 7953 ccbe 8242 50bd
00000070: ba43 58bf 2e40 1bbf 428a 86bf 457a a83d
00000080: 6014 b8be 998c c3be 7df9 0cbf e6bf 293c
00000090: a9b3 09bd 91b4 cf3e 8581 87bf 6598 88be
000000a0: cce4 8cbb cabe 163f 80fd b5be 45bb 8abf
000000b0: c7f9 23bf fe4f 59bf aee1 17bf 5d06 82be
000000c0: 7f90 ed3e d5b8 c0bf 99f1 7dbf 7b95 a9bf
000000d0: c06c 31bf 07a5 aebe 7a9c ddbe d0a6 16bf
000000e0: 020e 333e dc36 adbe 4939 39be 023e 57be
000000f0: e787 aabe 0f90 11bf b79e 1a3f afed aebd
00000100: 0c93 7cbf 914c 40be 20a2 32bf 17e9 6dbf
00000110: 6871 75bf a315 a0bf f1f2 c3be bd77 b63e
00000120: 46f1 013f 0020 60be 6876 783e e33c d8be
00000130: 3b90 78bd 2d50 99be 2632 18bf 9099 d3be
00000140: 0314 8abe f26e de3e 0000 00bf 1e89 c93e
00000150: f830 3fbd dba5 03bf 742c 383f 9a8c 253f
00000160: 2a88 5dbe 6604 10bf 9506 26bf 3789 a9be
00000170: 99eb 48be 90f4 8cbf 2c5f 013f 08af acbe
00000180: 83fe ebbe aeea d13c 06da 213d 4f9a e6be
00000190: 62b6 c13d c812 3dbf ac31 653e fdff 8dbe
000001a0: f163 553e 01f5 433f 9f4e a9be 4f7d 22be
000001b0: 5d21 40bf d3cd 6abe bf27 ba3e 308f 3f3f
000001c0: e0b2 21bd ea99 59bd 2c50 f7bd a154 41be
000001d0: f5d9 a73d dfe5 aebe 591e ccbd 3997 48bf
000001e0: 5bbf f9bc 1695 9abf 23b4 43bf a84b a23e
000001f0: 701c 8dbe 455e 0dbf acdb 7fbe f527 82be
00000200: 0155 4fbd 2252 50bf 1588 a1be efb3 28bd
00000210: cf7c 01bf 7d81 38bf b8b1 48bf d01d 07bf
00000220: dd2b 02bf 9d2e 0dbf 90f1 ee3e 4d63 323e
00000230: 7e6b 13bf 7cc7 73bc 7e60 99be c63c 1dbf
00000240: 0d31 04be e71c a7be 9497 72bf 9089 babe
00000250: 5ea7 15bf edea 8abf b287 d8bd 5f1a 20bf
00000260: 1b94 983f 5878 bdbd 9859 59be 7079 b8be
00000270: 9cb6 07bf 4de8 33bb 84d6 fabe 6ce9 82bf
00000280: 4c32 893d 9038 bbbe ed20 02bd d167 49bf
00000290: db0a 62be 435b 68be 44bd 79bf ef7f 00bf
000002a0: 6672 1fbf b9d4 c4be fa39 1dbf 4bb5 59be
000002b0: 661e 14bf a0b4 b6be 6999 97be 7bb9 6dbf
000002c0: caa2 57be 9488 dbbe ece4 f2be 782d 31bf
000002d0: f07a 36bf bcf1 863e e5ac 0fbf b791 d7be
000002e0: a43e 983e a05e b7be c394 6dbf 900a b2be
000002f0: d248 943d 6906 563e ed9e 06bf 6443 f4be
00000300: 6983 cabe b2df 143f 3054 39be 4791 2abf
00000310: 42d1 7abe 5671 48bf 2c4b 1c3e cdb6 c4be
00000320: 7267 2e3e b100 11bf e539 05bf de73 4f3e
00000330: 54b3 75bf 794f 6bbe 11f3 2abd 5116 05be
00000340: 99e8 fabe 5b7f ecbe 65e8 83be 4112 b83e
00000350: da14 ed3e 2065 b8be d1b2 c9be cece a33d
00000360: 6bb1 8f3e dad5 55bd 28fd bdbd ffe5 c4ba
00000370: 7e72 2f3d 864e 19bf e028 1cbf 9a3c 48bf
00000380: eaad 20bf d1b1 b4bf c974 4ebf feb4 82bf
00000390: 944b bebe c0a7 be3e 590a c7be 46e9 ac3d
000003a0: d090 3ebf ba73 e0be a841 bdbf 6c01 87bd
000003b0: 103c b0be 846f 15be ecf9 fbbe 87d0 3bbd
000003c0: 28e5 80be d319 23be 9ec1 9abe f530 16be
000003d0: 6121 3dbf c2ca 0cbb 12e9 5abe 1330 82bf
000003e0: c2b1 b2bf 1220 56bf 84e3 993e fd00 d13e
000003f0: cac5 493d 3626 94bd 8787 8bbe b06c 923e

pi.net.2.weight f4 [256, 256]
-0.08367979 0.032346353 -0.17657447 -0.21357465 -0.13151927 -0.6016081 -0.033235103 -0.20388833
0.39083695 0.3698402 0.8773851 -0.15771852 -0.015026375 -0.14174744 -0.061499756 -0.012088671
-0.10987383 0.26726964 -0.18972714 0.0013667196 -0.7455398 0.9366174 -0.24528608 -0.09558284
0.08703447 -0.0074478406 0.13655287 0.22182634 -0.64285463 0.09094113 -0.15124781 0.17855403
-0.1000852 -0.09491379 -0.08819335 -0.099121876 0.34177357 -0.19636023 0.050212093 0.16887651
0.25929987 -0.0140155805 -0.05715979 -0.6285256 -0.44083935 -0.16423304 0.05877061 -0.010965869
0.40419436 -0.15410908 -0.32410038 -0.6889373 -0.022254718 -0.37357545 0.10324354 0.31204683
0.028802205 -0.3338608 -0.19148427 0.2290385 0.039184503 -0.6576624 -0.21061786 -0.03324564
0.07243387 -0.030625455 0.16418561 -0.23461834 -0.16417511 -0.51271385 -0.032104213 0.22729795
-0.06882538 -0.020660063 -0.27766654 0.37925163 0.151913 0.21408567 -0.027094249 0.077674605
-0.8531679 0.017531356 0.14120802 -0.19880202 -0.1553671 -1.6224532 -0.79123265 -0.027881375
-0.04386422 -0.7019706 -0.64552176 -0.3009233 -0.17426477 -0.50650024 -0.06775043 -0.5598294
-0.04694653 -0.18980794 0.12209948 0.074181266 -0.03099702 -0.55305415 -0.015774237 -0.0912466
-0.04518457 -0.2923525 -0.035388432 0.49080598 -0.40012282 0.4118655 0.24179131 0.50433093
0.14480151 -0.16930565 0.052369807 -0.19358565 -0.30651528 0.04134517 -0.13794763 0.07671348
-0.19715248 -0.44613823 -0.31834593 0.09403396 -0.026107075 0.08836471 -0.09987289 0.0038643638
-0.28507438 0.04241508 0.040417716 -0.23927861 -0.24698819 0.17177556 -0.5282467 -0.11667053
-0.17722714 -0.09839172 -0.4047487 -0.18668793 0.14880165 0.010920234 -0.14165206 -0.21115711
0.07211797 0.076770104 0.11942771 -0.06760887 0.11201139 0.2118068 0.11247929 -0.056398343
-0.58430994 -0.20614733 -0.16189222 -0.03708642 0.0027513218 -0.3211233 -0.0089001935 0.11758735
0.36203 0.054265235 -0.19930173 0.34525728 -0.10631616 -0.08116149 -0.053710166 0.17552543
-0.34072727 -0.04813862 -0.50621676 0.13116246 0.21301974 0.33613145 -0.21153532 -0.16594099
-0.04628715 -0.3922614 -0.20695199 0.2529832 0.15514095 -0.012265623 -0.11378314 -0.033584736
-0.32898676 -0.13908906 0.06129636 -0.59389526 -0.14707209 0.599078 -0.0046568504 -0.15407735
-0.264773 -0.16710716 0.017667022 0.007957134 0.044623047 0.01371439 0.20549893 -0.84766954
-0.0054330993 -0.3036616 -0.2394902 -0.13633831 -0.082481734 0.19768097 -0.31240305 -0.40534657
-0.3529585 -0.5785655 0.050896827 0.07804156 -0.201571 0.07183186 0.1469092 -0.5011713
0.22146909 -0.06759546 -0.07428758 0.03806012 -0.4590784 0.077024914 -0.025341371 -0.19111204
0.018052747 0.073217876 0.05821926 -0.16691579 0.26699805 -0.14062905 -0.31114548 -0.06565831
-0.29032555 -0.13390918 0.29880136 -0.19689369 -0.5470221 0.2644644 -0.26926124 -0.92950916
-0.093857005 -0.4140176 0.0050773425 -1.1848818 -0.58100253 -0.08636357 -0.047696803 -0.41541794
-0.4724866 -0.5811518 -0.18211374 0.19848 -0.3167126 -0.23564571 0.30570173 -0.21251908
00000000: 4f60 abbd 9c7d 043d f0cf 34be 50b3 5abe
00000010: fdac 06be fd02 1abf 8821 08bd 1ac8 50be
00000020: c81b c83e b25b bd3e 4f9c 603f f780 21be
00000030: 2f31 76bc 3e26 11be 2be7 7bbd 900f 46bc
00000040: 8805 e1bd 91d7 883e d547 42be 8023 b33a
00000050: b2db 3ebf 28c6 6f3f 462c 7bbe f0c0 c3bd
00000060: 213f b23d 040d f4bb 84d4 0b3e 7226 633e
00000070: 1f92 24bf 583f ba3d b5e0 1abe ded6 363e
00000080: 78f9 ccbd 2962 c2bd b79e b4bd 6900 cbbd
00000090: f2fc ae3e a812 49be 32ab 4d3d f7ed 2c3e
000000a0: f4c2 843e 9ba1 65bc 6220 6abd 0ee7 20bf
000000b0: b2b5 e1be b52c 28be 73b9 703d 30aa 33bc
000000c0: 90f2 ce3e c5ce 1dbe 7cf0 a5be 325e 30bf
000000d0: 874f b6bc 4845 bfbe 5971 d33d 9ac4 9f3e
000000e0: 9af2 eb3c ceef aabe 7414 44be 1289 6a3e
000000f0: ee7f 203d 905c 28bf 35ac 57be 952c 08bd
00000100: 3558 943d 3ce2 fabc 4620 283e ca3f 70be
00000110: 851d 28be 3741 03bf b57f 03bd cbc0 683e
00000120: 52f4 8cbd 4b3f a9bc 4f2a 8ebe 452d c23e
00000130: 158f 1b3e 4639 5b3e c2f4 ddbc dd13 9f3d
00000140: 3669 5abf eb9d 8f3c d698 103e c292 4bbe
00000150: 8e18 1fbe 8cac cfbf 398e 4abf 7b67 e4bc
00000160: f8aa 33bd 58b4 33bf ea40 25bf 9e12 9abe
00000170: 7772 32be 00aa 01bf bdc0 8abd fb50 0fbf
00000180: 014b 40bd 035d 42be 4b0f fa3d 59ec 973d
00000190: 76ed fdbc f594 0dbf f938 81bc 7fdf babd
000001a0: 7513 39bd 3aaf 95be 76f3 10bd ec4a fb3e
000001b0: e6dc ccbe 09e0 d23e 2498 773e d51b 013f
000001c0: d946 143e 765e 2dbe b981 563d 513b 46be
000001d0: 92ef 9cbe 8e59 293d 2542 0dbe f51b 9d3d
000001e0: 57e2 49be 3b6c e4be 3dfe a2be e094 c03d
000001f0: 81de d5bc 8ff8 b43d 288a ccbd 4441 7d3b
00000200: 45f5 91be 6fbb 2d3d 0c8d 253d 7405 75be
00000210: 79ea 7cbe efe5 2f3e 2d3b 07bf f5f0 eebd
00000220: 087b 35be 9981 c9bd 393b cfbe 1f2b 3fbe
00000230: 765f 183e c8ea 323c 3d0d 11be 9239 58be
00000240: 96b2 933d a539 9d3d 8496 f43d 8576 8abd
00000250: 3a66 e53d e2e3 583e 8b5b e63d f301 67bd
00000260: 5695 15bf 4918 53be 13c7 25be eee7 17bd
00000270: 854f 343b 466a a4be 1ed2 11bc a3d1 f03d
00000280: ff5b b93e 3945 5e3d c115 4cbe 90c5 b03e
00000290: 49bc d9bd ff37 a6bd 31ff 5bbd f0bc 333e
000002a0: ce73 aebe 002d 45bd 6c97 01bf 744f 063e
000002b0: d921 5a3e 6c19 ac3e b79c 58be 6fec 29be
000002c0: 9897 3dbd 7cd6 c8be 39eb 53be 0487 813e
000002d0: 45dd 1e3e c0f5 48bc 2307 e9bd 2690 09bd
000002e0: f470 a8be 5d6d 0ebe e411 7b3d 8509 18bf
000002f0: 119a 16be 2d5d 193f 7e98 98bb 74c6 1dbe
00000300: 5490 87be 241e 2bbe 6eba 903c a45e 023c
00000310: a8c6 363d 52b2 603c 506e 523e df00 59bf
00000320: 2408 b2bb 8979 9bbe eb3c 75be 459c 0bbe
00000330: 2fec a8bd e16c 4a3e 4bf3 9fbe 9689 cfbe
00000340: fab6 b4be de1c 14bf 3179 503d 41d4 9f3d
00000350: a168 4ebe 951c 933d 5e6f 163e c34c 00bf
00000360: cbc8 623e 7d6f 8abd 1624 98bd eee4 1b3d
00000370: 530c ebbe 3dbf 9d3d b598 cfbc e0b2 43be
00000380: 5be3 933c 41f3 953d 5277 6e3d f9eb 2abe
00000390: f8b3 883e 1001 10be 764e 9fbe dd77 86bd
000003a0: 8da5 94be 7d1f 09be 7efc 983e 809e 49be
000003b0: a409 0cbf e167 873e 9cdc 89be 50f4 6dbf
000003c0: 1a38 c0bd 1dfa d3be d65f a63b 35aa 97bf
000003d0: 95bc 14bf 62df b0bd b95d 43bd a9b1 d4be
000003e0: c3e9 f1be 5dc6 14bf 067c 3abe 573e 4b3e
000003f0: 2728 a2be 1c4d 71be f084 9c3e 9a9e 59be

pi.net.2.bias f4 [256]
0.055933684 -0.06493709 -0.12427804 0.12964693 -0.04276451 -0.12440917 1.6552352 -0.10628785
-0.107620016 -0.105557695 -0.09404505 -0.10498847 -0.121534735 -0.089442074 -0.045217246 -0.1405166
-0.052286364 -0.10496165 -0.11951265 -0.04715589 0.6787708 -0.13522966 -0.0806325 -0.0954547
-0.12938821 -0.02089536 -0.11657711 -0.042714592 -0.11568453 -0.059993252 -0.080300204 -0.0035920914
-0.18044606 -0.13500912 -0.06633333 -0.10739203 -0.12651767 -0.09339982 -0.09561414 -0.065554
-0.12073454 -0.11230197 -0.12253609 -0.04323539 0.14355929 -0.10054792 -0.1403944 -0.06093426
-0.16211139 -0.11434343 -0.10449375 -0.18715131 -0.021578953 -0.076668784 0.05001556 -0.07801883
-0.102860585 -0.12689993 -0.09775544 0.53482664 -0.03730174 0.028404461 1.4144436 -0.07123135
0.5944995 -0.12419161 -0.14599726 -0.12762113 -0.08059376 -0.06944022 -0.055862647 -0.117822856
-0.068444826 -0.07897698 -0.100635834 -0.05884275 -0.050701622 -0.099616595 -0.110086165 -0.1319067
0.29418522 0.3643972 0.025951264 -0.08323424 -0.09357566 0.23900965 -0.103644386 -0.13488992
-0.13594194 -0.10022605 -0.07652871 -0.063823976 -0.031035982 -0.078127615 -0.07973843 -0.09392435
-0.12650056 -0.13697012 -0.060833678 -0.10165657 -0.14805362 -0.09675855 -0.05795924 -0.19884278
-0.06936125 0.75151193 -0.08097076 0.37041312 -0.095271416 -0.23629242 -0.12239304 -0.054127403
1.2346961 0.4904718 -0.10393496 -0.09581084 -0.017850306 -0.0682824 -0.05494399 -0.040324446
-0.13776286 -0.03553372 0.19097382 -0.031155191 -0.13996823 -0.062580846 0.76638734 -0.045758158
-0.058780298 -0.038769506 -0.08587622 -0.081463985 -0.09568716 -0.08227461 -0.044074327 -0.085710816
-0.06716929 -0.041411486 -0.15800165 -0.07638119 -0.061534777 -0.037227236 0.22802082 -0.021684006
-0.07004074 -0.08470201 -0.053039618 -0.029672153 -0.077586696 -0.07736914 0.627327 0.78036004
-0.07793836 -0.15179679 0.48544863 0.18523608 -0.037091635 -0.036680363 -0.05646242 -0.1149201
-0.12765391 -0.03799986 -0.10745908 -0.12457159 -0.35156345 -0.034418188 -0.0412662 0.34488037
-0.13632043 -0.14888212 -0.15582404 -0.052398123 0.34050077 -0.051840074 -0.06287328 -0.18322337
-0.12394425 -0.10597344 0.75305593 -0.113170706 0.3028562 -0.06263002 -0.053576805 0.53858167
0.4314684 -0.09561712 -0.18491912 -0.12224552 -0.06803206 -0.1016521 0.6287046 -0.053891964
-0.090723574 -0.055792615 -0.04129302 -0.088548005 -0.1076826 -0.101701275 -0.098148294 -0.094757326
-0.05494399 -0.122033924 -0.106322125 -0.06440214 -0.03722649 -0.12381461 -0.069973685 -0.057666432
-0.047601435 -0.098856635 -0.0045350334 -0.048499975 -0.015897507 -0.111869834 -0.07183634 -0.12181339
-0.044311255 -0.036610328 -0.13380511 -0.087154746 -0.0074799205 0.27983713 -0.09465153 0.44722813
-0.10920997 -0.102724984 -0.08561098 -0.11658009 -0.063557245 0.34550267 -0.110095106 -0.07776402
-0.076689646 -0.08929604 -0.18690097 -0.10588105 -0.10575886 -0.10114247 -0.056357365 -0.10266687
-0.07661067 -0.040140416 -0.11765596 -0.1082861 0.626483 -0.05834667 -0.09263092 -0.10738309
-0.12439278 -0.111881755 0.47308445 -0.13601346 -0.13424619 -0.0070236227 -0.09919787 -0.13255937
00000000: b81a 653d bdfd 84bd 7c85 febd 2ac2 043e
00000010: d729 2fbd 3cca febd bfde d33f 72ad d9bd
00000020: e267 dcbd a22e d8bd b19a c0bd 3204 d7bd
00000030: 34e7 f8bd 682d b7bd b835 39bd 95e3 0fbe
00000040: 3a2a 56bd 22f6 d6bd 0cc3 f4bd 8926 41bd
00000050: ecc3 2d3f a579 0abe a722 a5bd c17d c3bd
00000060: 587e 04be bf2c abbc fbbf eebd 7ff5 2ebd
00000070: 03ec ecbd 7cbb 75bd 6f74 a4bd 4b69 6bbb
00000080: dac6 38be d53f 0abe c5d9 87bd 5af0 dbbd
00000090: d98d 01be 6848 bfbd 59d1 c3bd 2d41 86bd
000000a0: ac43 f7bd 93fe e5bd 34f4 fabd 9817 31bd
000000b0: 3501 133e 11ec cdbd 8dc3 0fbe 3496 79bd
000000c0: 8700 26be e32c eabd d200 d6bd 98a4 3fbe
000000d0: 58c6 b0bc 8604 9dbd 1edd 4c3d 56c8 9fbd
000000e0: 92a8 d2bd 0ef2 01be 0134 c8bd 66ea 083f
000000f0: b6c9 18bd 79b0 e83c 7d0c b53f bee1 91bd
00000100: 1f31 183f 2c58 febd 4e80 15be 1daf 02be
00000110: 570e a5bd ad36 8ebd 3bd0 64bd 1c4d f1bd
00000120: cd2c 8cbd afbe a1bd 291a cebd 1805 71bd
00000130: 81ac 4fbd c903 ccbd db74 e1bd 8d12 07be
00000140: 729f 963e 4592 ba3e bf97 d43c b776 aabd
00000150: 98a4 bfbd f2be 743e 8243 d4bd 9520 0abe
00000160: 5d34 0bbe 5143 cdbd 16bb 9cbd 25b6 82bd
00000170: 2c3f febc 5f01 a0bd e74d a3bd 695b c0bd
00000180: 5d89 01be e541 0cbe bc2c 79bd 5231 d0bd
00000190: 5e9b 17be 5929 c6bd ab66 6dbd 719d 4bbe
000001a0: 450d 8ebd 1663 403f ffd3 a5bd caa6 bd3e
000001b0: a91d c3bd a4f6 71be 34a9 fabd b2b4 5dbd
000001c0: 860a 9e3f 1f1f fb3e dadb d4bd 7938 c4bd
000001d0: ce3a 92bc a5d7 8bbd f30c 61bd 3f2b 25bd
000001e0: b511 0dbe ce8b 11bd a48e 433e 2c39 ffbc
000001f0: d553 0fbe 632a 80bd f631 443f e86c 3bbd
00000200: 9cc3 70bd c6cc 1ebd dfdf afbd 97d6 a6bd
00000210: a1f7 c3bd 977f a8bd 4887 34bd 2789 afbd
00000220: 0d90 89bd 179f 29bd 2fcb 21be be6d 9cbd
00000230: e40b 7cbd 967b 18bd 4a7e 693e a8a2 b1bc
00000240: 8571 8fbd 3f78 adbd 1240 59bd 0413 f3bc
00000250: c6e5 9ebd b673 9ebd 8198 203f adc5 473f
00000260: 269e 9fbd 9e70 1bbe b98c f83e 87ae 3d3e
00000270: 66ed 17bd 263e 16bd 2345 67bd 3b5b ebbd
00000280: b5b7 02be bea5 1bbd 8213 dcbd 641f ffbd
00000290: 2000 b4be 16fa 0cbd bf06 29bd 2994 b03e
000002a0: 9597 0bbe 8e74 18be 5690 1fbe 6a9f 56bd
000002b0: 1e56 ae3e 4256 54bd b5c3 80bd e89e 3bbe
000002c0: 7cd6 fdbd 9a08 d9bd 46c8 403f 0bc6 e7bd
000002d0: f80f 9b3e 2b44 80bd 5a73 5bbd 7de0 093f
000002e0: 6de9 dc3e e9d2 c3bd 705b 3dbe dc5b fabd
000002f0: 6554 8bbd fa2e d0bd c9f2 203f d2bd 5cbd
00000300: 48cd b9bd cc86 64bd df22 29bd a858 b5bd
00000310: b288 dcbd c248 d0bd f901 c9bd 2110 c2bd
00000320: f30c 61bd ecec f9bd 6abf d9bd 45e5 83bd
00000330: ce7a 18bd 8492 fdbd 5d4e 8fbd a333 6cbd
00000340: b9f9 42bd 5975 cabd 9e9a 94bb e9a7 46bd
00000350: 7d3b 82bc 031c e5bd ee1e 93bd 4c79 f9bd
00000360: b87f 35bd b6f4 15bd 3504 09be 307e b2bd
00000370: 1f1a f5bb d046 8f3e a9d8 c1bd 16fb e43e
00000380: 7aa9 dfbd 7a61 d2bd cf54 afbd 8bc1 eebd
00000390: 4d2a 82bd bae5 b03e 8b79 e1bd be42 9fbd
000003a0: 760f 9dbd d8e0 b6bd f862 3fbe 2ad8 d8bd
000003b0: 1a98 d8bd c923 cfbd fbd6 66bd 0243 d2bd
000003c0: 0ee6 9cbd 476a 24bd 9cf5 f0bd 1ac5 ddbd
000003d0: 3161 203f ebfc 6ebd 48b5 bdbd aaeb dbbd
000003e0: a4c1 febd 4322 e5bd 2038 f23e 1d47 0bbe
000003f0: d577 09be 6b26 e6bb 4128 cbbd a5bd 07be

pi.mu_layer.weight f4 [3, 256]
0.017651608 0.05260972 0.029944472 0.6662127 -0.038535554 0.045772314 -0.53204566 0.043652624
0.043416437 0.047741506 -0.018817019 -0.038538534 -0.01798814 -0.0069203386 -0.04377854 -0.0021926379
-0.030692138 -0.036742948 0.004479247 -0.039290305 -0.16225536 -0.07238916 -0.029577158 0.09957189
0.10217835 -0.026783185 0.05254713 -0.035036016 0.068938054 0.011044472 -0.023950845 -0.10946181
-0.15455951 -0.029659487 0.0807979 0.020405855 0.13285773 -0.060955122 -0.05643485 0.0436027
-0.051781215 0.037773363 0.058064293 0.022720752 0.33621755 0.02943001 -0.02772755 -0.08093499
-0.04621935 0.043241348 0.0637301 0.06606809 -0.08163535 0.031317614 -0.11385649 -0.021096153
0.03295432 0.03079421 -0.013548614 0.0035724505 0.0073596444 -0.050545167 0.1695632 -0.0004015605
-0.25866434 -0.013401279 0.00056507473 -0.01268211 -0.05931823 0.05498869 0.010397016 -0.39526558
0.044454306 0.014800127 0.044267297 -0.051229082 -0.06391785 -0.018833037 0.07829748 0.06764463
-0.1600244 0.40327215 0.09137517 -0.048772667 0.057957 -0.03217541 0.0044134026 -0.007824374
0.063677944 0.003656539 0.03230836 0.036035888 -0.07239662 0.015472355 -0.0178775 -0.05089087
-0.03456514 0.016375089 -0.007957507 0.038581003 0.024063349 0.05420936 0.04164022 -0.015251446
0.093985446 -0.6258365 0.0039047832 0.081211336 0.024956303 -0.10465766 0.011371553 0.01236546
-0.17118679 -0.07267825 0.012935804 0.08153849 0.06937019 -0.0062326496 0.035674535 0.044335097
0.032731548 0.018212775 0.43439305 -0.008801659 -0.014380473 0.041437563 -0.124659345 -0.1619892
0.023390189 0.004312633 -0.008704614 0.047432303 -0.015945934 0.027758095 0.019153785 0.03225248
0.019541962 0.024918303 0.06540797 0.0040754247 -0.032569125 0.013085746 0.3404827 0.009457124
0.02876616 0.036015026 -0.023171887 -0.027398607 -0.01775978 -0.02401753 -0.034340046 0.119338654
0.034515217 0.0134566 -0.012791816 -0.23258238 -0.023662135 -0.017797034 -0.059941098 -0.07375859
0.019083748 0.0607778 -0.026659505 0.04730043 -0.07272146 0.5457263 -0.068321146 -0.12659392
-0.05801065 0.05681781 0.53991675 0.009571491 -0.17486997 0.10048235 0.08630091 -0.085976064
-0.06705454 0.0037880882 -0.37076706 -0.038831346 0.3544346 0.050195727 0.013040485 -0.21872044
-0.08453441 -0.027443308 -0.283173 0.028731145 -0.024333807 -0.06396703 0.1627321 -0.027168754
0.06955496 0.03901761 0.034136727 0.023351073 -0.031634826 0.013488637 0.009730435 -0.034591213
0.036568604 0.04973677 0.0798785 0.04842398 0.013202534 0.022868648 0.006042939 -0.04584458
0.0050543393 -0.08230589 0.017998943 0.025901783 0.008095343 -0.009990213 0.0021151984 -0.067547776
-0.021081997 -0.038759075 -0.036942624 -0.012476288 -0.08899351 0.08195649 0.028760573 -0.060401943
0.0789889 -0.0070564984 0.07014654 -0.036295913 -0.061354473 -0.23797612 -0.023427812 -0.0025519894
0.012545393 -0.018953362 0.023364857 -0.028461805 -0.027627338 -0.055683084 0.025227876 -0.031956688
0.026764188 -0.18295813 0.0046485616 0.008946201 0.31728986 0.02289845 -0.049359024 -0.017595494
0.025232717 -0.017888302 -0.13278018 0.004896946 -0.054781567 -0.33597082 -0.024233224 -0.04995954
00000000: 1b9a 903c 4a7d 573d 1c4e f53c ea8c 2a3f
00000010: 75d7 1dbd c07b 3b3d 2534 08bf 18cd 323d
00000020: 6fd5 313d 998c 433d 2626 9abc 95da 1dbd
00000030: dd5b 93bc 02c4 e2bb 2051 33bd 5cb2 0fbb
00000040: 146e fbbc c67f 16bd a6c6 923b dfee 20bd
00000050: 4526 26be c540 94bd cc4b f2bc 59ec cb3d
00000060: e242 d13d 6968 dbbc a93b 573d ed81 0fbd
00000070: 652f 8d3d e0f3 343c 9034 c4bc 832d e0bd
00000080: d944 1ebe 74f8 f2bc 5f79 a53d 2e2a a73c
00000090: db0b 083e 14ac 79bd 3b28 67bd bf98 323d
000000a0: 8a18 54bd 3eb8 1a3d d3d4 6d3d df20 ba3c
000000b0: b524 ac3e 3417 f13c e324 e3bc 3ec1 a5bd
000000c0: 8050 3dbd d71d 313d ed84 823d b54e 873d
000000d0: 6f30 a7bd e646 003d 972d e9bd d7d1 acbc
000000e0: 1cfb 063d 2444 fc3c 02fb 5dbc c61f 6a3b
000000f0: 2c29 f13b 7308 4fbd faa1 2d3e 8a88 d2b9
00000100: a76f 84be 0a91 5bbc 8621 143a a0c8 4fbc
00000110: acf7 72bd d23b 613d 3f58 2a3c 4060 cabe
00000120: b815 363d 3b7c 723c a051 353d 96d5 51bd
00000130: 5de7 82bd be47 9abc 6e5a a03d 4589 8a3d
00000140: 70dd 23be b079 ce3e e822 bb3d d9c5 47bd
00000150: 5264 6d3d 5dca 03bd 4e9e 903b ce31 00bc
00000160: 9569 823d 8ba2 6f3b c555 043d 5e9a 133d
00000170: ae44 94bd c37f 7d3c d673 92bc f272 50bd
00000180: 2d94 0dbd 0d25 863c 3460 02bc 1d07 1e3d
00000190: 8020 c53c a20a 5e3d ef8e 2a3d 33e1 79bc
000001a0: 717b c03d d236 20bf 64e7 7f3b 2152 a63d
000001b0: 2971 cc3c c156 d6bd c04f 3a3c 8098 4a3c
000001c0: 974b 2fbe 56d8 94bd b2f0 533c a7fd a63d
000001d0: f511 8e3d 413b ccbb 761f 123d b898 353d
000001e0: 8411 063d f532 953c c468 de3e d534 10bc
000001f0: 139c 6bbc 6fba 293d 664d ffbd 7fe0 25be
00000200: c89c bf3c fd50 8d3b cc9d 0ebc 6048 423d
00000210: 0ca1 82bc f264 e33c 66e8 9c3c 2d1b 043d
00000220: 7716 a03c 7821 cc3c 9df4 853d 248b 853b
00000230: 3467 05bd 9965 563c c053 ae3e 0ef2 1a3c
00000240: 03a7 eb3c 7e84 133d f8d2 bdbc 0b73 e0bc
00000250: f57c 91bc 69c0 c4bc 26a8 0cbd d367 f43d
00000260: d45f 0d3d 1279 5c3c c494 51bc 132a 6ebe
00000270: 18d7 c1bc 16cb 91bc cc84 75bd be0e 97bd
00000280: 8555 9c3c 24f2 783d 0965 dabc 18be 413d
00000290: fdee 94bd b8b4 0b3f f5eb 8bbd d6a1 01be
000002a0: 939c 6dbd cbb9 683d fc37 0a3f bed1 1c3c
000002b0: 1d11 33be b1c9 cd3d 88be b03d 3814 b0bd
000002c0: e453 89bd 9341 783b 2ed5 bdbe 9e0d 1fbd
000002d0: 7478 b53e 099a 4d3d c2a7 553c 40f8 5fbe
000002e0: 6020 adbd cad0 e0bc 0dfc 90be 945d eb3c
000002f0: b157 c7bc 2501 83bd 3ea3 263e 0291 debc
00000300: d572 8e3d eed0 1f3d f4d2 0b3d c04a bf3c
00000310: 8593 01bd 72ff 5c3c 676c 1f3c 84af 0dbd
00000320: f6c8 153d c9b8 4b3d 5797 a33d 3958 463d
00000330: 714f 583c 0857 bb3c d903 c63b 87c7 3bbd
00000340: df9e a53b fe8f a8bd 8572 933c fa2f d43c
00000350: 54a2 043c fead 23bc 249f 0a3b 7d56 8abd
00000360: 27b4 acbc d6c1 1ebd 2651 17bd 5869 4cbc
00000370: 3b42 b6bd ced8 a73d 4b9b eb3c 0768 77bd
00000380: efc4 a13d 333a e7bb fda8 8f3d 06ab 14bd
00000390: d44e 7bbd 03b0 73be afeb bfbc 473f 27bb
000003a0: 318b 4d3c 1544 9bbc a867 bf3c bb28 e9bc
000003b0: ba52 e2bc f213 64bd b1aa ce3c 04e5 02bd
000003c0: 9240 db3c 6059 3bbe f652 983b 1693 123c
000003d0: d173 a23e 8895 bb3c b02c 4abd 6d24 90bc
000003e0: d8b4 ce3c 7d8a 92bc 87f7 07be 8f76 a03b
000003f0: a362 60bd 5e04 acbe c184 c6bc 60a2 4cbd

pi.mu_layer.bias f4 [3]
-0.33608043 -0.017170418 -0.07465453
00000000: bc12 acbe faa8 8cbc 79e4 98bd

pi.log_std_layer.weight f4 [3, 256]
0.006340226 0.03676232 -0.011323868 0.22224109 -0.054675765 0.042543974 -0.06640334 0.017609652
-0.01331895 0.0048236502 0.009704483 -0.04334491 0.012214401 -0.014129016 0.014693025 0.027673159
0.06453625 -0.0035660607 0.072572455 0.022554606 -0.040195927 0.24517946 0.048140112 0.031116819
-0.0017718094 0.07161878 0.022324383 -0.0062316246 -0.0055269855 0.10690178 0.04957062 0.0941881
-0.095603466 0.069319524 -0.015436406 0.016835533 -0.12100849 0.0049059796 0.071276054 0.059735462
0.039758947 0.07647805 0.009864113 -0.01137118 0.34888873 -0.02037382 0.032350082 -0.05060551
-0.0033234977 0.008856421 0.07272445 0.07254414 0.01231815 0.06486706 -0.16166596 -0.031945515
-0.012193166 -0.041884597 0.050458733 0.060251813 0.052457727 -0.0020597535 -0.0101999 0.0026390678
0.06547782 0.061972126 -0.0067690914 -0.034816224 0.06045593 0.016763637 0.004819552 0.2832803
0.11861709 0.006619614 -0.069981135 -0.033566296 0.013385447 0.052956916 -0.07382564 0.039995875
0.117955945 0.066452876 0.046880215 0.07908129 -0.016242094 0.045515317 0.06608895 0.0021413688
-0.008878028 -0.0005960295 -0.012371421 0.021264534 -0.0064877393 0.076931044 -0.030196302 0.049312834
0.039253797 -0.030663826 -0.016639585 -0.018043276 0.0049045826 -0.039040707 -0.05750699 0.035369057
-0.031782348 0.06246807 -0.008079139 -0.022248274 0.009088507 0.06422779 0.0034483883 0.0018310635
-0.21679108 0.026477784 0.007109677 -0.037311427 0.031448558 0.044797778 0.039134588 0.0351664
0.016272644 -0.010713293 -0.13157538 0.091118455 0.03984314 -0.0044813887 -0.07003709 -0.029769756
-0.020304529 -0.071687326 0.022538215 0.029269075 0.005649082 -0.015700344 0.04746881 0.01718534
0.025845531 -0.014327387 0.07365577 -0.026648704 0.016461141 0.07571362 0.09158423 -0.045908656
0.026713897 -0.09628618 -0.033579424 -0.02795591 -0.01914745 0.0010178318 -0.0024292949 -0.00789824
0.013933437 -0.00014784322 -0.002243001 0.12196241 0.074981965 0.01379821 0.046018183 -0.033609226
0.079236254 -0.02362451 0.0482392 0.06450943 0.050961647 0.4289147 0.058655873 -0.14036635
0.021054057 -0.04905579 0.14903584 0.042903837 0.03969427 -0.07367365 0.045410216 0.141211
0.034351308 -0.003088152 -0.018647727 0.05764855 -0.04781908 0.020310117 -0.029961606 -0.022494636
0.044321574 -0.0004118807 0.15556379 -0.007424371 0.053859923 0.009847535 -0.078233875 -0.0071065105
0.011007592 -0.057905596 0.005572434 0.024288358 0.045616597 0.0409719 -0.021322576 0.029535435
-0.007704513 0.007558575 0.02789705 0.0033243825 -0.028339615 0.015785746 -0.015555058 -0.00032013372
0.0032550455 0.13345939 0.028107155 0.0154922865 0.006152556 -0.028719222 -0.00218081 0.012437731
0.020975826 -0.018527562 -0.0156752 -0.016201863 -0.004381708 0.015249558 -0.029339857 -0.05187409
0.065229155 0.028070647 0.009089437 0.01720322 0.043835904 -0.13185063 -0.04240241 0.025021868
0.049530387 0.008661774 0.0037485536 0.046822097 0.025237933 0.0055140406 0.0074463505 -0.028059473
0.024750665 0.09297812 -0.012417801 -0.018479507 0.11769903 0.003521404 0.011702358 -0.018823352
0.05134312 0.03347661 -0.029603247 -0.0024278904 0.02406782 0.13192458 0.009125574 -0.026675899
00000000: acc1 cf3b 1694 163d bf87 39bc 2b93 633e
00000010: b2f3 5fbd 9742 2e3d 79fe 87bd 1e42 903c
00000020: ba37 5abc b60f 9e3b 8dff 1e3c 6f8a 31bd
00000030: e91e 483c 637d 67bc 03bb 703c d2b2 e23c
00000040: 952b 843d 92b4 69bb dea0 943d 70c4 b83c
00000050: 7ca4 24bd 5310 7b3e 912e 453d b3e8 fe3c
00000060: 0f3c e8ba deac 923d a0e1 b63c a832 ccbb
00000070: b71b b5bb 52ef da3d 900a 4b3d b1e5 c03d
00000080: c0cb c3bd 65f7 8d3d fbe8 7cbc acea 893c
00000090: 4dd3 f7bd 57c2 a03b 2ef9 913d 2cad 743d
000000a0: 47da 223d 86a0 9c3d 179d 213c 304e 3abc
000000b0: 8ba1 b23e ffe6 a6bc 8581 043d b947 4fbd
000000c0: 0acf 59bb 861a 113c 8ef0 943d 0692 943d
000000d0: 11d2 493c 05d9 843d c38b 25be 4dd9 02bd
000000e0: d8c5 47bc 2f8f 2bbd d1ad 4e3d 9bca 763d
000000f0: eadd 563d eefc 06bb 7b1d 27bc 36f4 2c3b
00000100: 3c19 863d 7cd6 7d3d 41cf ddbb 759b 0ebd
00000110: a3a0 773d e553 893c 55ed 9d3b 1e0a 913e
00000120: 84ed f23d 59e9 d83b 4552 8fbd d07c 09bd
00000130: a24e 5b3c 5ae9 583d e631 97bd b7d2 233d
00000140: e392 f13d 7218 883d 7805 403d 5ff5 a13d
00000150: 240e 85bc 456e 3a3d a559 873d 3556 0c3b
00000160: 2675 11bc dd3e 1cba 80b1 4abc f632 ae3c
00000170: 1a97 d4bb 068e 9d3d 3c5e f7bc 41fc 493d
00000180: 97c8 203d b432 fbbc bd4f 88bc 7ecf 93bc
00000190: 9fb6 a03b 26e9 1fbd 738c 6bbd 25df 103d
000001a0: 352e 02bd 85de 7f3d 5d5e 04bc 0342 b6bc
000001b0: f6e7 143c dc89 833d 5bfe 613b 4c00 f03a
000001c0: 7bfe 5dbe f0e7 d83c 4bf8 e83b ded3 18bd
000001d0: 34d0 003d e07d 373d 974b 203d a50a 103d
000001e0: 354e 853c cf86 2fbc b2bb 06be 509c ba3d
000001f0: 8f32 233d 9dd8 92bb 9b6f 8fbd b4df f3bc
00000200: af55 a6bc ced0 92bd 10a2 b83c b3c5 ef3c
00000210: ef1b b93b 029e 80bc a86e 423d 45c8 8c3c
00000220: 02ba d33c 6bbd 6abc d6d8 963d 624e dabc
00000230: 84d9 863c be0f 9b3d 8390 bb3d b70a 3cbd
00000240: 1ad7 da3c b031 c5bd 948a 09bd cb03 e5bc
00000250: 1ddb 9cbc c568 853a ce34 1fbb 9f67 01bc
00000260: 1249 643c 5d06 1bb9 50ff 12bb 6ec7 f93d
00000270: 2590 993d e311 623c 907d 3c3d d4a9 09bd
00000280: 9e46 a23d 3088 c1bc 7896 453d 851d 843d
00000290: 29bd 503d b59a db3e 2441 703d 32bc 0fbe
000002a0: 8f79 ac3c b9ee 48bd da9c 183e efbb 2f3d
000002b0: 7596 223d 36e2 96bd 1000 3a3d 9e99 103e
000002c0: f5b3 0c3d 9862 4abb 1ec3 98bc e320 6c3d
000002d0: f1dd 43bd 6761 a63c 0b72 f5bc ac46 b8bc
000002e0: 8a8a 353d b1f1 d7b9 1d4c 1f3e 2348 f3bb
000002f0: 399c 5c3d 8e57 213c 1539 a0bd bbdd e8bb
00000300: 3059 343c 6b2e 6dbd f798 b63b 61f8 c63c
00000310: 78d8 3a3d 27d2 273d afac aebc 4cf4 f13c
00000320: 2476 fcbb ecad f73b 5b88 e43c e2dd 593b
00000330: 7b28 e8bc 1c51 813c a4da 7ebc 9fd7 a7b9
00000340: 9a52 553b 94a9 083e fa40 e63c 5cd3 7d3c
00000350: 619b c93b 9344 ebbc eceb 0ebb a0c7 4b3c
00000360: 7fd5 ab3c 1dc7 97bc 4769 80bc c5b9 84bc
00000370: 6e94 8fbb 48d9 793c 245a f0bc ed79 54bd
00000380: dd96 853d 6af4 e53c ddeb 143c c4ed 8c3c
00000390: 478d 333d da03 07be 26ae 2dbd a9fa cc3c
000003a0: 60e0 4a3d 1dea 0d3c 4baa 753b 87c8 3f3d
000003b0: c8bf ce3c 20af b43b 8400 f43b fbdc e5bc
000003c0: e8c1 ca3c 506b be3d 0874 4bbc 5662 97bc
000003d0: 300c f13d 5bc7 663b 3fbb 3f3c 6e33 9abc
000003e0: 2a4d 523d c51e 093d 8282 f2bc 3e1d 1fbb
000003f0: e029 c53c 3d17 073e 6e83 153c 6a87 dabc

pi.log_std_layer.bias f4 [3]
-0.10392791 -0.1380448 -0.13491099
00000000: 28d8 d4bd 9e5b 0dbe 1b26 0abe

q1.q.0.weight f4 [256, 12]
0.20185459 0.3491002 -0.9749389 -0.43185675 -0.06242807 0.05811998 -0.9754837 0.57267815
-4.5397987 -0.053448226 -0.0044358075 -0.020272039 -0.3420113 0.75729984 -0.077948205 -0.6987225
-0.03194083 -0.66226447 -1.2552805 -0.721378 -0.22868276 0.06447634 0.013049843 -0.01980169
-0.018177615 0.17228451 0.5105568 0.114080645 0.19751865 0.496127 -0.4646632 0.21266404
0.29610446 0.11481689 0.028291686 -0.037919063 -0.12683067 0.012504971 -0.69269735 0.0062330044
-0.19053371 -0.79396355 -0.23136427 -1.0593356 0.589192 -0.051705565 -0.021086726 -0.050834317
-0.2674915 -0.2871029 0.22317299 0.08747797 0.3093615 -0.014499754 0.9803545 -0.7667702
1.0738697 -0.043224204 0.025295462 0.03739105 -0.1906063 0.269435 1.8089048 0.14449006
-0.052971248 -0.08420375 0.5558164 -0.0025811214 1.2599787 -0.022709282 0.023861978 0.05413794
0.082343645 0.060314994 0.12728573 -0.1362393 -0.04355697 -0.17727643 0.101500675 -0.007338092
-0.0003794297 0.09479061 0.0026581956 -0.019355323 0.044030137 -0.14620198 -0.48531508 0.39858842
-0.16599338 0.31057897 0.12353292 -0.09043048 -1.5265954 0.030598104 -0.033167783 -0.012366089
0.19296876 -0.17380626 0.6429682 -0.3529285 0.20424832 -0.58999366 -0.4161927 0.4952342
0.5402717 -0.03889909 -0.040344473 -0.04595502 -0.1292726 -0.031471472 -0.40740743 0.055505734
-0.43216068 -0.62437165 -0.053382713 -0.49157998 1.2320259 0.038255632 0.053319886 0.043686517
-0.42637122 0.46713787 -0.80519867 -0.0370825 -0.42896912 -1.158865 0.22562222 0.52234954
-0.38852197 -0.08683206 -0.04729133 -0.011753467 -0.10870745 -0.425433 1.069737 0.3638349
-0.25427786 -0.23377363 0.20534296 -0.19509342 0.59681845 0.03711924 0.03314642 0.0643411
-0.015382446 -0.15305455 -0.06417954 0.17929354 0.17827521 0.026527727 0.5086039 -1.3332866
-0.35815525 -0.0071231043 0.017189844 0.0107150795 -0.024668245 0.15908998 0.18791372 -0.09972379
-0.007162447 0.8441754 -0.20941317 0.3594022 0.18324721 -0.08312978 -0.011181574 -0.16584806
0.017403308 -0.48641932 -0.08276046 0.051972736 -0.07664562 -0.23995134 1.0735784 -0.5596118
0.71191686 0.048067804 0.0018980986 -0.0044994364 0.23966902 0.09685094 0.16403958 -0.32704803
-0.010049633 -0.114951394 0.08000516 -0.023781346 0.091346435 -0.0013214897 0.00908981 -0.22960177
-0.11911044 0.12514186 -0.14993863 -0.22728352 -0.03992615 -0.37733698 -0.5373723 1.4781207
-1.8133943 -0.06703126 0.0017749973 0.010656499 0.047170315 0.42900154 -0.11733733 -0.5620412
0.4617926 0.06593565 -0.5621735 0.043867227 -0.9524647 -0.014901052 0.00095120515 -0.02675018
0.32660443 -0.3982744 0.115965955 -0.11095701 0.011666624 0.23957014 0.6947556 -1.3612335
0.11651142 -0.03792576 -0.03177028 -0.041972373 -0.18879862 -0.3363598 -0.4598992 -0.1626239
-0.037282217 -1.0085355 0.5200393 0.21422198 1.1671063 -0.0878402 -0.0053158333 -0.051626977
0.14044552 0.05738503 0.52678746 -0.069735885 0.14266767 -0.45970923 -0.3282676 -0.28942734
-1.942289 0.008063042 0.006058272 0.025342146 -0.05851045 -0.08899814 -0.4126561 0.09418969
00000000: f8b2 4e3e 43bd b23e 9995 79bf 541c ddbe
00000010: 93b4 7fbd 370f 6e3d 4db9 79bf 099b 123f
00000020: 0846 91c0 87ec 5abd 405a 91bb 8c11 a6bc
00000030: 1b1c afbe 67de 413f 4fa3 9fbd 7adf 32bf
00000040: 63d4 02bd 2a8a 29bf 08ad a0bf 3bac 38bf
00000050: d02b 6abe 2c0c 843d 02cf 553c 2737 a2bc
00000060: 39e9 94bc 5a6b 303e dab3 023f 1da3 e93d
00000070: 5442 4a3e 5c04 fe3e 56e8 edbe 9ac4 593e
00000080: 019b 973e 1e25 eb3d f7c3 e73c 0551 1bbd
00000090: e6df 01be a6e1 4c3c 9d54 31bf 3b3e cc3b
000000a0: 451b 43be 3241 4bbf c1ea 6cbe 4f98 87bf
000000b0: 49d5 163f 37c9 53bd 12be acbc a537 50bd
000000c0: a5f4 88be 27ff 92be 7687 643e a627 b33d
000000d0: a164 9e3e 6090 6dbc 83f8 7a3f 0d4b 44bf
000000e0: 9074 893f dd0b 31bd 6e38 cf3c 5c27 193d
000000f0: 4c2e 43be 62f3 893e 318a e73f 34f5 133e
00000100: 61f8 58bd 0473 acbd fc49 0e3f 0828 29bb
00000110: fb46 a13f d108 babc 327a c33c bfbf 5d3d
00000120: c9a3 a83d db0c 773d 3157 023e 5182 0bbe
00000130: cb68 32bd f487 35be 96df cf3d 6174 f0bb
00000140: 31ee c6b9 9421 c23d 1f35 2e3b 0e8f 9ebc
00000150: f258 343d f9b5 15be 387b f8be c813 cc3e
00000160: 2bfa 29be 3504 9f3e d4fe fc3d 9e33 b9bd
00000170: 7a67 c3bf e0a8 fa3c f1da 07bd 239b 4abc
00000180: 9a99 453e 45fa 31be 9099 243f 0bb3 b4be
00000190: 7926 513e d309 17bf 3617 d5be 568f fd3e
000001a0: 3f4f 0a3f a754 1fbd 3f40 25bd 553b 3cbd
000001b0: 0960 04be 3be8 00bd b597 d0be fb59 633d
000001c0: 2a44 ddbe d2d6 1fbf d5a7 5abd 5fb0 fbbe
000001d0: 06b3 9d3f f0b1 1c3d f465 5a3d a2f0 323d
000001e0: 544d dabe b22c ef3e 8021 4ebf d2e3 17bd
000001f0: d7a1 dbbe b055 94bf 8309 673e b3b8 053f
00000200: 5aec c6be 02d5 b1bd 8eb4 41bd 9d91 40bc
00000210: 03a2 debd 5bd2 d9be 24ed 883f 9148 ba3e
00000220: b530 82be 5b62 6fbe 6d45 523e 92c6 47be
00000230: 18c9 183f 580a 183d 8ac4 073d 44c5 833d
00000240: a806 7cbc 55ba 1cbe 9070 83bd ba98 373e
00000250: c78d 363e ad50 d93c dd33 023f 23a9 aabf
00000260: 2060 b7be ee68 e9bb b7d1 8c3c 4d8e 2f3c
00000270: 0f15 cabc 7ce8 223e 746c 403e fd3b ccbd
00000280: f6b2 eabb e11b 583f 6870 56be 9103 b83e
00000290: 28a5 3b3e f23f aabd ec32 37bc 13d4 29be
000002a0: 6291 8e3c f40b f9be 517e a9bd 5de1 543d
000002b0: 61f8 9cbd ceb5 75be 046b 893f b842 0fbf
000002c0: 2f40 363f bfe2 443d 9fc9 f83a 0270 93bb
000002d0: cc6b 753e c959 c63d fef9 273e d772 a7be
000002e0: 37a7 24bc a36b ebbd bfd9 a33d 19d1 c2bc
000002f0: d713 bb3d d635 adba 6ded 143c ba1c 6bbe
00000300: 2df0 f3bd 3025 003e 8389 19be 03bd 68be
00000310: 9a89 23bd 5032 c1be 3b91 09bf 0f33 bd3f
00000320: 4e1d e8bf af47 89bd 07a7 e83a 9998 2e3c
00000330: a935 413d 17a6 db3e 8e4e f0bd efe1 0fbf
00000340: 1470 ec3e 4509 873d 9aea 0fbf 1fae 333d
00000350: bad4 73bf 8b23 74bc 4c5a 793a 3223 dbbc
00000360: b238 a73e 9fea cbbe 8f7f ed3d 6e3d e3bd
00000370: 5e25 3f3c e051 753e 81db 313f e63c aebf
00000380: 8a9d ee3d 0b58 1bbd 8e21 02bd 39eb 2bbd
00000390: 6d54 41be 5a37 acbe e877 ebbe e186 26be
000003a0: 3db5 18bd b117 81bf 4c21 053f 025d 5b3e
000003b0: bd63 953f 90e5 b3bd 7130 aebb cf76 53bd
000003c0: f3d0 0f3e 910c 6b3d 8bdb 063f b0d1 8ebd
000003d0: 7917 123e 025f ebbe b112 a8be d22f 94be
000003e0: ed9c f8bf d91a 043c 7884 c63b 559a cf3c
000003f0: a7a8 6fbd a844 b6bd a947 d3be 86e6 c03d

q1.q.0.bias f4 [256]
0.35462335 -0.1891125 -1.1126789 -0.717255 -1.1375263 0.019304289 1.1344539 -1.1082282
0.7501793 -0.53853947 -0.40360025 0.11100562 -1.6833949 -1.3115777 0.009753446 -0.110467635
0.08213256 0.6179439 -0.022654716 -0.47702575 -0.6955364 0.35326344 -1.1894625 0.42656454
-1.3526493 0.10552893 -1.075901 -0.03543858 -0.50137556 0.09378081 0.24472377 -1.0859917
-0.34487048 -0.80502814 -0.7298676 0.1162792 1.0647045 -0.086339235 0.014259103 0.67301625
0.10229264 -0.94371676 -1.3594128 0.40127063 -0.28549048 0.29893568 0.60548556 0.16505669
0.21504392 -0.23978394 -0.9837214 -1.4148239 -0.074618265 0.18038838 0.6796447 -0.53844076
0.31581137 1.592061 0.22760977 -1.4286466 0.34287813 -1.3361485 1.1495737 -0.6956684
0.27579793 -1.0143296 0.5250492 -0.58819914 1.022236 0.27670395 -1.5919534 0.9960263
-1.014046 -0.80568933 1.435391 0.39655498 -0.80157065 1.0515538 -0.049417682 -0.046190698
0.7718222 0.13636625 0.38713384 -0.7790138 0.9760494 1.0821339 -0.92511207 -0.50031805
0.9933846 1.3652794 -0.96417344 -0.7817564 1.0419748 0.39072573 -0.8771104 0.9997291
-1.1390595 -1.4441242 -0.41236347 0.112782985 1.0841429 -1.545346 -1.4463006 -0.3850632
-0.6481355 0.32870635 -1.201481 -1.0865895 0.39216533 -0.80508566 -0.4345844 -0.0346113
-1.0973167 -0.5667925 0.05411255 0.58807075 -0.21568295 -0.05152611 -0.31811064 -1.7452165
0.5264126 0.84643656 -0.6868433 -1.4600837 0.53525525 -0.9355757 -0.79269624 0.22429182
0.7501305 -0.04824971 -0.12474795 -1.1328702 1.2990526 -1.0196047 -1.270233 -0.6456815
1.4676684 -1.202862 -0.10249849 -1.3208709 0.2939272 0.942033 -0.32141906 -0.14536403
-0.9044537 0.33060294 -0.9792788 1.2133126 0.72564375 0.5338991 0.7905695 1.6901203
0.6747625 -0.03130099 0.2595549 0.73630285 -1.1522284 0.102188595 0.5317286 -0.12529881
-0.9401968 0.46202496 -1.4122391 -0.18618193 -0.15490527 0.21377967 -0.41578662 0.2767878
0.28532615 0.92531824 0.072084546 -1.3169883 0.7502199 -0.58708894 -0.8821881 1.2211616
0.6217385 -0.35026443 -0.33491102 -0.16965275 -1.3278302 0.013816473 -0.21481472 -0.53219664
0.18836886 0.17445612 0.25520203 -0.03581801 -0.017183635 -0.14324817 -1.3686178 -0.36136112
-1.1596034 0.9043505 0.49487638 -0.17587428 0.13781786 -1.0270365 -1.2967935 -0.04827083
0.98544306 -1.1232531 -1.006713 -0.8498337 0.23696408 0.9493404 0.46988633 -0.39338383
0.56299305 0.24792327 0.043797202 -1.2875118 0.76997924 0.80768037 0.12300966 -0.9739716
0.9689035 0.3771199 1.5088191 -0.6878406 -1.3485168 1.2271796 0.7266502 0.4205598
-0.36886662 0.2827121 0.25604144 -0.39764482 0.79156053 -1.4474329 1.0429726 -0.23133406
1.4326594 -0.45417997 -0.46131358 -0.2714029 -0.23152968 -1.2975206 0.4767762 -0.39726925
-0.14523956 0.10749732 1.3348442 -0.29770437 0.44438544 0.23997092 0.8272994 0.52176845
0.63045245 -0.19557238 0.6580258 1.0576982 -0.74264807 -0.45304197 0.77438027 -0.23749712
00000000: 3191 b53e b5a6 41be 436c 8ebf 069e 37bf
00000010: 769a 91bf 0724 9e3c c935 913f 6cda 8dbf
00000020: c00b 403f b9dd 09bf b1a4 cebe ea56 e33d
00000030: 7c79 d7bf c7e1 a7bf ebcc 1f3c db3c e2bd
00000040: 1e35 a83d 9231 1e3f 6296 b9bc b83c f4be
00000050: ac0e 32bf f2de b43e 4f40 98bf ab66 da3e
00000060: 9d23 adbf 8d1f d83d 20b7 89bf 0b28 11bd
00000070: 265a 00bf 2710 c03d de98 7a3e c701 8bbf
00000080: dd92 b0be 5316 4ebf 9ad8 3abf ca23 ee3d
00000090: 3d48 883f a0d2 b0bd 039f 693c cb4a 2c3f
000000a0: ce7e d13d 6c97 71bf 3d01 aebf 5873 cd3e
000000b0: cf2b 92be 190e 993e 1a01 1b3f 9f04 293e
000000c0: 7934 5c3e ec89 75be 2ad5 7bbf f318 b5bf
000000d0: 76d1 98bd bbb7 383e 32fd 2d3f 41d7 09bf
000000e0: 07b2 a13e a8c8 cb3f 8912 693e e4dd b6bf
000000f0: b98d af3e ea06 abbf 3b25 933f 5317 32bf
00000100: 6335 8d3e 8dd5 81bf a069 063f 3894 16bf
00000110: a1d8 823f 24ac 8d3e 21c5 cbbf 94fb 7e3f
00000120: 42cc 81bf a841 4ebf e4ba b73f 4109 cb3e
00000130: bc33 4dbf 5199 863f 326a 4abd 7532 3dbd
00000140: 2496 453f 98a3 0b3e 6836 c63e 736d 47bf
00000150: 60de 793f 5d83 8a3f 25d4 6cbf d814 00bf
00000160: 744e 7e3f 7ac1 ae3f 12d4 76bf 3021 48bf
00000170: 6e5f 853f 340d c83e 4f8a 60bf 3fee 7f3f
00000180: b4cc 91bf 10d9 b8bf 4e21 d3be c4fa e63d
00000190: 32c5 8a3f e6cd c5bf 6120 b9bf 0127 c5be
000001a0: 35ec 25bf 334c a83e 21ca 99bf 5d15 8bbf
000001b0: e5c9 c83e 181a 4ebf d981 debe 94c4 0dbd
000001c0: e074 8cbf 5019 11bf 1fa5 5d3d ce8b 163f
000001d0: fedb 5cbe 0b0d 53bd 66df a2be 4163 dfbf
000001e0: fac2 063f 11b0 583f f6d4 2fbf 06e4 babf
000001f0: 7d06 093f e481 6fbf 24ee 4abf c1ac 653e
00000200: 8d08 403f 7da1 45bd da7b ffbd e401 91bf
00000210: 5b47 a63f 6882 82bf ff96 a2bf 624b 25bf
00000220: 8fdc bb3f 62f7 99bf baea d1bd 4c12 a9bf
00000230: a07d 963e 1329 713f 0a91 a4be 4fda 14be
00000240: 478a 67bf ca44 a93e 04b2 7abf d44d 9b3f
00000250: cac3 393f 9dad 083f c362 4a3f dd55 d83f
00000260: 3cbd 2c3f 7835 00bd 61e4 843e 587e 3c3f
00000270: 387c 93bf 4148 d13d 5e1f 083f 554e 00be
00000280: bdb0 70bf 898e ec3e 40c4 b4bf 7aa6 3ebe
00000290: 7d9f 1ebe 0fe9 5a3e fce1 d4be 21b7 8d3e
000002a0: 4516 923e a8e1 6c3f 10a1 933d 1393 a8bf
000002b0: 690e 403f 764b 16bf 14d7 61bf 064f 9c3f
000002c0: 412a 1f3f dc55 b3be 7579 abbe 73b9 2dbe
000002d0: 57f6 a9bf 7d5e 623c 64f8 5bbe 0a3e 08bf
000002e0: c4e3 403e a0a4 323e d7a9 823e e8b5 12bd
000002f0: b2c4 8cbc a6af 12be de2e afbf 5304 b9be
00000300: e26d 94bf 8483 673f 7060 fd3e 6318 34be
00000310: 2020 0d3e ef75 83bf 54fd a5bf a2b7 45bd
00000320: ff45 7c3f c2c6 8fbf f9db 80bf b48e 59bf
00000330: b6a6 723e f907 733f f194 f03e 9b69 c9be
00000340: 5020 103f 99df 7d3e b264 333d 30cd a4bf
00000350: 5c1d 453f 24c4 4e3f 7dec fb3d 3456 79bf
00000360: 0f0a 783f dc15 c13e fc20 c13f 5216 30bf
00000370: 339c acbf 3914 9d3f bf05 3a3f 9d53 d73e
00000380: 16dc bcbe a4bf 903e dd17 833e 1a98 cbbe
00000390: b6a3 4a3f 7b45 b9bf 2080 853f d6e2 6cbe
000003a0: 6261 b73f 478a e8be 4b31 ecbe 52f5 8abe
000003b0: 1e16 6dbe 2815 a6bf 031c f43e e066 cbbe
000003c0: aeb9 14be 8e27 dc3d 2ddc aa3f b56c 98be
000003d0: 7d86 e33e f0ba 753e e5c9 533f 9e92 053f
000003e0: 5565 213f 2044 48be 6174 283f a862 873f
000003f0: 2f1e 3ebf 1ef5 e7be c93d 463f 7232 73be
