IIFDS-SAC-random_start/TrainedModel/ac_weights.pkl (torch, 840745 bytes, 18 tensors)

pi.net.0.weight f4 [256, 9]
0	0x3ea0695c	0.31330383
1	0xbb9bef09	-0.00475872
2	0x3f44f3d6	0.76934564
3	0xbe7fb311	-0.24970652
4	0xbd9501cf	-0.072757356
5	0xbd9ed883	-0.0775614
6	0xbcc5ad16	-0.024130385
7	0x3dfa0154	0.122072846
8	0xbe12ea97	-0.14347301
9	0x3eeb05a5	0.45902744
10	0x3e8277ac	0.25481927
11	0x3e88cd7f	0.2671928
12	0xbf35c4ec	-0.71003604
13	0xbdc6fdf8	-0.097164094
14	0x3ef4a8bd	0.47784987
15	0x3e8d24aa	0.27567035
16	0x3ef6267d	0.4807624
17	0x3e754e3e	0.23955628
18	0x3d9f5e85	0.077817
19	0x3d708180	0.05871725
20	0x3ebb06ea	0.36528713
21	0xbfbb00a3	-1.4609569
22	0xbfda8cac	-1.707418
23	0xbd635b00	-0.055506706
24	0x3e22d41a	0.15901223
25	0xbf11e78f	-0.56993955
26	0xbf1c8321	-0.61137587
27	0xbd3f67e2	-0.04672993
28	0x3e12424b	0.14283101
29	0xbf556722	-0.83360493
30	0xbfc8270e	-1.5636919
31	0xbfed68f8	-1.8547659
32	0xbf2f0331	-0.68364245
33	0xbf78c315	-0.9717267
34	0xbaa42dc3	-0.0012525845
35	0xbeaa74ce	-0.3329224
36	0x3eac94b1	0.33707193
37	0xbdb9ef0e	-0.09078799
38	0xbe0edc5c	-0.13951248
39	0xbdd55d7f	-0.104182236
40	0xbec14a0e	-0.37751812
41	0x3dfb27b5	0.12263433
42	0x3dcb2aa3	0.09920242
43	0x3e86caf0	0.26326704
44	0x3e51deb2	0.20495108
45	0x3e0a1e05	0.13488014
46	0x3ea111f9	0.31459025
47	0x3f460c70	0.7736273
48	0xbedfe38f	-0.437283
49	0xbf12d2db	-0.5735299
50	0x3f3764c6	0.71638143
51	0xbea22526	-0.31668967
52	0x3e7b6364	0.24549633
53	0x3f215f22	0.63035786
54	0x3e35bc88	0.177477
55	0x3e0a1af3	0.13486843
56	0x3e591da8	0.21202719
57	0xbe5a22a6	-0.2130228
58	0xbe357ca0	-0.17723322
59	0x3ea18188	0.31544137
60	0xbe3d743e	-0.18501374
61	0xbe42ab23	-0.19010596
62	0xbdb6a79b	-0.08918687
63	0x3e3ea69f	0.18618248
64	0x3e976555	0.29569498
65	0x3edd6645	0.43242088
66	0xbed45f67	-0.41479036
67	0xbe420a7e	-0.18949315
68	0x3f2fd38f	0.6868219
69	0xbdfe8298	-0.124272525
70	0x3de1a3cb	0.11017569
71	0x3e72fc9c	0.23729175
72	0xbdaae5d5	-0.08344618
73	0x3e527c9d	0.20555349
74	0x3f2547c3	0.64562625
75	0xbd813d25	-0.063104905
76	0xbe26fb2b	-0.1630675
77	0x3e6eb43e	0.23310944
78	0xbea1630f	-0.31520888
79	0x3d31b327	0.043383744
80	0xbea34800	-0.3189087
81	0xbb418fe6	-0.0029535233
82	0xbe2ba5ee	-0.16762516
83	0x3f3dc938	0.7413516
84	0x3f14291e	0.5787524
85	0xbf146888	-0.57972
86	0xbe31cba2	-0.17362836
87	0x3e158fb8	0.14605606
88	0x3f28bb53	0.65910834
89	0x3fe1b3f1	1.7633039
90	0xbe35e80d	-0.17764302
91	0x3de5121c	0.11185095
92	0xbed2ee66	-0.4119751
93	0xbf553350	-0.8328142
94	0xbf6ead04	-0.9323275
95	0xbf90ecf1	-1.1322309
96	0x3dc20586	0.0947371
97	0xbece52be	-0.40297502
98	0x3fab0bee	1.3363016
99	0x3f1a54d8	0.6028571
100	0x3e009405	0.12556465
101	0xbf5b2a66	-0.8561157
102	0xbf7e4928	-0.9933038
103	0xbf88ccd0	-1.0687504
104	0xbe5e6567	-0.2171837
105	0xbeb6c046	-0.35693568
106	0xbea8f280	-0.32997513
107	0x3cb71f2e	0.022353735
108	0x3ddc9aca	0.10771711
109	0xbf749048	-0.95532656
110	0x3e81757d	0.2528495
111	0x3f33959b	0.70150155
112	0xbf40ce8d	-0.7531517
113	0x3e77ef84	0.24212462
114	0x3e9221a4	0.2854129
115	0x3f24d953	0.6439411
116	0xbba6a486	-0.0050855307
117	0x3e874984	0.26423275
118	0x3ede0109	0.43360165
119	0x3ed07a8e	0.40718502
120	0xbe946e25	-0.28990284
121	0xbef3aace	-0.4759125
122	0x3e42df39	0.19030465
123	0xbe97617e	-0.29566568
124	0xbd3b90af	-0.045792278
125	0x3f201485	0.6253131
126	0x3ec6c8d2	0.3882509
127	0x3d36049b	0.044437986
128	0x3e7ffc47	0.2499858
129	0xbec85640	-0.39128304
130	0xbf3264cf	-0.6968507
131	0xbe65ef86	-0.22454652
132	0x3f04de66	0.51901853
133	0xbf09afad	-0.53783685
134	0x3e913a0b	0.28364596
135	0x3e227a37	0.15866934
136	0x3d6cce49	0.057813916
137	0xbe07bd8b	-0.13255899
138	0x3d155670	0.036459386
139	0xbf05e677	-0.52304786
140	0x3c0021b2	0.007820534
141	0x3ee087f2	0.43853718
142	0xbe08ffa8	-0.13378775
143	0xbe490db5	-0.19634135
144	0xbe5575ba	-0.2084569
145	0x3f77c095	0.9677823
146	0x3f3a8283	0.72855395
147	0xbe61d705	-0.2205468
148	0x3e34c519	0.17653312
149	0x3e91fa1a	0.28511125
150	0xbf25004c	-0.6445358
151	0x3f736357	0.95073456
152	0xbf62c4c0	-0.88581467
153	0xbe0a42a4	-0.13501984
154	0xbb25d3fb	-0.0025303352
155	0xbee249e2	-0.44196993
156	0xbe66ffff	-0.22558592
157	0xbeb93ce2	-0.36179262
158	0x3c091f8c	0.008369338
159	0x3f021b76	0.5082315
160	0x3f19db2a	0.6010004
161	0x3e2709a0	0.16312265
162	0x3ee9045c	0.45511138
163	0x3ec03e83	0.37547693
164	0x3f8e5f87	1.1122903
165	0xbe759334	-0.23981935
166	0xbe3499c4	-0.17636782
167	0x3f5f2d9f	0.8717899
168	0x3faea486	1.3643959
169	0xbebd04a2	-0.36917597
170	0x3f220dc7	0.6330227
171	0x3ea5a6c6	0.323538
172	0x3dcdee00	0.100551605
173	0xbd3e8a40	-0.046518564
174	0xbe9c3282	-0.30507284
175	0xbeaa8e97	-0.33311912
176	0xbe8610b0	-0.26184607
177	0xbe8ec28e	-0.27882808
178	0xbe639f46	-0.22228727
179	0xbdc6cd26	-0.09707098
180	0xbe9a909f	-0.30188462
181	0xbe9d5c5f	-0.30734536
182	0xbc3dcfd1	-0.011585192
183	0xbedc1e9d	-0.42992106
184	0xbe95c66e	-0.29252952
185	0xbdbd01cc	-0.09228858
186	0xbbf54416	-0.007484923
187	0x3ce680e9	0.028137641
188	0x3f2d252c	0.67634845
189	0xbe06ea1e	-0.13175246
190	0x3e6f8870	0.2339189
191	0x4026baa5	2.6051419
192	0x3cfc3b2c	0.030789934
193	0xbe1ea746	-0.15493497
194	0x3e9de403	0.30838022
195	0xbd199388	-0.037494212
196	0x3e8e7f5f	0.2783155
197	0xbe09748c	-0.13423365
198	0xbe2b5f63	-0.16735606
199	0xbd82ea6f	-0.06392371
200	0xbf4dc99a	-0.80385745
201	0x3e2a8f73	0.16656284
202	0xbf57ee94	-0.84348416
203	0x3e634e30	0.22197795
204	0x3e4e4982	0.20145229
205	0x3f09c118	0.5381026
206	0xbf20113f	-0.62526315
207	0x3de692c3	0.11258461
208	0x3c0129e6	0.0078835245
209	0xbdfe6ee0	-0.124234915
210	0xbf096dc7	-0.5368313
211	0xbfa604e8	-1.2970247
212	0xbee33a0c	-0.44380224
213	0x3e923123	0.28553113
214	0xbf7d143a	-0.9885899
215	0x3d12aabd	0.03580736
216	0x3d80411e	0.0626242
217	0x3e78486c	0.24246377
218	0x3f0ad8ea	0.54237235
219	0xbe57e6f3	-0.21084194
220	0xbec4f824	-0.38470566
221	0x3f5e0942	0.86732876
222	0xbf4ace31	-0.79220873
223	0x3f020e3e	0.5080298
224	0xbea88ae5	-0.32918468
225	0x3dfb1cbf	0.12261342
226	0xbc94ab96	-0.018148225
227	0x3db1f2e0	0.08688903
228	0xbdcc5d18	-0.09978694
229	0x3d0ae589	0.033910308
230	0xbcf93bdd	-0.030424053
231	0xbd2feb76	-0.042949162
232	0x3c84883d	0.016178245
233	0x3cd2dd23	0.025740212
234	0x3e00f5e1	0.12593795
235	0x3e437888	0.19088948
236	0xbddee9f3	-0.10884466
237	0x3e583f1a	0.21117821
238	0xbf826d00	-1.0189514
239	0x3efd451a	0.49466783
240	0x3e72d172	0.2371271
241	0x3eb95377	0.3619649
242	0xbe54c51e	-0.20778319
243	0x3eaeed68	0.34165502
244	0x3e88638b	0.26638445
245	0xbe6f824a	-0.23389545
246	0xbf03f358	-0.5154319
247	0xbe3cdb10	-0.1844294
248	0x3e1c56f8	0.15267551
249	0xbec95be5	-0.39327922
250	0xbbcce52b	-0.006252905
251	0xbd43cd47	-0.04780319
252	0x3e70431f	0.23463105
253	0x3d49d26a	0.049272932
254	0x3f33cbdd	0.70232946
255	0xbe19f583	-0.15035062

pi.net.0.bias f4 [256]
0	0xbe748312	-0.23878124
1	0xbedbfd7f	-0.4296684
2	0xbf0e4610	-0.55575657
3	0x3e87c868	0.26520085
4	0xbf5ae850	-0.8551073
5	0xbf4b89e3	-0.79507273
6	0xbea64bee	-0.32479805
7	0xbc1f6282	-0.009728076
8	0xbf5c3be5	-0.8602889
9	0xbe217147	-0.15765868
10	0x3f17f79a	0.59362185
11	0xbcd54ce8	-0.026037648
12	0xbde2d40e	-0.110756025
13	0xbc0208f4	-0.007936705
14	0x3f14a984	0.5807116
15	0xbedcebcf	-0.43148658
16	0xbf630b57	-0.8868918
17	0x3fb7b084	1.4350743
18	0x39830969	0.00024993278
19	0xbe380f2e	-0.1797454
20	0x3f30a58f	0.6900262
21	0xbe5afb46	-0.21384916
22	0x3e6cbaf5	0.23118193
23	0xbe8aa915	-0.27082124
24	0xbef5e107	-0.48023245
25	0xbe6c081a	-0.23049966
26	0xbecc53ab	-0.39907584
27	0xbd50428d	-0.050844718
28	0xbf58443d	-0.84479123
29	0xbf1b402b	-0.6064479
30	0xbf853c10	-1.0408955
31	0x3dc4b735	0.096052565
32	0xbebfef92	-0.37487465
33	0xbec38ce4	-0.3819343
34	0xbf0cf9be	-0.55068576
35	0x3c29bf5a	0.010360563
36	0xbd1c21c8	-0.038118154
37	0x3ed37536	0.41300362
38	0xbf87ffaa	-1.0624897
39	0xbe8898da	-0.26679116
40	0xbc7fc60d	-0.015611184
41	0x3f15f6d4	0.58579755
42	0xbeb5fdd4	-0.35545218
43	0xbf8abbf6	-1.0838611
44	0xbf23f9e2	-0.64053166
45	0xbf58865c	-0.84580016
46	0xbf17e1c4	-0.59328866
47	0xbe820669	-0.25395516
48	0x3eec173b	0.46111473
49	0xbfc09e3e	-1.5048292
50	0xbf7f2b08	-0.99675035
51	0xbfa97bd0	-1.324091
52	0xbf316d55	-0.6930745
53	0xbeaea5a3	-0.34110746
54	0xbedd9d03	-0.43283853
55	0xbf155f7b	-0.58348817
56	0x3e3280ea	0.1743199
57	0xbeaf04df	-0.34183404
58	0xbe3bda63	-0.18345027
59	0xbe573e0d	-0.21019764
60	0xbeaa883f	-0.33307073
61	0xbf126c98	-0.5719695
62	0x3f1b4fec	0.60668826
63	0xbdaeeda9	-0.08541424
64	0xbf7c9357	-0.9866232
65	0xbe404d0d	-0.18779393
66	0xbf32a21f	-0.6977863
67	0xbf6ecacf	-0.9327821
68	0xbf7471ab	-0.95485944
69	0xbfa0fb4e	-1.2576692
70	0xbec3f379	-0.38271692
71	0x3eb18ca7	0.34677622
72	0x3f03e7cc	0.5152557
73	0xbe4e7a3c	-0.20163816
74	0x3e70ae96	0.23504099
75	0xbed87fbf	-0.42284963
76	0xbd9a99a1	-0.07548834
77	0xbe97d391	-0.296536
78	0xbf1832d7	-0.59452575
79	0xbecf4738	-0.40484023
80	0xbe87da3d	-0.2653369
81	0x3edf54a7	0.43619272
82	0xbf00002d	-0.5000027
83	0x3ec7de5b	0.3903683
84	0xbd3f3199	-0.04667816
85	0xbf01c323	-0.5068838
86	0x3f3859e2	0.7201215
87	0x3f29ec22	0.66375935
88	0xbe5d8823	-0.21633963
89	0xbf100520	-0.5625782
90	0xbf26e014	-0.65185666
91	0xbea98942	-0.33112532
92	0xbe48ec46	-0.19621381
93	0xbf8e302b	-1.110845
94	0x3f01bde3	0.5068037
95	0xbea65775	-0.324886
96	0xbeebfee1	-0.46092895
97	0x3c8c6259	0.01713674
98	0x3d21d9a4	0.0395142
99	0xbeeaf43c	-0.4588946
100	0x3dcee135	0.101015486
101	0xbf3d137c	-0.73857856
102	0x3e645408	0.2229768
103	0xbe8e0090	-0.27734804
104	0x3e52062b	0.20510165
105	0x3f451b86	0.7699512
106	0xbea94eec	-0.33068025
107	0xbe227d66	-0.15868148
108	0xbf41ebcd	-0.7575043
109	0xbe6ace81	-0.22930337
110	0x3eb7d444	0.35904133
111	0x3f3f778d	0.74791795
112	0xbd4c17ef	-0.049827512
113	0xbd599a81	-0.053125862
114	0xbdf750b2	-0.12075938
115	0xbe41549c	-0.18879932
116	0x3d9b134b	0.07572039
117	0xbeaee64e	-0.34160084
118	0xbdcc1ed2	-0.09966816
119	0xbf4897bd	-0.78356534
120	0xbd0fe753	-0.035132717
121	0xbf9a9586	-1.2076881
122	0xbf44f087	-0.76929516
123	0x3e9eb835	0.30999914
124	0xbe8d3feb	-0.27587828
125	0xbf0d5e8b	-0.55222386
126	0xbe7fdbea	-0.24986234
127	0xbe82289f	-0.25421616
128	0xbd4f551d	-0.05061828
129	0xbf5052d4	-0.81376386
130	0xbea1d1c0	-0.3160534
131	0xbd28b45b	-0.041187625
132	0xbf0182d6	-0.50590265
133	0xbf394255	-0.7236684
134	0xbf472b84	-0.77800775
135	0xbf071205	-0.5276187
136	0xbf022c55	-0.50848895
137	0xbf0d2f3a	-0.55150187
138	0x3eeccc48	0.46249604
139	0x3e2910f6	0.16510376
140	0xbf136bdc	-0.57586455
141	0xbc73c7e6	-0.0148792025
142	0xbe9960b3	-0.29956588
143	0xbf1d3cdb	-0.61420983
144	0xbe04314b	-0.12909429
145	0xbea71cef	-0.32639262
146	0xbf7297d8	-0.94762945
147	0xbeba89bc	-0.36433208
148	0xbf15a7cd	-0.5845917
149	0xbf8aeb14	-1.085299
150	0xbdd887e9	-0.10572798
151	0xbf201a69	-0.625403
152	0x3f98e70c	1.194551
153	0xbdbd7907	-0.092516
154	0xbe5e429a	-0.21705094
155	0xbeb879aa	-0.36030322
156	0xbf06c6c5	-0.5264705
157	0x3bd500be	0.0065003326
158	0xbefad6c4	-0.48991978
159	0xbf824bc3	-1.0179371
160	0x3d893181	0.06698895
161	0xbebb38da	-0.36566812
162	0xbd022114	-0.031769827
163	0xbf4967d4	-0.78674054
164	0xbe620b35	-0.22074588
165	0xbe685b66	-0.22691116
166	0xbf79bdb3	-0.97555083
167	0xbf008031	-0.50195605
168	0xbf1f728d	-0.62284166
169	0xbec4d573	-0.384441
170	0xbf1e777a	-0.61901057
171	0xbe55eca3	-0.20891051
172	0xbf141ea5	-0.5785926
173	0xbeb8421e	-0.35987943
174	0xbe9aa5fa	-0.30204755
175	0xbf6db983	-0.92861193
176	0xbe57a33f	-0.21058367
177	0xbed52d9e	-0.41636366
178	0xbef2e553	-0.47440585
179	0xbf312e0a	-0.69210875
180	0xbf36f3d5	-0.7146581
181	0x3e86f181	0.26356128
182	0xbf0fad9f	-0.561243
183	0xbed83fc8	-0.4223616
184	0x3e97c34d	0.2964119
185	0xbeb75f2f	-0.35814807
186	0xbf6d9576	-0.92806184
187	0xbeb20b2a	-0.34774143
188	0x3d974daf	0.07387864
189	0x3e624dd0	0.22099996
190	0xbf069f92	-0.52587235
191	0xbeede769	-0.46465614
192	0xbeca8375	-0.3955342
193	0x3f151691	0.5823756
194	0xbe395496	-0.18098673
195	0xbf2a919f	-0.6662845
196	0xbe832658	-0.2561519
197	0xbf46ff93	-0.77733725
198	0x3e13d02b	0.14434879
199	0xbec3a19f	-0.38209245
200	0x3e336c7a	0.1752185
201	0xbf0e8386	-0.5566944
202	0xbf053a79	-0.5204235
203	0x3e4dc3ea	0.20094267
204	0xbf73f805	-0.9530032
205	0xbe68ecfd	-0.22746654
206	0xbd3a8c1f	-0.045543786
207	0xbdf51da1	-0.11968542
208	0xbef9000b	-0.48632845
209	0xbee687db	-0.45025524
210	0xbe83e85e	-0.2576322
211	0x3eb8b585	0.36075988
212	0x3ee9b04f	0.45642325
213	0xbeb86519	-0.3601463
214	0xbec9b366	-0.39394683
215	0x3da3ce61	0.07998348
216	0x3e9093bb	0.2823771
217	0xbd55d686	-0.05220654
218	0xbdbdfd2d	-0.09276805
219	0x3ba1fb89	0.0049433154
220	0x3d2f71bd	0.04283308
221	0xbf194ede	-0.59885967
222	0xbf1d9f56	-0.6157125
223	0xbf483d54	-0.7821858
224	0xbf211848	-0.62927675
225	0xbfb457de	-1.4089315
226	0xbf4e7500	-0.8064728
227	0xbf82774f	-1.019266
228	0xbebc597b	-0.36787018
229	0x3ec05f36	0.3757264
230	0xbec70aeb	-0.38875517
231	0x3dace890	0.08442795
232	0xbf3e9107	-0.74440044
233	0xbee0b865	-0.43890682
234	0xbfbd41bf	-1.4785689
235	0xbd94256c	-0.072337
236	0xbeb03c82	-0.34421164
237	0xbe19b4ad	-0.15010329
238	0xbefbf9e0	-0.49214077
239	0xbd0be755	-0.034156162
240	0xbe7d7c0d	-0.24754353
241	0xbe191a7d	-0.1495151
242	0xbe9ac195	-0.30225816
243	0xbe206b37	-0.15665899
244	0xbf3d5551	-0.7395831
245	0x3b9d6903	0.004803778
246	0xbe5ae90a	-0.2137796
247	0xbf820f35	-1.0160891
248	0xbfb36893	-1.4016289
249	0xbf56200f	-0.8364267
250	0x3e992531	0.29911187
251	0x3ec7130e	0.38881725
252	0x3d6559e8	0.055993944
253	0xbd942649	-0.07233865
254	0xbe8933da	-0.26797372
255	0x3e924275	0.28566328

pi.net.2.weight f4 [256, 256]
0	0xbdab60b0	-0.08368051
1	0x3d047d1a	0.03234587
2	0xbe34d055	-0.17657597
3	0xbe597eb8	-0.21239746
4	0xbe06ad7a	-0.13152114
5	0xbf1a02d4	-0.60160565
6	0xbd082188	-0.033235103
7	0xbe50c894	-0.20389014
8	0x3ec81ba9	0.39083603
9	0x3eb96aba	0.36214238
10	0x3f5fa6fb	0.87364167
11	0xbe218183	-0.15772061
12	0xbcca58ca	-0.024700541
13	0xbe112686	-0.14174852
14	0xbd7be6db	-0.061499458
15	0xbc460efd	-0.012088534
16	0xbddd528c	-0.1080676
17	0x3e850097	0.25977013
18	0xbe430512	-0.19044903
19	0x3ab32380	0.0013667196
20	0xbf406efc	-0.7516935
21	0x3f6e0408	0.929749
22	0xbe7ad1a8	-0.2449404
23	0xbdc3c0c7	-0.09558254
24	0x3db4536a	0.088049725
25	0xbbf40d35	-0.0074478635
26	0x3e0bd3d6	0.13655028
27	0x3e6325ca	0.22182384
28	0xbf2492c1	-0.6428643
29	0x3dba3fb2	0.0909418
30	0xbe1793e1	-0.14802505
31	0x3e2a220f	0.16614555
32	0xbdca4fa0	-0.098784685
33	0xbdc26271	-0.094914325
34	0xbdb49e71	-0.08819283
35	0xbdcb0072	-0.09912194
36	0x3eacd2ea	0.33754665
37	0xbe49127c	-0.19635957
38	0x3d445a21	0.047937516
39	0x3e2cee16	0.16887698
40	0x3e8215c9	0.25407246
41	0xbc65a199	-0.014015579
42	0xbd6a200d	-0.057159472
43	0xbf20e6bf	-0.6285209
44	0xbee1b594	-0.44083846
45	0xbe266d1a	-0.16252556
46	0x3d70b8a1	0.058769826
47	0xbc33aa48	-0.010965891
48	0x3ecef1d3	0.40418872
49	0xbe21c429	-0.15797485
50	0xbea844bb	-0.32864937
51	0xbf2f95b7	-0.6858782
52	0xbcb64eb8	-0.022254333
53	0xbebf45d1	-0.37357953
54	0x3dd37104	0.103242904
55	0x3ea09af2	0.31368214
56	0x3d1ea39b	0.038730245
57	0xbeaaef93	-0.33385906
58	0xbe4769bf	-0.19473933
59	0x3e6a88ae	0.22903702
60	0x3d207fc2	0.03918434
61	0xbf2742d5	-0.6533635
62	0xbe57e4ec	-0.2108342
63	0xbd082d3f	-0.033246275
64	0x3d94576e	0.072432384
65	0xbcfae293	-0.030625617
66	0x3e282009	0.1641847
67	0xbe71fa46	-0.23630628
68	0xbe2ff411	-0.17182948
69	0xbf04eabb	-0.5192067
70	0xbd03803e	-0.032104723
71	0x3e68e1eb	0.22742431
72	0xbda268e2	-0.07930161
73	0xbcc4ea92	-0.024037633
74	0xbe8d599c	-0.2760743
75	0x3ebf4b2c	0.3736204
76	0x3e1b8ed4	0.15191203
77	0x3e5fab17	0.2184261
78	0xbcddf4f3	-0.02709434
79	0x3d9f1336	0.07767336
80	0xbf5bc8d5	-0.8585332
81	0x3c991640	0.018687367
82	0x3e1098e0	0.14120817
83	0xbe4b917e	-0.1987972
84	0xbe1f1889	-0.15536703
85	0xbfd0d725	-1.6315657
86	0xbf4e16a1	-0.8050328
87	0xbd035cfc	-0.0320711
88	0xbd33aba7	-0.043864872
89	0xbf33b506	-0.70198095
90	0xbf225f82	-0.63426983
91	0xbe9a12ae	-0.30092376
92	0xbe327256	-0.17426428
93	0xbf01af84	-0.5065844
94	0xbd8ac113	-0.06775107
95	0xbf0f89cb	-0.5606963
96	0xbd404b0d	-0.046946574
97	0xbe41c7af	-0.1892383
98	0x3dfa0f22	0.122099176
99	0x3d989615	0.07450501
100	0xbd0d9620	-0.034567
101	0xbf0d95a4	-0.5530646
102	0xbce3cf6c	-0.027808867
103	0xbdbadf17	-0.09124582
104	0xbd6fcc79	-0.05854461
105	0xbe985a57	-0.29756424
106	0xbd10f3f2	-0.035388894
107	0x3efb4b3d	0.4908084
108	0xbec9cb1a	-0.39412767
109	0x3ed2df9c	0.41186225
110	0x3e74c61c	0.23903698
111	0x3f00abb2	0.50261986
112	0x3e0b2d5f	0.13591526
113	0xbe2d5e5e	-0.1693053
114	0x3d56816d	0.052369524
115	0xbe463b5a	-0.19358578
116	0xbe9c4cde	-0.30527395
117	0x3d2958e9	0.041344557
118	0xbe0d4250	-0.13794827
119	0x3d9d1bb1	0.07671297
120	0xbe4856ed	-0.1956441
121	0xbee46cc0	-0.4461422
122	0xbea44e45	-0.32090965
123	0x3db086fc	0.08619496
124	0xbcee02c9	-0.029054062
125	0x3db4f7d2	0.088363305
126	0xbdcc8a02	-0.099872604
127	0x3b7d4162	0.0038643708
128	0xbe91f495	-0.28506914
129	0x3d2dbb6a	0.04241506
130	0x3d02f091	0.031967703
131	0xbe750588	-0.23927891
132	0xbe80c6a1	-0.25151542
133	0x3e301d1e	0.17198607
134	0xbf073b44	-0.5282481
135	0xbdf14101	-0.11779977
136	0xbe357b97	-0.17722927
137	0xbdc98219	-0.09839267
138	0xbecf3be6	-0.40475386
139	0xbe3ece94	-0.18633491
140	0x3e185fd5	0.14880307
141	0x3c32eb84	0.010920409
142	0xbe110ca4	-0.14164978
143	0xbe583a25	-0.2111593
144	0x3d93b31f	0.07211899
145	0x3d9d393c	0.07676932
146	0x3df496b6	0.11942808
147	0xbd8a7733	-0.06761017
148	0x3de565b4	0.11201039
149	0x3e58e484	0.21180922
150	0x3de65bf3	0.11248007
151	0xbd670285	-0.056398887
152	0xbf16134a	-0.5862318
153	0xbe5317ec	-0.20614594
154	0xbe2dcce8	-0.16972697
155	0xbd17e815	-0.037086565
156	0x3bace8f3	0.005276793
157	0xbea469dc	-0.32112014
158	0xbc11d26f	-0.008900269
159	0x3df02a2d	0.117267944
160	0x3eb95bea	0.36202937
161	0x3d5e4474	0.0542645
162	0xbe4c15e3	-0.19930224
163	0x3eb0c5e4	0.3452598
164	0xbdd9bbde	-0.10631536
165	0xbda6385e	-0.0811622
166	0xbd5bfebe	-0.053709738
167	0x3e33bd09	0.1755258
168	0xbeae7395	-0.34072557
169	0xbd452c98	-0.04813823
170	0xbf0196ee	-0.50620925
171	0x3dfb766f	0.12278449
172	0x3e5a213b	0.21301739
173	0x3eabdcc1	0.3356686
174	0xbe6e7a9c	-0.2328896
175	0xbe29eca4	-0.16594177
176	0xbd3d97ae	-0.04628723
177	0xbeca13e3	-0.39468297
178	0xbe53eabd	-0.20695014
179	0x3e818696	0.25297993
180	0x3e1edc24	0.15513664
181	0xbc48f55f	-0.012265532
182	0xbde90796	-0.113784
183	0xbd18236f	-0.037143167
184	0xbeaec873	-0.34137306
185	0xbe0e6e0b	-0.13909166
186	0x3d7b1228	0.061296612
187	0xbf180945	-0.59389144
188	0xbe13e1c5	-0.14441593
189	0x3f197b9a	0.59954226
190	0xbb989885	-0.0046568536
191	0xbe255412	-0.16145352
192	0xbe878fa0	-0.26476765
193	0xbe312f3e	-0.17303178
194	0x3c90bacc	0.017667197
195	0x3c025e72	0.007957088
196	0x3d3d1596	0.046163164
197	0x3c60b17f	0.013714193
198	0x3e4a997a	0.19785109
199	0xbf5725b3	-0.840419
200	0xbb5fd1f9	-0.0034152253
201	0xbe9578fe	-0.29193872
202	0xbe753cd4	-0.23948985
203	0xbe0b9c87	-0.13633929
204	0xbda8ec87	-0.08248239
205	0x3e46b1a8	0.19403708
206	0xbea0f55b	-0.3143719
207	0xbed683ab	-0.4189733
208	0xbeb91930	-0.3615203
209	0xbf14d3a7	-0.58135456
210	0x3d507868	0.05089608
211	0x3d7abe57	0.06121668
212	0xbe5cd1d2	-0.21564415
213	0x3d931bc6	0.07183032
214	0x3e166f68	0.14690936
215	0xbf004d03	-0.5011751
216	0x3e629274	0.2212618
217	0xbd8a6f75	-0.0675954
218	0xbd9824cb	-0.07428893
219	0x3d22a818	0.039711088
220	0xbeeb0cd5	-0.45908228
221	0x3d9dbea6	0.07702379
222	0xbcfb4384	-0.030671842
223	0xbe43b21a	-0.19110909
224	0x3c9a398c	0.018826269
225	0x3d804830	0.06263769
226	0x3d6e772e	0.058219127
227	0xbe36179e	-0.17782447
228	0x3e88a317	0.26686928
229	0xbe0d9905	-0.13827904
230	0xbe9f4eab	-0.31114706
231	0xbd867805	-0.06565861
232	0xbe94a4fa	-0.29032117
233	0xbe132f18	-0.14373434
234	0x3e98fcd9	0.29880407
235	0xbe499e0d	-0.19689198
236	0xbf0c0918	-0.54701376
237	0x3e86cc71	0.2632785
238	0xbe89dc8e	-0.26926082
239	0xbf6e92d2	-0.9319278
240	0xbdc5f088	-0.09665018
241	0xbed6f3fe	-0.41983026
242	0x3ba65fbc	0.0050773304
243	0xbf97aa23	-1.1848797
244	0xbf14b1cb	-0.5808379
245	0xbdad93bd	-0.084754445
246	0xbd435e24	-0.0476972
247	0xbed4b18a	-0.41541702
248	0xbef047a9	-0.46929672
249	0xbf14c62c	-0.58114886
250	0xbe35918a	-0.177313
251	0x3e45fd04	0.19334799
252	0xbea22886	-0.31671542
253	0xbe714d46	-0.23564634
254	0x3e9b03fb	0.30276474
255	0xbe599ec5	-0.21251972

pi.net.2.bias f4 [256]
0	0x3d465507	0.048420932
1	0xbd84fe62	-0.06493832
2	0xbdfe85e4	-0.12427881
3	0x3e066b40	0.1312685
4	0xbd2f29ea	-0.04276458
5	0xbdfeca2f	-0.12440907
6	0x3fd5051e	1.6642187
7	0xbdd9ad85	-0.10628799
8	0xbddc6859	-0.1076209
9	0xbdd82ea0	-0.10555768
10	0xbdc09aee	-0.094045505
11	0xbdd704bf	-0.10498952
12	0xbdf8e7d5	-0.121535935
13	0xbdb72d9e	-0.08944248
14	0xbd3935f0	-0.045217454
15	0xbe0fe3de	-0.14051768
16	0xbd562abb	-0.052286845
17	0xbdd6f647	-0.104961924
18	0xbdf4c354	-0.119513184
19	0xbd41270a	-0.04715637
20	0x3f2d9de3	0.6781904
21	0xbe0a7a43	-0.13523202
22	0xbda522c2	-0.0806327
23	0xbdc37db7	-0.095454626
24	0xbe07c910	-0.13260293
25	0xbcab2d75	-0.020895699
26	0xbdeec0ae	-0.116578445
27	0xbd2ef622	-0.0427152
28	0xbdecec88	-0.11568552
29	0xbd75bb96	-0.05999335
30	0xbda474ae	-0.080300674
31	0xbb6b695e	-0.0035920958
32	0xbe40624c	-0.18787497
33	0xbe0a4045	-0.1350108
34	0xbd87da67	-0.06633454
35	0xbddbf111	-0.10739339
36	0xbe10851d	-0.14113279
37	0xbdbf48ea	-0.09340079
38	0xbdc3d192	-0.09561457
39	0xbd8641a5	-0.065554895
40	0xbdf74414	-0.12073532
41	0xbde5ff1a	-0.112302974
42	0xbdfaf4eb	-0.12253746
43	0xbd31182a	-0.043235935
44	0x3e1df354	0.15424854
45	0xbdcdec92	-0.10054888
46	0xbe0fc3c4	-0.14039522
47	0xbd7996d7	-0.060934868
48	0xbe260098	-0.16211164
49	0xbdea2d9a	-0.11434479
50	0xbdd6011f	-0.104494326
51	0xbe3fa4c0	-0.18715191
52	0xbcb0c6e6	-0.021579217
53	0xbd9d0541	-0.07667018
54	0x3d4467b7	0.047950473
55	0xbd9fc8dc	-0.07801983
56	0xbdd2a8d7	-0.1028611
57	0xbe01f2cc	-0.12690276
58	0xbdc834a3	-0.09775665
59	0x3f077c89	0.529244
60	0xbd18c9da	-0.037301876
61	0x3cd016df	0.02540153
62	0x3fb4c13a	1.4121468
63	0xbd91e1c6	-0.07123141
64	0x3f1b64fe	0.60700977
65	0xbdfe5894	-0.12419239
66	0xbe1580af	-0.1459987
67	0xbe02af33	-0.12762146
68	0xbda50e68	-0.080593884
69	0xbd8e374f	-0.06944143
70	0xbd64d040	-0.055862665
71	0xbdf14d17	-0.11782282
72	0xbd8c2d1a	-0.0684454
73	0xbda1bf5b	-0.07897826
74	0xbdce1a57	-0.10063618
75	0xbd749018	-0.05970773
76	0xbd4faca4	-0.050701752
77	0xbdcc0461	-0.09961773
78	0xbde1754b	-0.110087
79	0xbe071305	-0.13190849
80	0x3e94ad7d	0.2903861
81	0x3ebe59c6	0.37177867
82	0x3cc51363	0.024057096
83	0xbdaa76de	-0.08323453
84	0xbdbfa514	-0.09357658
85	0x3e7f0caa	0.24907175
86	0xbdd4441f	-0.103645556
87	0xbe0a20a8	-0.1348902
88	0xbe0b3473	-0.13594227
89	0xbdcd43be	-0.100226864
90	0xbd9cbb49	-0.07652909
91	0xbd82b6bc	-0.0638251
92	0xbcfe3f82	-0.031036142
93	0xbda001c2	-0.07812835
94	0xbda34dde	-0.07973836
95	0xbdc05c03	-0.0939255
96	0xbe0189b1	-0.12650181
97	0xbe0c4271	-0.1369722
98	0xbd792d28	-0.06083408
99	0xbdd0314e	-0.10165654
100	0xbe179b7c	-0.14805406
101	0xbdc629ed	-0.096759655
102	0xbd6d66cb	-0.05795936
103	0xbe4b9de4	-0.19884449
104	0xbd8e0dda	-0.06936236
105	0x3f3d41d8	0.73928595
106	0xbda5d466	-0.080971524
107	0x3eb911a9	0.36146286
108	0xbdc31dd8	-0.095271766
109	0xbe71f6cc	-0.23629302
110	0xbdfaa9a1	-0.122393854
111	0xbd5db55c	-0.054128036
112	0x3f9c9d40	1.2235489
113	0x3effbe1b	0.49949726
114	0xbdd4dc7d	-0.10393617
115	0xbdc43914	-0.09581199
116	0xbc923af0	-0.01785037
117	0xbd8bd7c9	-0.06828267
118	0xbd610d61	-0.0549444
119	0xbd252bee	-0.040325098
120	0xbe0d11ba	-0.13776293
121	0xbd118c8b	-0.035534423
122	0x3e438c8b	0.19096582
123	0xbcff393b	-0.03115522
124	0xbe0f5491	-0.13997103
125	0xbd802ad9	-0.062581725
126	0x3f42745d	0.75958806
127	0xbd3b6d71	-0.04575867
128	0xbd70c413	-0.05878074
129	0xbd1eccea	-0.03876964
130	0xbdafe06d	-0.08587728
131	0xbda6d6e9	-0.081464596
132	0xbdc3f807	-0.09568792
133	0xbda8804c	-0.08227596
134	0xbd348797	-0.04407462
135	0xbdaf895f	-0.08571123
136	0xbd899061	-0.06716991
137	0xbd299f45	-0.041411657
138	0xbe21cb7b	-0.15800278
139	0xbd9c6e10	-0.0763818
140	0xbd7c0c3e	-0.061535113
141	0xbd187bfd	-0.03722762
142	0x3e65a56d	0.22426386
143	0xbcb1a309	-0.021684187
144	0xbd8f71fa	-0.07004161
145	0xbdad78e4	-0.08470324
146	0xbd59404f	-0.053039845
147	0xbcf31325	-0.029672215
148	0xbd9ee5eb	-0.07758697
149	0xbd9e7443	-0.07737019
150	0x3f1eaeed	0.61985666
151	0x3f482608	0.7818303
152	0xbd9f9edb	-0.07793971
153	0xbe1b70af	-0.15179704
154	0x3ef4c5b5	0.47807088
155	0x3e3d2515	0.18471177
156	0xbd17ed97	-0.037091818
157	0xbd163e62	-0.036680587
158	0xbd6745ac	-0.05646293
159	0xbdeb5ba7	-0.11492091
160	0xbe02b851	-0.12765624
161	0xbd1ba5db	-0.03799997
162	0xbddc1384	-0.1074591
163	0xbdff1fb6	-0.1245722
164	0xbeb40021	-0.35156348
165	0xbd0f261b	-0.03494845
166	0xbd2906d0	-0.041266263
167	0x3eac7076	0.3367955
168	0xbe0b9815	-0.13632233
169	0xbe1874f9	-0.14888372
170	0xbe19eb73	-0.15031223
171	0xbd569fc1	-0.052398447
172	0x3eaf51df	0.3424215
173	0xbd545698	-0.051840395
174	0xbd80c430	-0.0628742
175	0xbe3b9f78	-0.18322551
176	0xbdfdd71a	-0.12394543
177	0xbdd908dd	-0.10597394
178	0x3f40988c	0.7523277
179	0xbde7c66c	-0.11317143
180	0x3e9dc393	0.30813274
181	0xbd8044a9	-0.06263096
182	0xbd5b7410	-0.053577483
183	0x3f0a0c78	0.53925276
184	0x3ee059e7	0.4381859
185	0xbdc3d38f	-0.09561836
186	0xbe3d5b6b	-0.18491904
187	0xbdfa5be9	-0.12224562
188	0xbd8b5505	-0.068033256
189	0xbdd02f1f	-0.10165238
190	0x3f2212ef	0.6331014
191	0xbd5cbe10	-0.053892195
192	0xbdb9cdc8	-0.09072453
193	0xbd648784	-0.0557933
194	0xbd292309	-0.041293178
195	0xbdb5592b	-0.08854898
196	0xbddc88fa	-0.10768314
197	0xbdd04970	-0.10170257
198	0xbdd9f40f	-0.106422536
199	0xbdc2107a	-0.09475799
200	0xbd610d6e	-0.05494445
201	0xbdf9ed6b	-0.12203487
202	0xbdd9bfb8	-0.106322706
203	0xbd83e57c	-0.06440255
204	0xbd187b77	-0.03722712
205	0xbdfd92db	-0.12381526
206	0xbd8f4ed4	-0.06997457
207	0xbd6c33b0	-0.05766648
208	0xbd42fa1a	-0.047601797
209	0xbdca75ae	-0.09885727
210	0xbb949b4c	-0.0045351144
211	0xbd46a887	-0.048500564
212	0xbc823be0	-0.015897691
213	0xbde51c55	-0.111870445
214	0xbd931f14	-0.07183662
215	0xbdf9795d	-0.12181351
216	0xbd358051	-0.044311825
217	0xbd15f55c	-0.036610946
218	0xbe090448	-0.1338054
219	0xbdb27e83	-0.087155364
220	0xbbca762c	-0.006178638
221	0x3e975173	0.29554328
222	0xbdc1d907	-0.09465223
223	0x3edd7df6	0.43260163
224	0xbddfa9b2	-0.10921039
225	0xbdd261e7	-0.1027258
226	0xbdaf54e4	-0.085611135
227	0xbdeec241	-0.11658145
228	0xbd822ae6	-0.063558385
229	0x3eaf50ef	0.34241435
230	0xbde179f7	-0.11009591
231	0xbd9f4343	-0.07776501
232	0xbd9d0f70	-0.0766896
233	0xbdb6e15d	-0.089297034
234	0xbe3f6393	-0.18690328
235	0xbdd8d8bb	-0.10588213
236	0xbdd898c3	-0.10576012
237	0xbdcf2400	-0.10114288
238	0xbd66d75a	-0.05635772
239	0xbdd24324	-0.10266712
240	0xbd9ce64d	-0.07661114
241	0xbd246a5b	-0.04014049
242	0xbdf0f5e4	-0.1176565
243	0xbdddc584	-0.10828689
244	0x3f2068a4	0.6265967
245	0xbd6efd55	-0.058347065
246	0xbdbdb588	-0.0926314
247	0xbddbebe6	-0.107383534
248	0xbdfec21e	-0.12439369
249	0xbde522d4	-0.111882836
250	0x3eee950c	0.4659809
251	0xbe0b4795	-0.13601525
252	0xbe0977e8	-0.13424647
253	0xbbe626a2	-0.0070236484
254	0xbdcb2840	-0.099197865
255	0xbe07be36	-0.13256153

pi.mu_layer.weight f4 [3, 256]
0	0x3c8e4c58	0.017370388
1	0x3d577d85	0.05260994
2	0x3cf54e40	0.02994454
3	0x3f2a0f6c	0.6642978
4	0xbd1dd721	-0.03853524
5	0x3d3b7bc5	0.045772333
6	0xbf07ffb6	-0.5312456
7	0x3d32cd32	0.04365272
8	0x3d31d4fe	0.043416016
9	0x3d438cb4	0.047741607
10	0xbc9a266e	-0.018817153
11	0xbd1dd9f8	-0.03853795
12	0xbc935bbc	-0.017988078
13	0xbbe2c39b	-0.0069202906
14	0xbd3351b9	-0.04377911
15	0xbb0fb213	-0.002192621
16	0xbcfb6e4d	-0.030692244
17	0xbd168079	-0.036743615
18	0x3b92c6d5	0.004479269
19	0xbd20ef0e	-0.03929048
20	0xbe229479	-0.1587695
21	0xbd944026	-0.07238798
22	0xbcf24bc6	-0.029577147
23	0x3dcbecef	0.09957301
24	0x3dda07af	0.10645997
25	0xbcdb6847	-0.026783122
26	0x3d573b3c	0.052546725
27	0xbd0f8226	-0.03503623
28	0x3d8d2f9a	0.06893845
29	0x3c34f42c	0.011044543
30	0xbcc4341d	-0.02395063
31	0xbde02e0c	-0.10946283
32	0xbe20a36f	-0.15687345
33	0xbcf2f8f7	-0.029659731
34	0x3da579d3	0.08079877
35	0x3ca729ed	0.020405734
36	0x3df2763b	0.11838957
37	0xbd79ac94	-0.0609556
38	0xbd672861	-0.056434993
39	0x3d32986c	0.043602392
40	0xbd541922	-0.05178178
41	0x3d1ab8b3	0.0377738
42	0x3d6dd52a	0.058064617
43	0x3cba2047	0.02272047
44	0x3eb4ad2d	0.35288373
45	0x3cf117b1	0.029430242
46	0xbce32502	-0.027727608
47	0xbda5c08d	-0.08093367
48	0xbd3d50c8	-0.046219617
49	0x3d311d90	0.043241084
50	0x3d82859b	0.063731395
51	0x3d874ebe	0.06606816
52	0xbda730a5	-0.08163575
53	0x3d004667	0.03131714
54	0xbddb983a	-0.10722394
55	0xbcacd1d8	-0.021096155
56	0x3d06fa74	0.032953694
57	0x3cfc4461	0.030794324
58	0xbc5dfb87	-0.013548738
59	0x3b424aac	0.0029646559
60	0x3bf1299a	0.0073596956
61	0xbd58a884	-0.052895084
62	0x3e29a34a	0.16566196
63	0xb9d2891b	-0.00040156473
64	0xbe84e469	-0.25955513
65	0xbc5b9112	-0.013401287
66	0x3a142231	0.0005650847
67	0xbc4fc846	-0.012682026
68	0xbd72f7a8	-0.059318215
69	0x3d613b7f	0.05498838
70	0x3c2a58ae	0.010397119
71	0xbeca601c	-0.3952645
72	0x3d3615ca	0.044454373
73	0x3c727bce	0.014800025
74	0x3d35521d	0.044267762
75	0xbd55ecea	-0.052227892
76	0xbd82e7dc	-0.0639188
77	0xbc9a47e0	-0.0188331
78	0x3da059c8	0.078296244
79	0x3d8a898d	0.06764517
80	0xbe19de93	-0.15026312
81	0x3ecfceed	0.4058756
82	0x3dc52717	0.096265964
83	0xbd47c63d	-0.04877304
84	0x3d6d642c	0.05795686
85	0xbcbffdde	-0.023436483
86	0x3b909ea2	0.0044134418
87	0xbc003167	-0.007824278
88	0x3d826a07	0.06367879
89	0x3b6fa2d0	0.003656555
90	0x3d045608	0.03230861
91	0x3d139ab7	0.03603622
92	0xbd9444c3	-0.07239678
93	0x3c7d7f47	0.01547224
94	0xbc9273d6	-0.0178775
95	0xbd50737a	-0.050891377
96	0xbd0d94ba	-0.034565665
97	0x3c8625a2	0.016375367
98	0xbc025f77	-0.007957331
99	0x3d1e0671	0.03858036
100	0x3cc5201e	0.024063166
101	0x3d5e0ada	0.054209568
102	0x3d2a8ef5	0.04164024
103	0xbc79e109	-0.0152514065
104	0x3dc07b7e	0.09398554
105	0xbf1f7169	-0.62282425
106	0x3b7fe77f	0.0039047895
107	0x3d90b53a	0.07065816
108	0x3ccc711f	0.024956284
109	0xbdd65668	-0.104656994
110	0x3c3a4fe0	0.011371583
111	0x3c4a97b0	0.012365267
112	0xbe3577d5	-0.17721494
113	0xbd9a061b	-0.07520696
114	0x3c53f0e6	0.012935853
115	0x3da6fe3f	0.08153962
116	0x3d8e1254	0.069370896
117	0xbbcc3be2	-0.0062327245
118	0x3d121fee	0.03567498
119	0x3d359914	0.04433544
120	0x3d06115d	0.032731403
121	0x3c95322a	0.018212397
122	0x3ede965f	0.434741
123	0xbc103415	-0.00880148
124	0xbc6b9c3e	-0.014380513
125	0x3d29ba7a	0.041437604
126	0xbde8071e	-0.113294825
127	0xbe25e11d	-0.16199155
128	0x3cbf9d17	0.023390336
129	0x3b8d5199	0.0043127057
130	0xbc0e9d86	-0.008704549
131	0x3d4247b7	0.047431674
132	0xbc82a074	-0.01594565
133	0x3ce364d6	0.027758043
134	0x3c9ce8e0	0.019154012
135	0x3d041b68	0.0322527
136	0x3ca0170c	0.01954224
137	0x3ccc214b	0.02491822
138	0x3d85f4de	0.06540845
139	0x3b858ae2	0.004075394
140	0xbd0566d5	-0.03256877
141	0x3c566574	0.013085712
142	0x3eac1920	0.3361292
143	0x3c1af269	0.009457209
144	0x3ceba79c	0.028766446
145	0x3d138536	0.03601571
146	0xbcbdd324	-0.023171969
147	0xbce07309	-0.027398603
148	0xbc917c3c	-0.017759435
149	0xbcc4c0a8	-0.024017647
150	0xbd0127d9	-0.031532142
151	0x3e01fc53	0.1269391
152	0x3d0d5f83	0.034514915
153	0x3c5c7973	0.01345669
154	0xbc5e4c44	-0.013567988
155	0xbe791a45	-0.24326427
156	0xbcc1d6ba	-0.02366196
157	0xbc91cb77	-0.017797215
158	0xbd7584dd	-0.05994116
159	0xbd970f6f	-0.073759906
160	0x3c9c5517	0.019083543
161	0x3d78f226	0.060777806
162	0xbcda64b7	-0.026659353
163	0x3d41bda2	0.04729999
164	0xbd94ee62	-0.072720304
165	0x3f0ba5d3	0.545499
166	0xbd8bec63	-0.068321966
167	0xbdd96c55	-0.10616366
168	0xbd6d9ccd	-0.058010865
169	0x3d68ba2c	0.056818172
170	0x3f0bed9c	0.5465944
171	0x3c1cd256	0.009571632
172	0xbe44ddd5	-0.19225247
173	0x3dcdca1f	0.10048317
174	0x3db0be8d	0.08630095
175	0xbdb01445	-0.08597616
176	0xbd895347	-0.06705337
177	0x3b78412a	0.0037880638
178	0xbebbeda7	-0.36704752
179	0xbd1f0dfa	-0.03883169
180	0x3eb81c8c	0.3595928
181	0x3d4d9a66	0.050196074
182	0x3c55a81c	0.013040569
183	0xbe5fe874	-0.21866018
184	0xbd9f1280	-0.077672005
185	0xbce0d001	-0.027442934
186	0xbe90fb5f	-0.2831678
187	0x3ceb5e4d	0.02873149
188	0xbcc7581c	-0.024334006
189	0xbd830198	-0.06396788
190	0x3e28b42b	0.16474979
191	0xbcde9148	-0.027168885
192	0x3d8e7337	0.06955569
193	0x3d1fd0f7	0.039017644
194	0x3d0bd249	0.03413609
195	0x3cbf4b4b	0.023351332
196	0xbd0193ad	-0.031634975
197	0x3c5cffaf	0.013488694
198	0x39f037c7	0.00045817925
199	0xbd0daee0	-0.034590602
200	0x3d15c93d	0.03656887
201	0x3d4bb8f7	0.049736943
202	0x3da3975e	0.079878554
203	0x3d465837	0.048423972
204	0x3c584f10	0.013202444
205	0x3cbb5759	0.022868799
206	0x3bc60482	0.006043018
207	0xbd3bc742	-0.045844324
208	0x3ba59f9b	0.005054427
209	0xbda88f48	-0.08230454
210	0x3c93723a	0.017998803
211	0x3cd43027	0.025901867
212	0x3c04a23c	0.00809532
213	0xbc23adcb	-0.009990166
214	0x3b0a9e6b	0.0021151553
215	0xbd8a56ce	-0.06754838
216	0xbcacb464	-0.02108211
217	0xbd1ec229	-0.038759384
218	0xbd175194	-0.036943033
219	0xbc4c692a	-0.012476245
220	0xbdb81994	-0.08989254
221	0x3dade7f0	0.08491504
222	0x3ceb9bbd	0.028760785
223	0xbd615f81	-0.05502272
224	0x3da1c4fa	0.078988984
225	0xbbe73a5f	-0.007056519
226	0x3d8fa93d	0.070147015
227	0xbd14abb5	-0.036296565
228	0xbd7b4ef4	-0.061354592
229	0xbe7043d8	-0.2346338
230	0xbcbfeb0b	-0.023427507
231	0xbb273f8c	-0.0025520055
232	0x3c4d8bc0	0.012545526
233	0xbc9b43cd	-0.018953228
234	0x3cbf682f	0.023365108
235	0xbce928af	-0.028461782
236	0xbce2521d	-0.027627045
237	0xbd6413a9	-0.055682812
238	0x3cceab0f	0.025228051
239	0xbd02e4f9	-0.031956647
240	0x3cdb412d	0.026764477
241	0xbe3b5986	-0.18295869
242	0x3b985356	0.0046486063
243	0x3c1293c7	0.008946366
244	0x3ea49d26	0.32151145
245	0x3cbb95c5	0.022898564
246	0xbd4a2c98	-0.049358934
247	0xbc902450	-0.01759544
248	0x3cceb44b	0.025232455
249	0xbc928a26	-0.01788814
250	0xbe0ac1d0	-0.13550496
251	0x3ba07727	0.0048970166
252	0xbd606321	-0.054782037
253	0xbeac038e	-0.33596462
254	0xbcc684df	-0.02423328
255	0xbd4ca1e7	-0.04995909

pi.mu_layer.bias f4 [3]
0	0xbeacf8b2	-0.3378349
1	0xbcb39e1a	-0.021925975
2	0xbd9c3d24	-0.07628849

pi.log_std_layer.weight f4 [3, 256]
0	0x3c06c2eb	0.008225183
1	0x3d1694b8	0.036762923
2	0xbc398728	-0.011323728
3	0x3e606448	0.21913254
4	0xbd5ff3d2	-0.054675885
5	0x3d2e431f	0.04254448
6	0xbd88b2af	-0.06674706
7	0x3c904290	0.017609864
8	0xbc5a3870	-0.01331912
9	0x3b9e1029	0.004823704
10	0x3c1efef0	0.0097043365
11	0xbd3189b0	-0.0433442
12	0x3c481f79	0.012214535
13	0xbc677d97	-0.014129064
14	0x3c70ba56	0.014692863
15	0x3ce2b23c	0.02767288
16	0x3d842bb5	0.06453649
17	0xbb69b461	-0.0035660493
18	0x3d94a0d5	0.07257239
19	0x3cb8c4bf	0.022554753
20	0xbd239fc2	-0.03994728
21	0x3e7b103b	0.2451791
22	0x3d452f08	0.048140556
23	0x3cfee854	0.031116642
24	0x3a943ffe	0.0011310575
25	0x3d92ad31	0.0716194
26	0x3cb6e204	0.02232457
27	0xbbcc3275	-0.006231601
28	0xbbb51ba0	-0.005526975
29	0x3ddaefe2	0.10690285
30	0x3d4b09dd	0.049569953
31	0x3dc0e63a	0.09418912
32	0xbdbe1ce5	-0.09282855
33	0x3d8df785	0.06931976
34	0xbc7ce8e6	-0.015436387
35	0x3c89ea1f	0.01683527
36	0xbe05f802	-0.13082889
37	0x3ba0c286	0.0049060015
38	0x3d91f96d	0.07127652
39	0x3d74adae	0.059735946
40	0x3d22daf9	0.03975961
41	0x3d9ca12e	0.0764793
42	0x3c219da3	0.009864244
43	0xbc3a4ea9	-0.011371293
44	0x3eb5d152	0.3551126
45	0xbca6e70e	-0.020373847
46	0x3d0481d7	0.032350387
47	0xbd4f47cb	-0.050605576
48	0xbb59cf09	-0.0033234975
49	0x3c111ae8	0.008856513
50	0x3d94f121	0.07272554
51	0x3d9492bc	0.0725455
52	0x3c49d235	0.012318184
53	0x3d84d971	0.06486786
54	0xbe1de741	-0.15420248
55	0xbd02d9e4	-0.031946078
56	0xbc47c516	-0.012192985
57	0xbd2b8f63	-0.04188479
58	0x3d4eae19	0.050459
59	0x3d6a55e8	0.057210833
60	0x3d56de03	0.05245782
61	0xbc75b514	-0.014996786
62	0xbc01f224	-0.007931266
63	0x3b2cf39b	0.0026390317
64	0x3d962358	0.0733096
65	0x3d7dd6b6	0.061972342
66	0xbbddced6	-0.0067690415
67	0xbd0e9b6f	-0.0348162
68	0x3d77a083	0.06045581
69	0x3c8953f1	0.01676366
70	0x3b9ded31	0.004819535
71	0x3e910a30	0.28328085
72	0x3df2edec	0.11861786
73	0x3bd8e89e	0.006619527
74	0xbd8f5280	-0.069981575
75	0xbd21060d	-0.03931241
76	0x3c5b4f15	0.013385554
77	0x3d58e9f4	0.05295749
78	0xbd97328b	-0.07382687
79	0x3d23d340	0.039996386
80	0x3df02227	0.11725264
81	0x3d7ae7dc	0.061256275
82	0x3d6286de	0.0553044
83	0x3da1f559	0.079081245
84	0xbc850d85	-0.016241798
85	0x3d7a84e8	0.061161906
86	0x3d875a14	0.06608978
87	0x3b0c568a	0.0021413886
88	0xbc117571	-0.008878098
89	0xba1c3e20	-0.0005960185
90	0xbc4ab143	-0.012371364
91	0x3cae328b	0.021264335
92	0xbbd49790	-0.006487794
93	0x3d9d8e2b	0.07693132
94	0xbcf75e5d	-0.030196363
95	0x3d49fc7d	0.049313057
96	0x3d20c8a7	0.039253857
97	0xbcfb333c	-0.030664079
98	0xbc884ff9	-0.016639696
99	0xbc93cfbf	-0.018043397
100	0x3ba0b751	0.0049046655
101	0xbd1fe939	-0.039040778
102	0xbd6b8ced	-0.057507444
103	0x3d10deaf	0.035368618
104	0xbd022eb9	-0.03178284
105	0x3d7efde3	0.062253844
106	0xbc045e6e	-0.008079154
107	0xbca359d5	-0.019940296
108	0x3c14e88f	0.009088649
109	0x3d8389cf	0.06422769
110	0x3b61fe6e	0.0034483927
111	0x3af00043	0.0018310625
112	0xbe61d189	-0.22052588
113	0x3d02c054	0.0319217
114	0x3be8f87b	0.0071096993
115	0xbd18d452	-0.03731186
116	0x3d00cf96	0.03144797
117	0x3d377e8d	0.044798423
118	0x3d204bf3	0.03913493
119	0x3d100a2e	0.035165958
120	0x3c854e73	0.016272759
121	0xbc2f86fc	-0.010713335
122	0xbe0391d3	-0.12848596
123	0x3dba9c7b	0.091118775
124	0x3d2332d4	0.039843395
125	0xbb92d884	-0.004481377
126	0xbd7e7e65	-0.062132258
127	0xbcf3e04b	-0.029770037
128	0xbca6561f	-0.020304738
129	0xbd92d113	-0.07168784
130	0x3cb8a2c4	0.02253855
131	0x3cefc5ac	0.029269062
132	0x3bb91bd1	0.005649068
133	0xbc809d79	-0.015700089
134	0x3d426e54	0.0474685
135	0x3c8cc8a4	0.017185517
136	0x3cd3ba87	0.02584578
137	0xbc6abdf8	-0.014327519
138	0x3d96d986	0.07365708
139	0xbcda4ecf	-0.026648907
140	0x3c86d927	0.016460968
141	0x3d9b1027	0.0757144
142	0x3db4b20e	0.08823024
143	0xbd3c0a62	-0.04590834
144	0x3cdad735	0.026713947
145	0xbdc53116	-0.09628503
146	0xbd098a4d	-0.03357916
147	0xbce50420	-0.027956069
148	0xbc9cda94	-0.019147195
149	0x3a8568ca	0.0010178324
150	0xbb1d3654	-0.002398868
151	0xbba559bf	-0.005046099
152	0x3c644846	0.013933247
153	0xb91b05ff	-0.00014784186
154	0xbc212209	-0.009834775
155	0x3df654b3	0.12027874
156	0x3d998fb6	0.07498114
157	0x3c621266	0.013798332
158	0x3d3c7df7	0.046018567
159	0xbd09a96c	-0.03360884
160	0x3da2464b	0.079235636
161	0xbcc18808	-0.023624435
162	0x3d4595c8	0.048238546
163	0x3d841d9f	0.06450962
164	0x3d50bc7b	0.050961
165	0x3edb68fb	0.4285353
166	0x3d7041ca	0.05865649
167	0xbe018726	-0.12649211
168	0x3cac79a6	0.0210541
169	0xbd48ef4e	-0.049056344
170	0x3e25667a	0.16152373
171	0x3d2fbbed	0.04290383
172	0x3d11956c	0.03554289
173	0xbd96e2ba	-0.073674634
174	0x3d3a002b	0.045410316
175	0x3e1099fb	0.14121239
176	0x3d0cb477	0.034351792
177	0xbb4a61f5	-0.003088114
178	0xbc86bcbe	-0.016447421
179	0x3d6c217c	0.05764912
180	0xbd49b3d8	-0.049243778
181	0x3ca661ee	0.020310368
182	0xbcf571fa	-0.029961575
183	0xbccb89a6	-0.02484591
184	0x3d595c6b	0.053066652
185	0xb9d7f12b	-0.0004118768
186	0x3e1f4b7a	0.15556136
187	0xbbf347f7	-0.0074243504
188	0x3d5c9bc1	0.053859476
189	0x3c21577a	0.009847516
190	0xbdb01da6	-0.08599405
191	0xbbe8de11	-0.0071065505
192	0x3c3459e9	0.011007764
193	0xbd6d2ee2	-0.05790604
194	0x3bb6984d	0.005572355
195	0x3cc6f8a0	0.024288476
196	0x3d3ad8df	0.04561698
197	0x3d27d27b	0.040972214
198	0xbc8b62c6	-0.017014872
199	0x3cf1f49e	0.029535588
200	0xbbfc7685	-0.0077045583
201	0x3bf7ae48	0.0075586177
202	0x3ce48898	0.027897164
203	0x3b59de28	0.0033243988
204	0xbce8288d	-0.028339649
205	0x3c8150aa	0.015785534
206	0xbc7edad9	-0.015555107
207	0xb9a7d838	-0.00032013818
208	0x3b555305	0.0032550704
209	0x3e08a988	0.13345921
210	0x3ce6404c	0.028106831
211	0x3c7dd385	0.015492325
212	0x3bc99c00	0.00615263
213	0xbceb44fe	-0.028719421
214	0xbb0eebaf	-0.002180796
215	0x3c4bc746	0.012437647
216	0x3cabd60d	0.02097609
217	0xbc97c66b	-0.01852723
218	0xbc806974	-0.015675284
219	0xbc84ba7b	-0.016202202
220	0xbc0e3acc	-0.00868101
221	0x3c97f6df	0.018550334
222	0xbcf05a37	-0.029339893
223	0xbd567110	-0.05235392
224	0x3d859711	0.06522954
225	0x3ce5f407	0.028070463
226	0x3c14eb94	0.009089369
227	0x3c8ced46	0.017202985
228	0x3d338ccf	0.043835457
229	0xbe00dfc8	-0.12585366
230	0xbd2daddc	-0.042402133
231	0x3cccfac6	0.025021922
232	0x3d4adfc8	0.04952982
233	0x3c0dea69	0.008661845
234	0x3b75a97d	0.0037485056
235	0x3d3fc87a	0.04682205
236	0x3ccebfb8	0.025237903
237	0x3bb4afbf	0.0055141146
238	0x3bf40087	0.007446352
239	0xbce5dd8f	-0.028059749
240	0x3ccac149	0.024750369
241	0x3dbe6be6	0.09297924
242	0xbc4b73cd	-0.012417746
243	0xbc9762ec	-0.018479787
244	0x3dc51e3e	0.09624909
245	0x3b66c779	0.003521411
246	0x3c3fbace	0.011702253
247	0xbc9a338d	-0.01882341
248	0x3d524dc0	0.05134368
249	0x3d091f75	0.033477265
250	0xbcd0f230	-0.025506109
251	0xbb1f1d91	-0.0024279098
252	0x3cc52911	0.024067434
253	0x3e0717af	0.13192628
254	0x3c1583f5	0.009125699
255	0xbcda8794	-0.026675977

pi.log_std_layer.bias f4 [3]
0	0xbdcee579	-0.10102362
1	0xbe0d6c33	-0.13810806
2	0xbe0d4870	-0.13797164

q1.q.0.weight f4 [256, 12]
0	0x3e5320cd	0.20617981
1	0x3eb2ddd5	0.3493487
2	0xbf77f613	-0.96859854
3	0xbee10885	-0.43951812
4	0xbd8d8648	-0.06910378
5	0x3d75a57f	0.059972282
6	0xbf77b6ac	-0.9676311
7	0x3f133e3b	0.5751683
8	0xc0913686	-4.5379057
9	0xbd4057b2	-0.046958633
10	0xbb3f0658	-0.0029148068
11	0xbcc98f74	-0.024604537
12	0xbeb159af	-0.34638736
13	0x3f4107bc	0.75402427
14	0xbda18ad6	-0.07887809
15	0xbf328f24	-0.69749665
16	0xbcf04a11	-0.029332193
17	0xbf295d45	-0.66157943
18	0xbfa0c3c9	-1.2559749
19	0xbf386305	-0.7202609
20	0xbe6f9eca	-0.23400417
21	0x3d881797	0.066451244
22	0x3c8ec0b5	0.017425874
23	0xbcd4346e	-0.025903907
24	0xbca67dd3	-0.02032367
25	0x3e30332c	0.1720702
26	0x3f020ca8	0.5080056
27	0x3df1edf9	0.11812968
28	0x3e4d62c6	0.2005721
29	0x3efefb17	0.4980094
30	0xbef0cebf	-0.47032735
31	0x3e574137	0.21020971
32	0x3e987ebf	0.297842
33	0x3deaee45	0.114712276
34	0x3cf555e9	0.029948192
35	0xbcf5299f	-0.029927073
36	0xbdf72568	-0.120676816
37	0x3c932180	0.01796031
38	0xbf2fda24	-0.6869223
39	0x3a9d4197	0.0011997697
40	0xbe4a82fc	-0.19776529
41	0xbf4c0666	-0.79697263
42	0xbe635db0	-0.22203708
43	0xbf8686c7	-1.0509881
44	0x3f17fe3c	0.59372306
45	0xbd30d4a2	-0.043171532
46	0xbcbb6dca	-0.0228795
47	0xbd04e80d	-0.032447863
48	0xbe8c0811	-0.27349904
49	0xbe93abe1	-0.2884207
50	0x3e6783ba	0.22608843
51	0x3db108c1	0.08644248
52	0x3e9e8f9a	0.30968934
53	0xbcb4ebb6	-0.022085052
54	0x3f7b53fd	0.9817503
55	0xbf42cb22	-0.76091206
56	0x3f89b5d5	1.0758616
57	0xbd3496e9	-0.04408923
58	0x3d0cb685	0.03435375
59	0x3d1583b9	0.036502574
60	0xbe413d05	-0.18870933
61	0x3e890f2c	0.26769388
62	0x3fe7e6d2	1.8117316
63	0x3e15145c	0.14558548
64	0xbd4fd5d0	-0.050741017
65	0xbda7aa79	-0.08186812
66	0x3f0e76c0	0.5564995
67	0x3a878baf	0.0010341312
68	0x3fa133d6	1.2593944
69	0xbce8aa6a	-0.028401572
70	0x3cf5c25a	0.0299999
71	0x3d629b1a	0.055323698
72	0x3dac21bd	0.084048726
73	0x3d793e4e	0.060850434
74	0x3e0317e0	0.12802076
75	0xbe0b947a	-0.13630858
76	0xbd370ad8	-0.044688076
77	0xbe33e59c	-0.17568058
78	0x3dd0d8bd	0.101975895
79	0xbbe708e9	-0.0070506227
80	0xbb5af8a5	-0.0033412364
81	0x3dd1fe99	0.10253639
82	0x3bc2fa6d	0.0059502632
83	0xbcc7ec6c	-0.024404727
84	0x3d3118af	0.04323643
85	0xbe189e2c	-0.14904088
86	0xbef729b4	-0.48274004
87	0x3eca7f7e	0.39550394
88	0xbe2d9989	-0.169531
89	0x3e9e93fc	0.30972278
90	0x3e0621b2	0.13098791
91	0xbdb4f30d	-0.08835421
92	0xbfc348dc	-1.525661
93	0x3cfd610c	0.030930065
94	0xbd32d476	-0.04365965
95	0xbc58cc60	-0.013232321
96	0x3e4905d4	0.1963113
97	0xbe31f3c9	-0.17378153
98	0x3f248e16	0.64279306
99	0xbeb4c786	-0.35308474
100	0x3e50f903	0.2040749
101	0xbf172da6	-0.5905403
102	0xbed3f972	-0.4140125
103	0x3efd9157	0.49524948
104	0x3f0a1fbd	0.5395468
105	0xbd09d082	-0.033646114
106	0xbd2831e6	-0.04106321
107	0xbd1b384e	-0.037895493
108	0xbe02844b	-0.12745778
109	0xbd0690ad	-0.032852817
110	0xbecf5d43	-0.4050084
111	0x3d5acb37	0.053416457
112	0xbede6d7e	-0.4344291
113	0xbf1f6c30	-0.62274456
114	0xbd510172	-0.05102677
115	0xbef7cf63	-0.4840041
116	0x3f9dbecc	1.2323852
117	0x3d41d3c4	0.047321096
118	0x3d3cb327	0.04606929
119	0x3d4d0542	0.050053842
120	0xbedc6e8d	-0.43053094
121	0x3eeddcd2	0.46457535
122	0xbf4e2cd2	-0.8053714
123	0xbd110850	-0.035408318
124	0xbeda712d	-0.4266447
125	0xbf947a84	-1.1599889
126	0x3e6482cb	0.22315519
127	0x3f06814f	0.5254106
128	0xbec848e3	-0.39118108
129	0xbdaa34f9	-0.08310885
130	0xbd68d6ee	-0.056845598
131	0xbbd2eae1	-0.006436691
132	0xbdd92ce0	-0.10604262
133	0xbed9b22b	-0.42518744
134	0x3f89a9b4	1.0754914
135	0x3eb8e56b	0.36112532
136	0xbe843bed	-0.2582697
137	0xbe6c990a	-0.23105255
138	0x3e568e5c	0.20952743
139	0xbe458d11	-0.19292094
140	0x3f188cee	0.5959004
141	0x3d06614c	0.032807633
142	0x3cfbea19	0.030751275
143	0x3d9ea3e5	0.07746104
144	0xbc95cd8a	-0.018286485
145	0xbe1da501	-0.15394975
146	0xbd84437f	-0.06458186
147	0x3e37724a	0.17914692
148	0x3e391f58	0.18078363
149	0x3d0f9d63	0.035062205
150	0x3f01b457	0.506658
151	0xbfab5f5a	-1.3388474
152	0xbeb68a7a	-0.35652524
153	0xbc210319	-0.009827399
154	0x3cb81d23	0.022474831
155	0x3b4e43d8	0.0031473543
156	0xbcca0cc7	-0.024664296
157	0x3e22e93d	0.15909286
158	0x3e406b35	0.18790896
159	0xbdcc3d9d	-0.09972689
160	0xbbead30d	-0.0071662725
161	0x3f581b11	0.844163
162	0xbe566f1b	-0.20940821
163	0x3eb8032f	0.3593993
164	0x3e3ba581	0.18324853
165	0xbdaa4224	-0.083133966
166	0xbc372298	-0.011177681
167	0xbe29d31c	-0.16584438
168	0x3c6d7176	0.014492383
169	0xbefb5774	-0.4909016
170	0xbdc9cef3	-0.098539256
171	0x3d77e788	0.06052354
172	0xbd94f3a3	-0.072730325
173	0xbe8521fa	-0.26002485
174	0x3f88f368	1.0699282
175	0xbf0d88c2	-0.552868
176	0x3f34c20b	0.70608586
177	0x3d589ea3	0.052885663
178	0x3ba351be	0.0049841097
179	0x3ad8c8aa	0.0016539295
180	0x3e756c2f	0.2396705
181	0x3dc65a09	0.096851416
182	0x3e27f947	0.16403686
183	0xbea772ec	-0.32704866
184	0xbc24a7df	-0.010049789
185	0xbdeb6c4c	-0.11495265
186	0x3da3da1e	0.08000587
187	0xbcc2d15d	-0.023781473
188	0x3dbb13ac	0.091346115
189	0xbaad350b	-0.001321466
190	0x3c14ed57	0.009089789
191	0xbe6b1bee	-0.22959873
192	0xbdf6b59b	-0.12046357
193	0x3e00975f	0.12557743
194	0xbe17d039	-0.14825524
195	0xbe6b2907	-0.2296487
196	0xbd28f55b	-0.041249614
197	0xbec00438	-0.3750322
198	0xbf0927a1	-0.53576094
199	0x3fbd1705	1.477265
200	0xbfe85121	-1.8149759
201	0xbd7b90a8	-0.06141725
202	0x3b591083	0.0033121414
203	0x3b61bf97	0.0034446472
204	0x3d485ef6	0.048918687
205	0x3edd52f7	0.4322736
206	0xbde7e4aa	-0.11322911
207	0xbf10c406	-0.5654911
208	0x3eea5915	0.4577109
209	0x3d901408	0.07035071
210	0xbf0e6a2a	-0.55630744
211	0x3d3d1f65	0.04617252
212	0xbf73e368	-0.9526887
213	0xbbb964a1	-0.005657748
214	0xbb5756ff	-0.003285825
215	0xbc0a8d62	-0.00845656
216	0x3ea8b147	0.32947752
217	0xbecd50b1	-0.40100625
218	0x3de7576f	0.112959735
219	0xbde7697c	-0.112994164
220	0x3c27774a	0.010221312
221	0x3e789e45	0.24279125
222	0x3f323c89	0.6962362
223	0xbfadfc3c	-1.3592601
224	0x3de2e657	0.1107909
225	0xbd0f13db	-0.034931045
226	0xbd0bddbb	-0.034147006
227	0xbd321fdb	-0.04348741
228	0xbe3e4ba6	-0.18583545
229	0xbeab8764	-0.33501732
230	0xbee96811	-0.4558721
231	0xbe2bb409	-0.16767897
232	0xbd304c9f	-0.04304182
233	0xbf80d8ed	-1.00662
234	0x3f0639ab	0.52431744
235	0x3e53884a	0.20657459
236	0x3f956ac8	1.1673212
237	0xbdb4d8aa	-0.08830388
238	0x3ae41100	0.0017400086
239	0xbd3b6c68	-0.04575768
240	0x3e0a6913	0.13516645
241	0x3d64afe5	0.05583181
242	0x3f06376e	0.5242833
243	0xbd88f96c	-0.066881984
244	0x3e16548b	0.14680688
245	0xbeed007b	-0.4628943
246	0xbeab6526	-0.33475608
247	0xbe93218e	-0.28736538
248	0xbff8c7a8	-1.943593
249	0x3b6d44d7	0.0036204362
250	0x3bf8d473	0.0075936853
251	0x3c51f4ab	0.012814681
252	0xbd690d12	-0.05689723
253	0xbdac5680	-0.08414936
254	0xbed1cee4	-0.40978158
255	0x3db8f00c	0.0903016
